Gridworld_OTDD/envs/policy_models/DQN/set_stc/iter_0/model_58.pth (torch, 2661 bytes, 4 tensors)

extractor.0.weight f4 [32, 2]
-0.23565686 -0.51493543 -0.025780383 -0.093884714 0.34974492 0.25790474 -0.24321142 -0.5083698
0.4782701 -0.47312036 0.50650615 -0.150633 0.43611905 -0.6417001 0.5440241 -0.5903073
-0.008204221 0.39202434 -0.05223815 -0.034019418 -0.65238035 0.35215184 -0.6238519 -0.5017558
-0.20896256 0.58624774 0.6308745 -0.41399813 0.05134329 0.59769076 0.29569554 -0.19945279
-0.15843658 0.022875033 0.60931236 -0.43625653 0.34281775 0.40780935 -0.38825482 -0.48492613
-0.2884151 0.01671898 0.06674552 0.28136256 -0.69848704 -0.0267458 0.06734468 0.067908265
0.028258787 0.006912083 -0.24477515 -0.7026193 0.6517757 0.03957075 0.27922413 -0.2332146
-0.17477994 0.1831933 0.099455014 -0.44838506 0.14873226 -0.5424782 0.067703515 -0.13510779
00000000: 0850 71be cfd2 03bf 6231 d3bc a146 c0bd
00000010: c411 b33e 170c 843e 6a0c 79be 8624 02bf
00000020: d2df f43e d53c f2be 63aa 013f 8a3f 1abe
00000030: ff4a df3e 7546 24bf 2a45 0b3f 611e 17bf
00000040: ff6a 06bc 6ab7 c83e acf7 55bd f257 0bbd
00000050: 6602 27bf 3f4d b43e c2b4 1fbf 1173 00bf
00000060: 48fa 55be 5514 163f fe80 213f 90f7 d3be
00000070: 574d 523d 4302 193f 6865 973e 5a3d 4cbe
00000080: 333d 22be 6c64 bb3c e5fb 1b3f 045d dfbe
00000090: cf85 af3e 63cc d03e 56c9 c6be 3d48 f8be
000000a0: 25ab 93be 3ef6 883c e0b1 883d c10e 903e
000000b0: 0cd0 32bf 021a dbbc 02ec 893d 7d13 8b3d
000000c0: f97e e73c c17e e23b 56a6 7abe dcde 33bf
000000d0: c6da 263f f014 223d 77f6 8e3e cfcf 6ebe
000000e0: 83f9 32be 0697 3b3e 12af cb3d ba92 e5be
000000f0: 454d 183e dadf 0abf 24a8 8a3d b259 0abe

extractor.0.bias f4 [32]
0.30964875 -0.40264553 -0.13159426 0.3398189 0.41686976 -0.32023588 0.6910707 -0.6627482
-0.17529936 -0.5080422 0.58317506 0.056679923 -0.19155279 -0.4036069 0.29305 0.62642896
-0.49450392 0.3566403 -0.5942583 -0.5402831 0.457434 -0.4744598 -0.019934531 0.099379145
0.24203105 0.12321859 0.35257643 -0.5168402 0.47435898 0.45926854 0.44696116 -0.56650555
00000000: 488a 9e3e 8e27 cebe a5c0 06be befc ad3e
00000010: f46f d53e f5f5 a3be 02ea 303f dea9 29bf
00000020: ad81 33be 0e0f 02bf f64a 153f 3529 683d
00000030: 6a26 44be 90a5 cebe a60a 963e a65d 203f
00000040: 9e2f fdbe 8f99 b63e 5021 18bf fe4f 0abf
00000050: ca34 ea3e 65ec f2be be4d a3bc 4b87 cb3d
00000060: fdd6 773e 075a fc3d e684 b43e a44f 04bf
00000070: 2edf f23e 3f25 eb3e 18d8 e43e 8206 11bf

classifier.0.weight f4 [4, 32]
0.023204243 -0.021732664 0.13008113 0.03401906 0.13443816 -0.085609734 0.08371396 0.1455475
-0.1559195 -0.10325009 0.033274073 0.026710186 0.052283566 0.08588116 -0.03792506 0.09963161
-0.031996537 -0.01870532 -0.08043583 -0.07396749 0.030935723 -0.16549906 0.081641965 -0.14129286
-0.12676334 -0.14345612 -0.090306446 -0.09094771 0.1255065 -0.08122108 0.05481383 -0.07788268
-0.15158607 -0.11955628 -0.044803236 0.12686317 -0.008924911 0.1755625 -0.045031566 0.016896756
0.05539887 0.12554994 -0.057444446 0.009346253 -0.17286159 0.10423377 0.08624267 0.012708181
-0.13218354 -0.11907534 -0.1548841 0.012130305 0.102892235 0.0709397 -0.10092807 0.0939919
-0.14952615 -0.016795581 -0.110612 -0.09769669 -0.1627656 0.07467374 0.11901507 -0.10479995
0.11507936 -0.17005229 -0.016740981 -0.17544839 -0.1235452 0.0064661484 -0.07651366 0.10012384
-0.17311507 0.03452543 -0.076828584 0.056403335 0.15591636 -0.09304422 -0.12091859 -0.09065616
-0.01829327 0.15756877 0.15393771 0.058422655 0.12686647 -0.107884526 -0.0830384 0.04046506
0.07947365 -0.039488792 0.08080297 0.17263341 0.018160192 -0.02527734 0.06971314 -0.13598509
0.1416621 -0.11268065 -0.17565356 -0.082233705 -0.026746538 -0.037203085 0.00040104834 -0.016689604
0.071924604 0.0078019504 -0.11932523 0.12619877 0.086412884 0.10881591 0.08678472 -0.06236998
-0.15628642 0.16690686 0.060094744 -0.06275295 -0.14655328 -0.09820645 0.026609749 0.0038940737
0.031239012 -0.12798996 -0.024711246 0.08692615 -0.07972209 -0.09094778 -0.0643101 -0.027388623
00000000: d316 be3c b308 b2bc fd33 053e 9257 0b3d
00000010: 28aa 093e 2854 afbd 3a72 ab3d 670a 153e
00000020: 5da9 1fbe c874 d3bd 654a 083d 52cf da3c
00000030: 4b27 563d 76e2 af3d 4f57 1bbd a80b cc3d
00000040: cd0e 03bd e63b 99bc 8abb a4bd 447c 97bd
00000050: ea6c fd3c 9678 29be e733 a73d 13af 10be
00000060: 40ce 01be 29e6 12be 96f2 b8bd cb42 babd
00000070: c784 003e 3d57 a6bd 7784 603d f480 9fbd
00000080: 6139 1bbe ecd9 f4bd 9983 37bd 6be8 013e
00000090: ca39 12bc a8c6 333e 0573 38bd 116b 8a3c
000000a0: ede9 623d 2a90 003e de4a 6bbd 0721 193c
000000b0: a102 31be 8478 d53d ff9f b03d f935 503c
000000c0: 1f5b 07be c6dd f3bd f099 1ebe 30be 463c
000000d0: 2ab9 d23d d548 913d 60b3 cebd d37e c03d
000000e0: 621d 19be e396 89bc 8b88 e2bd 3415 c8bd
000000f0: 07ac 26be 8cee 983d 2cbe f33d 5ba1 d6bd
00000100: baae eb3d 3022 2ebe 6224 89bc bea8 33be
00000110: 4405 fdbd fce1 d33b 32b3 9cbd ba0d cd3d
00000120: 1445 31be 8a6a 0d3d 4e58 9dbd 2f07 673d
00000130: 8aa8 1f3e f88d bebd 2aa4 f7bd f0a9 b9bd
00000140: c5db 95bc b559 213e d9a1 1d3e 984c 6f3d
00000150: 49e9 013e 90f2 dcbd 0910 aabd b1be 253d
00000160: 15c3 a23d 00bf 21bd 077c a53d d0c6 303e
00000170: afc4 943c 6d12 cfbc c3c5 8e3d ad3f 0bbe
00000180: df0f 113e 1dc5 e6bd 87de 33be 256a a8bd
00000190: 8e1b dbbc 4362 18bd cc43 d239 a3b8 88bc
000001a0: 354d 933d 81a7 ff3b c960 f4bd 403a 013e
000001b0: 3df9 b03d e0da de3d 30bc b13d aa77 7fbd
000001c0: 8c09 20be a2e9 2a3e e825 763d 9e84 80bd
000001d0: 1012 16be 7720 c9bd b0fc d93c b733 7f3b
000001e0: f5e8 ff3c cd0f 03be 3d6f cabc 5606 b23d
000001f0: 5645 a3bd d442 babd 04b5 83bd 1b5e e0bc

classifier.0.bias f4 [4]
-0.10380349 0.11721487 -0.04903541 0.03824502
00000000: ed96 d4bd 5a0e f03d 5bd9 48bd cfa6 1c3d
