Gridworld_OTDD/envs/policy_models/DQN/set_stc/iter_0/model_1175.pth (torch, 2673 bytes, 4 tensors)

extractor.0.weight f4 [32, 2]
00000000: 6921 90bf b397 2abd 6231 d3bc a146 c0bd
00000010: f6c0 02bf abd7 48bf d88d 12bf 08d6 afbf
00000020: d135 5a3d cff5 dfbf 9f38 a4be 8dc3 25bf
00000030: 2f03 91bd bb5c 6bbf 6057 0e3e 732c b8bf
00000040: 42fa 0abf 5050 21be acf7 55bd f257 0bbd
00000050: 1ba8 6ebf 4acf cdbe c2b4 1fbf 1173 00bf
00000060: 5bbc aebf ce4e d1bd 69c7 e33e 4582 0ac0
00000070: 6485 1cbf 3f9e 37bf 5bc1 29bf eef1 a3bf
00000080: 333d 22be 6c64 bb3c f2e4 6dbf 919a c7bf
00000090: c51b 0bbf 39ca 04be 56c9 c6be 3d48 f8be
000000a0: cfa3 7bbe 8ce9 bbbe 7daa 94bf dd95 33be
000000b0: 0cd0 32bf 021a dbbc 7407 41bf 0574 e3be
000000c0: 181a abbc 7e07 8fbf 26d3 61be 5035 90bf
000000d0: f251 373e 9286 19bf c84e c3bd c64e f8be
000000e0: 8ba7 42bf 325a 5bbf 8cab 4fbe d4d6 28bf
000000f0: 1b2a 5cbe 0442 83bf 24a8 8a3d b259 0abe
-1.1260196 -0.041648578 -0.025780383 -0.093884714 -0.51075685 -0.78454083 -0.57247686 -1.3737192
0.05327398 -1.749689 -0.32074448 -0.6475151 -0.07080685 -0.9193837 0.13900518 -1.4388565
-0.54288113 -0.15753293 -0.05223815 -0.034019418 -0.9322526 -0.40197212 -0.6238519 -0.5017558
-1.3651232 -0.10220109 0.44488075 -2.164201 -0.6114104 -0.7172584 -0.6631066 -1.2808206
-0.15843658 0.022875033 -0.9292747 -1.5594045 -0.5433925 -0.12967767 -0.38825482 -0.48492613
-0.24574207 -0.3670162 -1.1614529 -0.17537637 -0.69848704 -0.0267458 -0.75402 -0.44424453
-0.020886466 -1.1174161 -0.22053203 -1.126627 0.17902353 -0.59970963 -0.09536511 -0.484976
-0.760369 -0.856845 -0.20280284 -0.659528 -0.21500437 -1.0254521 0.067703515 -0.13510779

extractor.0.bias f4 [32]
00000000: e86d 9c40 8e27 cebe 529f 18bd d981 a83f
00000010: c513 c33f c5b7 9c3e 9e67 f53f 2ee3 2abf
00000020: 78e2 6c3f 0e0f 02bf 4cd2 2c40 2ceb 9bbe
00000030: 8e12 e33f 9d60 c03e 9a40 b03f b7a9 e03f
00000040: 9e2f fdbe 9efb 763f 4fe0 573f fe4f 0abf
00000050: c41a d23f b90f d53f be4d a3bc ea4d 143f
00000060: fa79 773f 4c04 8540 0d6c 1b40 790a 00be
00000070: d8cd ca3f 1c0c dc3f 9b6f 1c40 8206 11bf
4.8884163 -0.40264553 -0.037261315 1.3164626 1.5240408 0.30608955 1.9172246 -0.667529
0.92533064 -0.5080422 2.7003355 -0.3045286 1.7740037 0.3757371 1.3769715 1.7551793
-0.49450392 0.9647769 0.8432664 -0.5402831 1.6414418 1.6645423 -0.019934531 0.5793139
0.96670496 4.1567745 2.42847 -0.12503995 1.5844069 1.7191195 2.4443119 -0.56650555

classifier.0.weight f4 [4, 32]
00000000: 5829 70c0 b308 b2bc cd6c 1ebe 8d21 d7bd
00000010: 48ab 00bf 5381 a83d 8433 d0be 1cb6 f83e
00000020: 03f6 2f3f c874 d3bd d631 87bf 02d7 9bbe
00000030: c21e e33f d8e9 923e 1564 2abd f62e 15bf
00000040: cd0e 03bd 0835 593e c1dc 003f 447c 97bd
00000050: 8d39 0ebf 245d c63f e733 a73d 5914 e03e
00000060: dffd f9be 4385 25c0 2110 88bf ebbe c23c
00000070: 87b2 94be d718 43bf e932 acbd f480 9fbd
00000080: 0c6b 2ac0 ecd9 f4bd 6beb 6abd dbcb 23bf
00000090: dc33 2cbf 361e 683e c635 4ebe aa3c a33d
000000a0: 7a7c ab3e 2a90 003e 18ef 63bf 93f4 94be
000000b0: f32b 2f3d 8f9c 80bf 8cac 923e 8eb1 79be
000000c0: 1f5b 07be 1cc9 32bf b153 193e 30be 463c
000000d0: de8a 113e 96b8 b13e 60b3 cebd baa5 a73e
000000e0: 6f13 f8bd 0afc 13c0 0b5b 1c3f 918b 82be
000000f0: d343 92bd a304 893e b3ae acbf 5ba1 d6bd
00000100: 1655 15c0 3022 2ebe c17a 49be c096 e53c
00000110: 6e66 0ebf ac45 963e b2d8 dbbe 2875 cc3e
00000120: 8c5b 15be 8a6a 0d3d a368 1abf 558b 8cbe
00000130: 0703 52bd 505f 94bf 62ed 3ebf daf9 79bf
00000140: c5db 95bc 7adb a03f 6af8 403d 984c 6f3d
00000150: 95de cdbb 233b 9dbd 0910 aabd 3f62 923e
00000160: ba27 adbd 27f0 1dc0 b662 1abd d269 953d
00000170: 6327 2dbf 16e9 123d 336d 90bf ad3f 0bbe
00000180: 5c56 57c0 1dc5 e6bd e9fb f0be ab6b 283f
00000190: 5999 1140 e124 00be ab3c 6fbf d272 dabf
000001a0: 9221 c53b 81a7 ff3b 8e96 8bbf fab5 51be
000001b0: 3bc3 413f ca23 e23f bafb 0ebe 8be7 d63e
000001c0: 8c09 20be 850c 7c3f 7a71 313e 9e84 80bd
000001d0: ead6 40bf 86d1 e93e b0fc d93c 1fc3 81be
000001e0: 1721 8e3f 9e41 5bc0 04d0 a7bf 7de7 e83e
000001f0: 7922 37be d1ff 84bf d369 61bf 1b5e e0bc
-3.7525234 -0.021732664 -0.15471192 -0.10504446 -0.50261354 0.08227792 -0.40664303 0.48576438
0.6873476 -0.10325009 -1.0562084 -0.30437475 1.7743762 0.28694034 -0.041599352 -0.5827478
-0.031996537 0.21211636 0.50336844 -0.07396749 -0.55556566 1.5497174 0.081641965 0.43765524
-0.488265 -2.5862586 -1.0629922 0.023772677 -0.29042456 -0.7620978 -0.08408148 -0.07788268
-2.6627836 -0.11955628 -0.05735342 -0.63982934 -0.6726663 0.22667775 -0.201377 0.07970555
0.33493406 0.12554994 -0.89036703 -0.29092845 0.042766523 -1.0047778 0.28647268 -0.24384138
-0.13218354 -0.6983812 0.14973332 0.012130305 0.1421313 0.3471114 -0.10092807 0.32743627
-0.12113082 -2.3122582 0.6107642 -0.25497106 -0.07141843 0.2676135 -1.3490814 -0.10479995
-2.3333182 -0.17005229 -0.19675733 0.028025985 -0.55625045 0.2935003 -0.42938763 0.39933133
-0.14585704 0.03452543 -0.6031591 -0.27450052 -0.05127242 -1.1591587 -0.7458097 -0.9764687
-0.01829327 1.2566979 0.047111906 0.058422655 -0.0062826374 -0.07677295 -0.0830384 0.2859058
-0.08454843 -2.4677827 -0.037691794 0.07295574 -0.67638224 0.03586682 -1.1283325 -0.13598509
-3.364646 -0.11268065 -0.47067192 0.6578929 2.2749846 -0.12514068 -0.93451947 -1.706629
0.006015965 0.0078019504 -1.0905321 -0.20479575 0.75688523 1.7667172 -0.13963214 0.41973528
-0.15628642 0.98456603 0.17328444 -0.06275295 -0.7532793 0.45667666 0.026609749 -0.25344178
1.1103848 -3.42588 -1.3110356 0.45489112 -0.17884244 -1.0390569 -0.880521 -0.027388623

classifier.0.bias f4 [4]
00000000: 6daf 81c0 6a1d 34c0 641f cbbf 1b76 41c0
-4.0526643 -2.8142953 -1.5868955 -3.0228336
