Gridworld_OTDD/envs/policy_models/DQN/set_stc/iter_0/model_1187.pth (torch, 2673 bytes, 4 tensors)

extractor.0.weight f4 [32, 2]
00000000: a714 8bbf 33e0 bbbd 6231 d3bc a146 c0bd
00000010: f6c0 02bf abd7 48bf 7d32 12bf 08d6 afbf
00000020: 95a0 a7bc 53f9 dfbf c4c2 a6be 8dc3 25bf
00000030: 6a58 4c3c 4678 67bf 6057 0e3e 732c b8bf
00000040: b7fc 16bf 709b 20be acf7 55bd f257 0bbd
00000050: 9ff2 62bf 8d85 d0be c2b4 1fbf 1173 00bf
00000060: 4fdd b7bf 4279 9fbc ba29 bf3e 4582 0ac0
00000070: abf2 17bf 0b54 32bf 28e6 24bf 23f8 a2bf
00000080: 333d 22be 6c64 bb3c 07ec 6dbf 919a c7bf
00000090: 1d33 16bf 8abf 12be 56c9 c6be 3d48 f8be
000000a0: d5fa 40be bc87 b1be b9fb a1bf 63af 4ebe
000000b0: 0cd0 32bf 021a dbbc 7407 41bf 3439 e3be
000000c0: 4595 8dbd 7e07 8fbf 483d 0bbe b49f 88bf
000000d0: c41f 553e 5d92 32bf c84e c3bd c64e f8be
000000e0: 349d 3bbf 7930 58bf 9dbb e3bd decc 2abf
000000f0: 08ac f8bd 5eec 7cbf 24a8 8a3d b259 0abe
-1.0865678 -0.09173622 -0.025780383 -0.093884714 -0.51075685 -0.78454083 -0.5710829 -1.3737192
-0.020462314 -1.7497963 -0.3257047 -0.6475151 0.012472251 -0.904179 0.13900518 -1.4388565
-0.5897936 -0.15684295 -0.05223815 -0.034019418 -0.8865146 -0.4072689 -0.6238519 -0.5017558
-1.4364413 -0.019467 0.37336522 -2.164201 -0.59354657 -0.6965949 -0.6441369 -1.2731975
-0.15843658 0.022875033 -0.92938274 -1.5594045 -0.5867174 -0.14330879 -0.38825482 -0.48492613
-0.18845685 -0.3467387 -1.2654945 -0.20184092 -0.69848704 -0.0267458 -0.75402 -0.4437958
-0.069132365 -1.1174161 -0.13597596 -1.0673738 0.20812899 -0.6975458 -0.09536511 -0.484976
-0.7328675 -0.84448963 -0.11119769 -0.6671885 -0.12142187 -0.9879817 0.067703515 -0.13510779

extractor.0.bias f4 [32]
00000000: 395d a040 8e27 cebe 529f 18bd 736a ab3f
00000010: 1bc4 c43f 9d90 963e f6eb ff3f 2ee3 2abf
00000020: 7e7b 533f 0e0f 02bf 76f9 3240 2ceb 9bbe
00000030: a863 d33f 052d bb3e 8063 b23f 0218 e63f
00000040: 9e2f fdbe 47fb 833f 44b2 383f fe4f 0abf
00000050: 61fb d93f e340 be3f be4d a3bc 78ea 0e3f
00000060: 7159 7a3f 1618 8a40 2d46 1d40 790a 00be
00000070: c5d2 cf3f bc23 e43f 7aa8 2240 8206 11bf
5.0113797 -0.40264553 -0.037261315 1.3391861 1.5372347 0.29407206 1.9993885 -0.667529
0.8261031 -0.5080422 2.796476 -0.3045286 1.6514788 0.36557785 1.3936615 1.7976077
-0.49450392 1.0311059 0.7214701 -0.5402831 1.702984 1.4863552 -0.019934531 0.5582652
0.97792727 4.31544 2.4574082 -0.12503995 1.6236197 1.7823405 2.541533 -0.56650555

classifier.0.weight f4 [4, 32]
00000000: af75 75c0 b308 b2bc cd6c 1ebe 08d2 3ebe
00000010: 9600 1fbf e32c 6f3d d7c5 02bf 1cb6 f83e
00000020: 2164 1c3f c874 d3bd f1d3 91bf 02d7 9bbe
00000030: 8a40 d23f 27e0 3d3e 130c eebd cb5f 29bf
00000040: cd0e 03bd d030 1a3e 8c54 d63e 447c 97bd
00000050: fe25 28bf be88 b63f e733 a73d b271 d03e
00000060: bff8 11bf 2e0f 2ec0 df5e 94bf ebbe c23c
00000070: e2c3 bfbe ce71 5cbf eeec 53be f480 9fbd
00000080: 1df0 2ec0 ecd9 f4bd 6beb 6abd 8315 3bbf
00000090: c930 47bf 7e08 5e3e a6f9 9dbe aa3c a33d
000000a0: 8058 9d3e 2a90 003e b23a 75bf 93f4 94be
000000b0: a127 05bd 505f 8abf 916c 823e a294 96be
000000c0: 1f5b 07be c3c8 42bf 2439 fb3d 30be 463c
000000d0: e05d 7c3d da64 963e 60b3 cebd bfb3 a13e
000000e0: 24aa 2fbe 1674 1cc0 510e 0a3f 918b 82be
000000f0: f2dd e3bd 0132 303e 10db bfbf 5ba1 d6bd
00000100: 3008 1ac0 3022 2ebe c17a 49be 2e26 313d
00000110: 123e 0cbf 035c 9a3e fcee e3be 2875 cc3e
00000120: adaa 31be 8a6a 0d3d c777 29bf 558b 8cbe
00000130: d506 2ebe 73e6 94bf 1397 3ebf a8d5 78bf
00000140: c5db 95bc 06e1 a43f 74c5 963c 984c 6f3d
00000150: f2d2 6bbd 4e7a 0dbe 0910 aabd a0a7 973e
00000160: 84c7 a0bd fdc7 22c0 b752 ddbd d269 953d
00000170: 023e 2cbf 10b8 173c 1b6c 94bf ad3f 0bbe
00000180: b75e 58c0 1dc5 e6bd e9fb f0be 6431 2a3f
00000190: aaa4 0d40 1484 fbbd 1eb1 83bf d272 dabf
000001a0: c0a0 da3a 81a7 ff3b 1f60 90bf fab5 51be
000001b0: c99f 383f 28ac cf3f 7a04 19be f5d1 d13e
000001c0: 8c09 20be 82f0 7c3f b431 2b3e 9e84 80bd
000001d0: a775 4ebf 546c e13e b0fc d93c 338d 82be
000001e0: d818 8a3f a193 61c0 fc23 b2bf 7de7 e83e
000001f0: e6b1 3fbe c662 8dbf 8cf1 7cbf 1b5e e0bc
-3.8353078 -0.021732664 -0.15471192 -0.18634808 -0.6211027 0.058392417 -0.5108313 0.48576438
0.61090285 -0.10325009 -1.1392804 -0.30437475 1.6425946 0.18542539 -0.11623397 -0.66161793
-0.031996537 0.15057683 0.4186138 -0.07396749 -0.6568297 1.426048 0.081641965 0.40711743
-0.5702018 -2.7196765 -1.1591452 0.023772677 -0.37454134 -0.8611115 -0.2069585 -0.07788268
-2.7334054 -0.11955628 -0.05735342 -0.730797 -0.77808815 0.21682927 -0.3085453 0.07970555
0.30731583 0.12554994 -0.95792687 -0.29092845 -0.032508496 -1.0810337 0.25473455 -0.29410273
-0.13218354 -0.7608759 0.12266758 0.012130305 0.061612964 0.2937382 -0.10092807 0.31582448
-0.17154747 -2.4445853 0.53928095 -0.25497106 -0.11126317 0.17206575 -1.4988728 -0.10479995
-2.4067497 -0.17005229 -0.19675733 0.0432493 -0.5478221 0.30148324 -0.44518268 0.39933133
-0.17350264 0.03452543 -0.6619839 -0.27450052 -0.16994794 -1.1632828 -0.7444927 -0.97201014
-0.01829327 1.2881172 0.0184047 0.058422655 -0.05757422 -0.13816187 -0.0830384 0.29620075
-0.078505546 -2.5434563 -0.10806792 0.07295574 -0.67282116 0.0092601925 -1.1595491 -0.13598509
-3.380781 -0.11268065 -0.47067192 0.66481614 2.2131753 -0.12281051 -1.0288427 -1.706629
0.0016679987 0.0078019504 -1.1279334 -0.20479575 0.7211881 1.6224413 -0.14943114 0.40980497
-0.15628642 0.98804486 0.16718179 -0.06275295 -0.80648273 0.4402796 0.026609749 -0.2549835
1.0788832 -3.5246356 -1.3917232 0.45489112 -0.18720207 -1.1045768 -0.9880607 -0.027388623

classifier.0.bias f4 [4]
00000000: 0c79 83c0 9e73 39c0 fd23 d9bf 2339 44c0
-4.108526 -2.8976817 -1.6964108 -3.0659873
