Gridworld_OTDD/envs/policy_models/DQN/set_stc/iter_0/model_271.pth (torch, 2667 bytes, 4 tensors)

extractor.0.weight f4 [32, 2]
0	0x3f12e342	0.5737802
1	0x3edc5cec	0.43039644
2	0xbcd33162	-0.025780383
3	0xbdc046a1	-0.093884714
4	0xbeaf9c2b	-0.34298834
5	0xbf333471	-0.70001894
6	0xbf866c7d	-1.0501858
7	0xbfa344dc	-1.2755389
8	0xbd83edc3	-0.06441834
9	0xbf6f411e	-0.93458736
10	0xbdf85238	-0.12125057
11	0xbf25c38d	-0.6475151
12	0xbea47b3e	-0.32125276
13	0xbf99468c	-1.1974654
14	0x3e0e5760	0.13900518
15	0xbfb82c73	-1.4388565
16	0xbebbb90f	-0.36664626
17	0xbea3cad6	-0.3199069
18	0xbd55f7ac	-0.05223815
19	0xbd0b57f2	-0.034019418
20	0xbfb12bab	-1.3841451
21	0xbefd07c9	-0.49420002
22	0xbf1fb4c2	-0.6238519
23	0xbf007311	-0.5017558
24	0xbf3ef268	-0.7458863
25	0xbe907666	-0.2821533
26	0x3eaf76d1	0.34270337
27	0xbfabb45b	-1.3414415
28	0xbf36a25c	-0.7134149
29	0xbf405276	-0.75125825
30	0xbf050782	-0.5196458
31	0xbfa289f2	-1.2698348
32	0xbe223d33	-0.15843658
33	0x3cbb646c	0.022875033
34	0xbf2f69a3	-0.68520564
35	0xbf8c4f67	-1.0961732
36	0xbe0ef390	-0.13960099
37	0xbe81c7fc	-0.25347888
38	0xbec6c956	-0.38825482
39	0xbef8483d	-0.48492613
40	0xbf2ce966	-0.6754364
41	0xbf11e173	-0.56984633
42	0xbebab2f6	-0.3646466
43	0xbe97eae5	-0.29671398
44	0xbf32d00c	-0.69848704
45	0xbcdb1a02	-0.0267458
46	0xbebef0fb	-0.37293229
47	0xbedc98c9	-0.43085316
48	0xbecde782	-0.4021569
49	0xbf35176e	-0.70738876
50	0xbf1e5a90	-0.6185694
51	0xbfc2637f	-1.5186614
52	0xbe780586	-0.24220857
53	0xbf8807ca	-1.0627377
54	0xbdc2227f	-0.09479236
55	0xbef842c6	-0.48488444
56	0xbf849659	-1.0358382
57	0xbf5835c2	-0.8445703
58	0xbe846dcc	-0.25865018
59	0xbf54237d	-0.8286665
60	0xbf4b1c0e	-0.79339683
61	0xbf8e4e35	-1.1117617
62	0x3d8aa824	0.067703515
63	0xbe0a59b2	-0.13510779

extractor.0.bias f4 [32]
0	0x409a7e5d	4.827925
1	0xbece278e	-0.40264553
2	0x3f8ef123	1.1167339
3	0x3ff775e1	1.9332849
4	0x3fe13682	1.759476
5	0x3dad9f9a	0.08477707
6	0x4024ad3f	2.573074
7	0xbf2ae32e	-0.667529
8	0x3f333fc1	0.70019156
9	0xbf020f0e	-0.5080422
10	0x40422ffc	3.0341787
11	0xbe9beb2c	-0.3045286
12	0x3e82ba58	0.25532794
13	0xbd88bf2f	-0.066770904
14	0x4008f8d2	2.1401868
15	0x402af9a1	2.6714861
16	0xbefd2f9e	-0.49450392
17	0x3efe05d8	0.49613833
18	0x3e286927	0.16446362
19	0xbf0a4ffe	-0.5402831
20	0x400564c3	2.084275
21	0x3e79e988	0.24405491
22	0xbca34dbe	-0.019934531
23	0x3f9672c1	1.175377
24	0x3fcbfc36	1.5936344
25	0x407fc0a2	3.9961324
26	0x401f509e	2.4892955
27	0xbdfa15ed	-0.12211213
28	0x4016a83a	2.3540177
29	0x40076e4a	2.1161065
30	0x403ad9a2	2.9195333
31	0xbf110682	-0.56650555

classifier.0.weight f4 [4, 32]
0	0xc04dd25d	-3.2159646
1	0xbcb208b3	-0.021732664
2	0xbf1b2871	-0.60608584
3	0xbf4f7b40	-0.8104744
4	0xbf30f346	-0.69121206
5	0x3d1d495b	0.038400035
6	0xbf90d5bf	-1.131523
7	0x3ef8b61c	0.48576438
8	0xbe826a5e	-0.25471777
9	0xbdd374c8	-0.10325009
10	0xbffcd3fb	-1.9752191
11	0xbe9bd702	-0.30437475
12	0x3e33b08e	0.17547819
13	0xbf7a441e	-0.9776019
14	0xbfa74f84	-1.3071141
15	0xbfb3cc73	-1.4046768
16	0xbd030ecd	-0.031996537
17	0x3e175b78	0.14780986
18	0x3e21a358	0.15784967
19	0xbd977c44	-0.07396749
20	0xbf8b6c62	-1.0892451
21	0x3e737bea	0.23777738
22	0x3da733e7	0.081641965
23	0xbebdec22	-0.37094218
24	0xbf5f8f1d	-0.8732775
25	0xc04c736d	-3.194545
26	0xbfab8785	-1.3400732
27	0x3cc6fe89	0.024291294
28	0xbfb45f20	-1.409153
29	0xbf86e041	-1.0537187
30	0xbf9ccf7d	-1.225082
31	0xbd9f80f4	-0.07788268
32	0xc02a1bfb	-2.6579578
33	0xbdf4d9ec	-0.11955628
34	0xbe8872ba	-0.2665003
35	0xbfbc4d2c	-1.4711051
36	0xbeda3423	-0.42617902
37	0x3e713862	0.23556665
38	0xbf86f85d	-1.0544544
39	0x3da33caa	0.07970555
40	0x3e1e019e	0.15430304
41	0x3e00902a	0.12554994
42	0xbf6eb420	-0.932436
43	0xbe94f493	-0.29092845
44	0x3cad0342	0.021119718
45	0xbf3d7efe	-0.740219
46	0xbe8a5656	-0.27018994
47	0xbf480444	-0.7813151
48	0xbe075b1f	-0.13218354
49	0xbf29f767	-0.6639313
50	0x3e119d63	0.14220195
51	0x3c46be30	0.012130305
52	0xbeeceae5	-0.4627296
53	0x3ebecc10	0.37265062
54	0xbdceb360	-0.10092807
55	0x3d8299ca	0.06376989
56	0xbecb0620	-0.3965311
57	0xc04f0f41	-3.235306
58	0xbf07c02c	-0.53027606
59	0xbe825eaf	-0.25462863
60	0xbf4fcd27	-0.8117241
61	0xbec4a466	-0.38406676
62	0xc016b406	-2.3547378
63	0xbdd6a15b	-0.10479995
64	0xc054e2fa	-3.3263535
65	0xbe2e2230	-0.17005229
66	0xbee60d88	-0.449322
67	0xbf5352b7	-0.8254809
68	0xbedcc2fa	-0.43117505
69	0x3d39a62f	0.0453245
70	0xbf3cdd4f	-0.7377519
71	0x3ecc7528	0.39933133
72	0xbe809bd4	-0.25118887
73	0x3d0d6a8a	0.03452543
74	0xbfc51629	-1.5397388
75	0xbe8c8b55	-0.27450052
76	0x3df6bfa8	0.12048274
77	0xbf413734	-0.7547486
78	0xbf655cbd	-0.8959463
79	0xbf8a01ba	-1.0781777
80	0xbc95dbc5	-0.01829327
81	0x3eb6e329	0.35720184
82	0x3e4a7ae1	0.19773437
83	0x3d6f4c98	0.058422655
84	0xbf225802	-0.6341554
85	0x3d68e83f	0.056862112
86	0xbdaa1009	-0.0830384
87	0xbe13c582	-0.14430812
88	0xbeb3f573	-0.351482
89	0xc038e6e6	-2.889093
90	0xbf3d5d74	-0.73970723
91	0x3d95f6c2	0.07322456
92	0xbf7b21f9	-0.98098713
93	0xbf044f56	-0.5168356
94	0xbf9130bd	-1.1342999
95	0xbe0b3fad	-0.13598509
96	0xc0529772	-3.2904935
97	0xbde6c51d	-0.11268065
98	0xbf6512f1	-0.8948203
99	0xbf8244a6	-1.01772
100	0xbf28f2ca	-0.65995467
101	0xbd38416a	-0.04498426
102	0xbfbbae4d	-1.4662567
103	0xbfda72d2	-1.706629
104	0xbeae18c7	-0.3400328
105	0x3bffa781	0.0078019504
106	0xbf9d1986	-1.2273414
107	0xbe51b5fa	-0.20479575
108	0x3eeaacd6	0.45834988
109	0x3e3ba0c0	0.1832304
110	0xbf6e6684	-0.93125176
111	0xbfc00c46	-1.5003746
112	0xbe20098c	-0.15628642
113	0x3f01a296	0.5063871
114	0xbdb34f3e	-0.087553486
115	0xbd80849e	-0.06275295
116	0xbf2d49f5	-0.67690974
117	0xbe32c76b	-0.17458884
118	0x3cd9fcb0	0.026609749
119	0xbe90f1bf	-0.28309438
120	0xbf22dee2	-0.6362134
121	0xc0553804	-3.331544
122	0xbfaa8ea9	-1.3324786
123	0x3ee92bda	0.4554127
124	0xbf8b09bb	-1.0862345
125	0xbf653926	-0.89540327
126	0xbfef8333	-1.8711914
127	0xbce05e1b	-0.027388623

classifier.0.bias f4 [4]
0	0xc03d48ce	-2.9575686
1	0xc02ca29c	-2.697425
2	0xc018cd2f	-2.3875234
3	0xc02e768b	-2.7259853
