Gridworld_OTDD/envs/policy_models/DQN/set_stc/iter_0/model_949.pth (torch, 2667 bytes, 4 tensors)

extractor.0.weight f4 [32, 2]
-1.2785937 -0.23935959 -0.025780383 -0.093884714 -0.51075685 -0.78454083 -0.69672704 -1.3737192
0.00707712 -1.6632141 -0.3093985 -0.6475151 -0.1589249 -0.8446571 0.13900518 -1.4388565
-0.54035056 -0.07210833 -0.05223815 -0.034019418 -0.76878947 -0.28179297 -0.6238519 -0.5017558
-1.5132619 -0.2115596 0.34917066 -2.0898695 -0.61774135 -0.628952 -0.5607326 -1.2884471
-0.15843658 0.022875033 -0.9044037 -1.5593845 -0.58209807 -0.03910867 -0.38825482 -0.48492613
-0.12762257 -0.38674846 -1.229136 -0.16127123 -0.69848704 -0.0267458 -0.75401986 -0.37336156
-0.014678753 -1.0120332 -0.42536402 -1.1742291 0.45862058 -0.7525236 -0.09536511 -0.484976
-0.73698217 -0.84561086 -0.032615557 -0.5113187 -0.32605204 -1.1229929 0.067703515 -0.13510779
00000000: f5a8 a3bf ae1a 75be 6231 d3bc a146 c0bd
00000010: f6c0 02bf abd7 48bf b45c 32bf 08d6 afbf
00000020: 2fe7 e73b 33e4 d4bf 7b69 9ebe 8dc3 25bf
00000030: 36bd 22be 733b 58bf 6057 0e3e 732c b8bf
00000040: 6a54 0abf 88ad 93bd acf7 55bd f257 0bbd
00000050: 63cf 44bf 2b47 90be c2b4 1fbf 1173 00bf
00000060: 91b2 c1bf 14a3 58be 7fc6 b23e 6cc0 05c0
00000070: 4c24 1ebf 0003 21bf 2c8c 0fbf d6eb a4bf
00000080: 333d 22be 6c64 bb3c 0087 67bf e999 c7bf
00000090: 6104 15bf 6a30 20bd 56c9 c6be 3d48 f8be
000000a0: 7eaf 02be e503 c6be 5454 9dbf 4924 25be
000000b0: 0cd0 32bf 021a dbbc 7207 41bf 3f29 bfbe
000000c0: 277f 70bc 4e8a 81bf 50c9 d9be 244d 96bf
000000d0: 51d0 ea3e 63a5 40bf c84e c3bd c64e f8be
000000e0: ddaa 3cbf f479 58bf e497 05bd c8e5 02bf
000000f0: 4bf0 a6be 3bbe 8fbf 24a8 8a3d b259 0abe

extractor.0.bias f4 [32]
4.8277726 -0.40264553 -0.037261315 1.2903129 1.3660719 0.25567955 2.0106914 -0.667529
1.0503802 -0.5080422 2.871967 -0.3045286 1.8496103 0.27607033 1.5050845 1.7361549
-0.49450392 1.2037743 1.0425087 -0.5402831 1.6915121 1.8180728 -0.019934531 0.70293635
0.9779057 4.1458516 2.3815122 -0.12503995 1.626334 1.8341403 2.4050262 -0.56650555
00000000: 1d7d 9a40 8e27 cebe 529f 18bd f928 a53f
00000010: 72db ae3f 6ee8 823e 2baf 0040 2ee3 2abf
00000020: dc72 863f 0e0f 02bf 4fce 3740 2ceb 9bbe
00000030: 08c0 ec3f 1759 8d3e 9ca6 c03f 533a de3f
00000040: 9e2f fdbe 4715 9a3f ed70 853f fe4f 0abf
00000050: 7883 d83f 9cb6 e83f be4d a3bc a3f3 333f
00000060: 0758 7a3f d1aa 8440 b26a 1840 790a 00be
00000070: b62b d03f 1cc5 ea3f f3eb 1940 8206 11bf

classifier.0.weight f4 [4, 32]
-3.6961157 -0.021732664 -0.15471192 0.013631625 -0.35158595 0.12879312 -0.36628115 0.48576438
0.86326593 -0.10325009 -1.1711292 -0.30437475 2.303242 0.51779526 0.04899133 -0.47408313
-0.031996537 0.39193267 0.8541826 -0.07396749 -0.5148742 2.0262356 0.081641965 0.5514292
-0.38401017 -2.543291 -1.251069 0.023772677 -0.13784361 -0.77344 -0.024755506 -0.07788268
-2.712185 -0.11955628 -0.05735342 -0.60242856 -0.79951304 0.25822917 -0.18474373 0.07970555
0.46680504 0.12554994 -0.9800628 -0.29092845 0.47154638 -1.3230321 0.34957427 -0.22883762
-0.13218354 -0.48228058 0.3027905 0.012130305 0.07594986 0.6552937 -0.10092807 0.40651357
-0.1859827 -2.4299688 0.5142077 -0.25497106 0.0006713822 0.28291622 -1.361662 -0.10479995
-2.5473585 -0.17005229 -0.19675733 0.039229125 -0.50828 0.23558886 -0.52950305 0.39933133
-0.09882828 0.03452543 -0.6836344 -0.27450052 0.23568039 -1.0644574 -0.74928623 -0.94228494
-0.01829327 1.074037 0.12802304 0.058422655 -0.09995891 -0.020173227 -0.0830384 0.17215185
-0.05408949 -2.6108863 0.028081601 0.07295574 -0.6527244 -0.0920526 -1.2164341 -0.13598509
-3.3373504 -0.11268065 -0.47067192 0.7001755 2.0004218 0.016305238 -0.91483665 -1.706629
-0.01363216 0.0078019504 -1.1544799 -0.20479575 0.9380102 1.5072043 -0.18875779 0.30506733
-0.15628642 1.7018151 0.16589831 -0.06275295 -0.8498368 0.48336458 0.026609749 -0.04063767
0.9353345 -3.5021303 -1.3364388 0.45489112 -0.19188572 -1.0811063 -0.96310097 -0.027388623
00000000: 298d 6cc0 b308 b2bc cd6c 1ebe 2e57 5f3c
00000010: 1303 b4be 58e2 033e 3489 bbbe 1cb6 f83e
00000020: fffe 5c3f c874 d3bd 90e7 95bf 02d7 9bbe
00000030: 5168 1340 3b8e 043f 22ab 483d 06bb f2be
00000040: cd0e 03bd 66ab c83e b6ab 5a3f 447c 97bd
00000050: ccce 03bf d8ad 0140 e733 a73d 772a 0d3f
00000060: fb9c c4be 48c5 22c0 0723 a0bf ebbe c23c
00000070: e026 0dbe 2a00 46bf 0fcc cabc f480 9fbd
00000080: 7094 2dc0 ecd9 f4bd 6beb 6abd c238 1abf
00000090: e3ac 4cbf 9d36 843e 762d 3dbe aa3c a33d
000000a0: 1201 ef3e 2a90 003e 65e5 7abf 93f4 94be
000000b0: 876e f13e 1e59 a9bf 66fb b23e 6954 6abe
000000c0: 1f5b 07be 7bed f6be 5b07 9b3e 30be 463c
000000d0: 9a8b 9b3d 54c1 273f 60b3 cebd 8c22 d03e
000000e0: 4072 3ebe 9c84 1bc0 1ea3 033f 918b 82be
000000f0: b2ff 2f3a 65da 903e f14a aebf 5ba1 d6bd
00000100: ec07 23c0 3022 2ebe c17a 49be b8ae 203d
00000110: a31e 02bf 353e 713e 838d 07bf 2875 cc3e
00000120: 7b66 cabd 8a6a 0d3d aa02 2fbf 558b 8cbe
00000130: 3356 713e 2440 88bf 39d1 3fbf 9639 71bf
00000140: c5db 95bc 0b7a 893f 7918 033e 984c 6f3d
00000150: 42b7 ccbd 5342 a5bc 0910 aabd 9348 303e
00000160: f18c 5dbd c318 27c0 630b e63c d269 953d
00000170: f218 27bf 1386 bcbd 1db4 9bbf ad3f 0bbe
00000180: 2697 55c0 1dc5 e6bd e9fb f0be b43e 333f
00000190: e906 0040 9092 853c bc32 6abf d272 dabf
000001a0: 6c59 5fbc 81a7 ff3b ffc5 93bf fab5 51be
000001b0: 7021 703f 12ec c03f b949 41be c931 9c3e
000001c0: 8c09 20be 14d5 d93f 3fe1 293e 9e84 80bd
000001d0: e88e 59bf 907b f73e b0fc d93c af73 26bd
000001e0: 1572 6f3f e722 60c0 6d10 abbf 7de7 e83e
000001f0: b17d 44be b161 8abf c98d 76bf 1b5e e0bc

classifier.0.bias f4 [4]
-4.1162896 -3.0236356 -1.4786619 -2.908001
00000000: a5b8 83c0 3f83 41c0 cb44 bdbf b01c 3ac0
