Gridworld_OTDD/envs/policy_models/DQN/set_stc/iter_0/model_171.pth (torch, 2667 bytes, 4 tensors)

extractor.0.weight f4 [32, 2]
00000000: 507c 483f e0bf 013f 6231 d3bc a146 c0bd
00000010: 5f88 423e d662 d6bd 8dea eabe f021 89bf
00000020: 1e08 6a3e bc09 7dbf 6ed7 923e 1ebc 09bf
00000030: 0943 923e 133e 8abf 576d 0e3e 2929 b8bf
00000040: 910c f1bd 24e8 203d acf7 55bd f257 0bbd
00000050: ddd7 29bf 005f d63d c2b4 1fbf 1173 00bf
00000060: 85aa 32bf 6008 c03d b2e3 da3e f375 66bf
00000070: 0407 9cbd b65c 683d 9625 3a3e 3781 09bf
00000080: 333d 22be 6c64 bb3c 0872 1cbe 9b01 75bf
00000090: 76af a63d 10cd 4ebc 56c9 c6be 3d48 f8be
000000a0: 52bb fdbe 7861 98be 5078 59bd 9f41 52bd
000000b0: 0cd0 32bf 021a dbbc b252 c6bd 1bc7 aabe
000000c0: c2d8 f0bd e23f adbe f6c6 a6bc 9bba 61bf
000000d0: 2482 f13e a66b abbe b6a1 dc3d d131 a7be
000000e0: f9fe bfbe a206 04be a8f4 2a3c 64f1 47bf
000000f0: 992c d7be 2b8b 8cbf 24a8 8a3d b259 0abe
0.78314686 0.50683403 -0.025780383 -0.093884714 0.18997334 -0.1046807 -0.45882073 -1.0713482
0.22854659 -0.9884298 0.28679985 -0.5380267 0.2856677 -1.0800194 0.13908897 -1.4387561
-0.11769975 0.039283887 -0.05223815 -0.034019418 -0.66345006 0.104673386 -0.6238519 -0.5017558
-0.6979144 0.093765974 0.42751843 -0.90023726 -0.076185256 0.05672904 0.181784 -0.5371279
-0.15843658 0.022875033 -0.15277874 -0.95705575 0.08138935 -0.012622133 -0.38825482 -0.48492613
-0.49556977 -0.29761863 -0.053093255 -0.051332112 -0.69848704 -0.0267458 -0.09683742 -0.3335503
-0.11760093 -0.338378 -0.020358544 -0.8817536 0.47169602 -0.33480567 0.107730314 -0.32655194
-0.37499216 -0.12893155 0.010434307 -0.7810271 -0.42026213 -1.0979971 0.067703515 -0.13510779

extractor.0.bias f4 [32]
00000000: e0af 6c40 8e27 cebe c17c c53f 9f13 3940
00000010: a7cf 1640 8b41 8f3f 0309 3440 cfe0 2abf
00000020: 7373 c13f 0e0f 02bf 56a3 3640 25ea 9bbe
00000030: 6527 ab3e 79a0 abbd 326c 0c40 e030 2a40
00000040: 9e2f fdbe 8422 d13f 3f4f 1b3f fe4f 0abf
00000050: 225c 2640 d772 863f be4d a3bc ef6a fb3f
00000060: 2088 0a40 b995 6740 c0b3 0f40 decf 5c3e
00000070: 1754 2140 707c 2740 f944 5940 8206 11bf
3.6982346 -0.40264553 1.5428697 2.8918226 2.356424 1.1191877 2.81305 -0.6674928
1.5113357 -0.5080422 2.8537192 -0.30452076 0.33428493 -0.08380217 2.1941037 2.659233
-0.49450392 1.6338658 0.60667795 -0.5402831 2.5993733 1.0503796 -0.019934531 1.9642009
2.1645584 3.6185133 2.245346 0.2156367 2.5207574 2.61697 3.3948348 -0.56650555

classifier.0.weight f4 [4, 32]
00000000: f50a 13c0 b308 b2bc 3dc3 a5be 0d36 d9bf
00000010: 0d0e 62bf 4ff6 aebe 89c3 89bf 21ae f83e
00000020: 0fcd 0abf c874 d3bd 4bbc b7bf 15d6 9bbe
00000030: d070 92bd 53f8 fd3c 9ac4 50bf ccb1 75bf
00000040: cd0e 03bd d1f9 05bf d025 d3bd 447c 97bd
00000050: 7520 afbf b9c2 6cbe e733 a73d 0892 49bf
00000060: 32fd 72bf dc73 36c0 f4ad 50bf f47f fbbc
00000070: b7be 87bf 251a 9ebf 89e2 e4bf f480 9fbd
00000080: aaee 2ac0 ecd9 f4bd 2ff8 9fbe ab7f 0bc0
00000090: 2eeb 59bf c579 01be 0653 86bf 1f09 a33d
000000a0: efcd 59be 2a90 003e c6d1 73bf c0f3 94be
000000b0: 6051 9ebe dc9d 223c 21bf bcbe 55c9 2dbf
000000c0: 1f5b 07be 65be 94bf 4b1f 4abe 30be 463c
000000d0: e58c 67bf 0d8d 84bd 60b3 cebd 3ad9 d2be
000000e0: e72e 33bf bc86 43c0 c2ef 0dbf 5d0f 42be
000000f0: f18b 5cbf 74bc 5bbf 44d5 40c0 5ba1 d6bd
00000100: 38a8 45c0 3022 2ebe badf 16bf 1399 f3bf
00000110: 9e8d 7fbf faa6 cfbe 6c2d 8cbf fa69 cc3e
00000120: c503 41bf 8a6a 0d3d a6d8 c8bf 688a 8cbe
00000130: be8b 21be e69c cabe b0ad 76bf 939c 88bf
00000140: c5db 95bc b856 ccbe 3668 f4bd 984c 6f3d
00000150: 5dad a9bf 3a98 f3be 0910 aabd d903 43bf
00000160: dece 4dbf 7822 3ec0 ea50 2cbf 3ba5 943d
00000170: fbb0 8fbf 6648 91bf 1e13 05c0 ad3f 0bbe
00000180: 6e19 20c0 1dc5 e6bd 8dc4 5ebf 0fb4 18c0
00000190: 152b cdbf 8b23 42bf 6ca2 e6bf f26d dabf
000001a0: 577d febe 81a7 ff3b 141f 85bf 1cb4 51be
000001b0: 7cb5 a33e 6960 893e 756a 39bf 4567 a9bf
000001c0: 8c09 20be 1eaf 48bf b788 93be 9e84 80bd
000001d0: a2fc 89bf cf21 fdbe b0fc d93c 94ac 51bf
000001e0: c74f 66bf 6d66 4dc0 9ddc 84bf ab6e cd3d
000001f0: 1a62 84bf e22a c3bf b0c5 41c0 1b5e e0bc
-2.2975438 -0.021732664 -0.32375517 -1.696962 -0.8830269 -0.34172294 -1.0762798 0.4857035
-0.54219145 -0.10325009 -1.4354337 -0.3043677 -0.071504235 0.0310022 -0.8154999 -0.9597442
-0.031996537 -0.52334315 -0.103099465 -0.07396749 -1.368178 -0.23121156 0.081641965 -0.7873845
-0.94917595 -2.8508215 -0.8151543 -0.030700661 -1.0605077 -1.2351729 -1.7881633 -0.07788268
-2.670817 -0.11955628 -0.31244037 -2.1796672 -0.8512448 -0.12644108 -1.0494087 0.07960724
-0.21269964 0.12554994 -0.95241964 -0.29092216 -0.3092146 0.009925332 -0.3686457 -0.67885333
-0.13218354 -1.1620604 -0.197385 0.012130305 -0.90449363 -0.06472216 -0.10092807 -0.41181356
-0.6999344 -3.0550985 -0.55443966 -0.18951173 -0.86151034 -0.8583443 -3.0130167 -0.10479995
-3.0883923 -0.17005229 -0.5893513 -1.903109 -0.99825466 -0.4055708 -1.0951362 0.39924604
-0.75396377 0.03452543 -1.5691116 -0.27449346 -0.15775964 -0.3957283 -0.96358776 -1.0672783
-0.01829327 -0.3990991 -0.11933939 0.058422655 -1.3256031 -0.47577077 -0.0830384 -0.76177746
-0.8039378 -2.9708538 -0.67310965 0.07258078 -1.1225885 -1.1350219 -2.0792918 -0.13598509
-2.501552 -0.11268065 -0.8701866 -2.38599 -1.6028773 -0.75835484 -1.8018317 -1.7064803
-0.49705002 0.0078019504 -1.0400109 -0.20478863 0.319744 0.26831368 -0.72428066 -1.323464
-0.15628642 -0.7839221 -0.28815243 -0.06275295 -1.0780222 -0.49439856 0.026609749 -0.8190396
-0.8996548 -3.2093766 -1.0379826 0.10030874 -1.0342438 -1.5247462 -3.027691 -0.027388623

classifier.0.bias f4 [4]
00000000: 0919 f4bf 6c20 cebf 5d5e f9bf 3f04 e4bf
-1.907014 -1.6103644 -1.9481922 -1.7813796
