Gridworld_OTDD/envs/policy_models/DQN/set_stc/iter_0/model_1348.pth (torch, 2673 bytes, 4 tensors)

extractor.0.weight f4 [32, 2]
00000000: 2e84 a0bf bc1c a0be 6231 d3bc a146 c0bd
00000010: f6c0 02bf abd7 48bf 6671 0cbf 08d6 afbf
00000020: 7e66 2b3d 643d e7bf 3d66 b8be 8dc3 25bf
00000030: 2f12 3cbe fc1f 7abf 6057 0e3e 732c b8bf
00000040: ad85 18bf ccfa 03be acf7 55bd f257 0bbd
00000050: 78fc 49bf aa15 9bbe c2b4 1fbf 1173 00bf
00000060: 5301 d2bf ea7b 29bd fc18 613e 293b 17c0
00000070: ad32 09bf e4e6 44bf 08ab 21bf e439 a9bf
00000080: 333d 22be 6c64 bb3c 45be 85bf 919a c7bf
00000090: d607 12bf 18b3 b4bd 56c9 c6be 3d48 f8be
000000a0: 30cf 64be 21d9 9dbe 3b06 a4bf ffb7 14be
000000b0: 0cd0 32bf 021a dbbc 7407 41bf cbf9 e3be
000000c0: 3259 22be 3b5f 8fbf cde2 f5be bbfa a2bf
000000d0: 518d 8a3e b3a5 2abf c84e c3bd c64e f8be
000000e0: 6de8 30bf 16ba 61bf 6b37 81bd 3508 2dbf
000000f0: 85d7 fcbe 5391 92bf 24a8 8a3d b259 0abe
-1.2540338 -0.31271923 -0.025780383 -0.093884714 -0.51075685 -0.78454083 -0.5486053 -1.3737192
0.04184579 -1.806561 -0.36015502 -0.6475151 -0.18366311 -0.97705054 0.13900518 -1.4388565
-0.59578973 -0.1288864 -0.05223815 -0.034019418 -0.7890086 -0.30289966 -0.6238519 -0.5017558
-1.6406654 -0.04137794 0.21982187 -2.3629858 -0.5359295 -0.7691481 -0.631516 -1.3220792
-0.15843658 0.022875033 -1.0448691 -1.5594045 -0.57043207 -0.08823222 -0.38825482 -0.48492613
-0.22344661 -0.3082972 -1.2814401 -0.14523314 -0.69848704 -0.0267458 -0.75402 -0.44526514
-0.15854338 -1.1200937 -0.48024598 -1.2732767 0.2706094 -0.66659087 -0.09536511 -0.484976
-0.69104654 -0.8817457 -0.06309398 -0.6759065 -0.49383178 -1.14506 0.067703515 -0.13510779

extractor.0.bias f4 [32]
00000000: a1f1 9c40 8e27 cebe 529f 18bd add3 a53f
00000010: 0e5d cc3f edff bc3e 8928 ec3f 2ee3 2abf
00000020: 653f 653f 0e0f 02bf 12a8 2f40 2ceb 9bbe
00000030: af06 c73f 99ea 7c3e 377d a63f 11ac d73f
00000040: 9e2f fdbe b092 8c3f 0003 423f fe4f 0abf
00000050: 421a ce3f 8514 ce3f be4d a3bc 539a 283f
00000060: 0a69 7c3f 5e83 8340 e01f 1940 790a 00be
00000070: f554 c13f 8d1d d63f f2b5 1540 8206 11bf
4.9044957 -0.40264553 -0.037261315 1.2955223 1.5965898 0.36914006 1.844987 -0.667529
0.8954986 -0.5080422 2.7446332 -0.3045286 1.5548915 0.24698867 1.3006963 1.6849385
-0.49450392 1.0982265 0.7578583 -0.5402831 1.6101763 1.6100012 -0.019934531 0.6586048
0.98597777 4.109786 2.3925705 -0.12503995 1.5104052 1.6727768 2.33923 -0.56650555

classifier.0.weight f4 [4, 32]
00000000: 3ca7 6ec0 b308 b2bc cd6c 1ebe 20ea 4ebd
00000010: 2dc6 e3be 07cb ad3d aa71 f4be 1cb6 f83e
00000020: 6d4c 373f c874 d3bd 0314 62bf 02d7 9bbe
00000030: cdbc ee3f 34ca b03c 5446 77bc 1fb7 08bf
00000040: cd0e 03bd c324 613e 6484 ee3e 447c 97bd
00000050: 45f8 0dbf f25d c73f e733 a73d 12a1 c03e
00000060: d54c d5be 1d8d 2cc0 8e24 88bf ebbe c23c
00000070: 15a4 80be d1c7 46bf 33b4 5dbe f480 9fbd
00000080: 5ef3 2ec0 ecd9 f4bd 6beb 6abd a296 f9be
00000090: 0b39 21bf 2505 6f3e 23dd 6ebe aa3c a33d
000000a0: 69c5 ac3e 2a90 003e df24 60bf 93f4 94be
000000b0: 42f9 ce3d 9f08 97bf fc2c a53e 2771 2cbe
000000c0: 1f5b 07be 51ff 25bf bfe0 083e 30be 463c
000000d0: 95b1 0a3e 5071 b83e 60b3 cebd 28a9 a23e
000000e0: 5e8c d1bd 85fc 0ec0 531b 2e3f 918b 82be
000000f0: 14c5 c5bb 035d 373e a2a9 adbf 5ba1 d6bd
00000100: 0540 0ec0 3022 2ebe c17a 49be 7151 bf3b
00000110: 30d9 00bf 5dc2 b23e 7f0d b7be 2875 cc3e
00000120: 84d4 33be 8a6a 0d3d 88cd 14bf 558b 8cbe
00000130: 609a c5bd aa73 8bbf 1c72 32bf 20f3 75bf
00000140: c5db 95bc 9646 bb3f 683c 6dbc 984c 6f3d
00000150: 4ab4 613d 60b1 2bbe 0910 aabd 54fc ce3e
00000160: 59e9 abbd ce37 17c0 f809 443b d269 953d
00000170: a539 1ebf a96a 893d 84b3 83bf ad3f 0bbe
00000180: b7d1 58c0 1dc5 e6bd e9fb f0be 4fed 593f
00000190: 27f7 1c40 4bd3 03be b666 7ebf d272 dabf
000001a0: 1f09 953c 81a7 ff3b dc8c 99bf fab5 51be
000001b0: 6a29 2a3f 095c d83f 33e0 79bd 9625 0e3f
000001c0: 8c09 20be 3196 6b3f 945c 273e 9e84 80bd
000001d0: 0f40 44bf 068a d93e b0fc d93c dd95 97be
000001e0: 0638 973f b08b 5bc0 f0fa abbf 7de7 e83e
000001f0: 13c4 9fbd 54a9 83bf 5865 6fbf 1b5e e0bc
-3.7289572 -0.021732664 -0.15471192 -0.050516248 -0.44487134 0.0848599 -0.4774297 0.48576438
0.7160099 -0.10325009 -0.88311785 -0.30437475 1.8651367 0.021580793 -0.015092451 -0.5340442
-0.031996537 0.2198668 0.4658538 -0.07396749 -0.55456954 1.5575545 0.081641965 0.37622887
-0.4166018 -2.6961129 -1.0636156 0.023772677 -0.25125185 -0.77648646 -0.21650772 -0.07788268
-2.733604 -0.11955628 -0.05735342 -0.48747736 -0.62977666 0.23341806 -0.23326544 0.07970555
0.33744362 0.12554994 -0.8755626 -0.29092845 0.10106136 -1.1799506 0.32260883 -0.16840039
-0.13218354 -0.64842707 0.13366984 0.012130305 0.13544305 0.3602395 -0.10092807 0.3176968
-0.10231851 -2.2341626 0.68010443 -0.25497106 -0.0060354564 0.17906575 -1.3567393 -0.10479995
-2.2226574 -0.17005229 -0.19675733 0.005838566 -0.503314 0.34913912 -0.35752484 0.39933133
-0.17561537 0.03452543 -0.58126116 -0.27450052 -0.09648585 -1.0894673 -0.6970537 -0.96074104
-0.01829327 1.4630916 -0.014479734 0.058422655 0.055103578 -0.16766882 -0.0830384 0.40426886
-0.08394117 -2.362781 0.0029913168 0.07295574 -0.6180671 0.06709797 -1.0289159 -0.13598509
-3.3878 -0.11268065 -0.47067192 0.8512773 2.452585 -0.1287357 -0.99375474 -1.706629
0.018192826 0.0078019504 -1.1996112 -0.20479575 0.6646944 1.6903087 -0.06100483 0.555261
-0.15628642 0.9202605 0.1634391 -0.06275295 -0.76660246 0.42488116 0.026609749 -0.29606524
1.1813972 -3.4304008 -1.3435955 0.45489112 -0.0780107 -1.028605 -0.93514013 -0.027388623

classifier.0.bias f4 [4]
00000000: 7a9c 80c0 d9fc 35c0 e4dc c7bf ea1a 47c0
-4.019101 -2.8435576 -1.5614285 -3.1110177
