Gridworld_OTDD/envs/policy_models/DQN/set_stc/iter_0/model_1367.pth (torch, 2673 bytes, 4 tensors)

extractor.0.weight f4 [32, 2]
000000 bd 6f 83 bf 0a ee 86 be 62 31 d3 bc a1 46 c0 bd
       -1.0268475 -0.26353484 -0.025780383 -0.093884714
000010 f6 c0 02 bf ab d7 48 bf 88 57 0a bf 08 d6 af bf
       -0.51075685 -0.78454083 -0.5403981 -1.3737192
000020 14 87 ac 3c 08 b0 e9 bf 01 f5 b4 be 8d c3 25 bf
       0.021060504 -1.8256845 -0.35343173 -0.6475151
000030 03 5e 2e be be 97 72 bf 60 57 0e 3e 73 2c b8 bf
       -0.1702805 -0.9476279 0.13900518 -1.4388565
000040 95 9a 13 bf ab 84 44 be ac f7 55 bd f2 57 0b bd
       -0.5765775 -0.19191234 -0.05223815 -0.034019418
000050 80 0f 41 bf b5 be c5 be c2 b4 1f bf 11 73 00 bf
       -0.75414276 -0.3862206 -0.6238519 -0.5017558
000060 e2 1b d1 bf 08 e3 9a 3d 82 e1 93 3e 5f b9 17 c0
       -1.6336634 0.07562834 0.28882986 -2.3706892
000070 b2 e8 09 bf eb d8 46 bf fc 11 28 bf 9e a6 a8 bf
       -0.5387069 -0.7767474 -0.6565244 -1.3175848
000080 33 3d 22 be 6c 64 bb 3c 54 65 86 bf 91 9a c7 bf
       -0.15843658 0.022875033 -1.0499673 -1.5594045
000090 38 61 0d bf 5e f6 9f bd 56 c9 c6 be 3d 48 f8 be
       -0.5522647 -0.07810663 -0.38825482 -0.48492613
0000a0 83 71 43 be 12 85 ab be 8a 88 9f bf f1 61 41 be
       -0.1908627 -0.33499962 -1.2463543 -0.18885018
0000b0 0c d0 32 bf 02 1a db bc 74 07 41 bf 96 4e e7 be
       -0.69848704 -0.0267458 -0.75402 -0.45177144
0000c0 0d 99 30 be 3b 5f 8f bf a4 45 b6 be 7c a2 9f bf
       -0.17245884 -1.1200937 -0.35600007 -1.2471461
0000d0 ae df 00 3e ec 39 34 bf c8 4e c3 bd c6 4e f8 be
       0.12585327 -0.7040088 -0.09536511 -0.484976
0000e0 6b 7a 34 bf 6d 73 61 bf 50 ea b4 bd 41 9b 27 bf
       -0.70499295 -0.8806675 -0.08833754 -0.65471274
0000f0 1f 86 f7 be 2f 1e 96 bf 24 a8 8a 3d b2 59 0a be
       -0.48344514 -1.1727961 0.067703515 -0.13510779

extractor.0.bias f4 [32]
000000 c5 0e 9d 40 8e 27 ce be 52 9f 18 bd f4 fd a4 3f
       4.908053 -0.40264553 -0.037261315 1.289
000010 47 8e c5 3f 98 51 ce 3e 37 9a ea 3f 2e e3 2a bf
       1.5434045 0.40296626 1.8328313 -0.667529
000020 6a e7 6f 3f 0e 0f 02 bf ff e9 2a 40 2c eb 9b be
       0.93712485 -0.5080422 2.670532 -0.3045286
000030 85 f1 cd 3f d6 a9 7f 3e 4e d3 a5 3f a1 f4 d2 3f
       1.6089331 0.24967131 1.295511 1.6480905
000040 9e 2f fd be e1 3e 8c 3f e2 1f 53 3f fe 4f 0a bf
       -0.49450392 1.0956689 0.82470524 -0.5402831
000050 1b 44 c9 3f 7d f5 d8 3f be 4d a3 bc 66 ca 2c 3f
       1.5723909 1.6949917 -0.019934531 0.67496336
000060 0b 3a 72 3f a0 ce 82 40 aa 4d 14 40 79 0a 00 be
       0.94619817 4.087723 2.3172402 -0.12503995
000070 0f 6b be 3f 3f 5e d2 3f e6 91 12 40 82 06 11 bf
       1.4876422 1.6435012 2.290155 -0.56650555

classifier.0.weight f4 [4, 32]
000000 07 33 6f c0 b3 08 b2 bc cd 6c 1e be 75 82 82 3d
       -3.7374895 -0.021732664 -0.15471192 0.06372539
000010 a8 13 60 be 2c 6e e0 3d 47 d1 ba be 1c b6 f8 3e
       -0.21882498 0.109585136 -0.3648779 0.48576438
000020 3d a0 3a 3f c8 74 d3 bd e3 5f 5b bf 02 d7 9b be
       0.72900754 -0.10325009 -0.85693187 -0.30437475
000030 df 25 e9 3f 59 6e 24 3e 45 b0 85 3d 5f 6b dc be
       1.8214682 0.1605772 0.06527761 -0.43050668
000040 cd 0e 03 bd 37 09 8b 3e c4 3c f0 3e 44 7c 97 bd
       -0.031996537 0.27155468 0.4692136 -0.07396749
000050 d4 04 04 bf 1b 58 c6 3f e7 33 a7 3d 17 10 c7 3e
       -0.5156987 1.5495638 0.081641965 0.38879463
000060 b2 a9 92 be 71 4c 26 c0 a7 94 79 bf eb be c2 3c
       -0.28645092 -2.5984156 -0.9749245 0.023772677
000070 3b 1b 2a be 7e c5 2c bf b9 b1 da bd f4 80 9f bd
       -0.1661195 -0.6748885 -0.10678429 -0.07788268
000080 a9 b5 2c c0 ec d9 f4 bd 6b eb 6a bd 73 a2 e2 be
       -2.6985877 -0.11955628 -0.05735342 -0.44264564
000090 04 e2 1d bf d7 f8 6f 3e ec 1e 52 be aa 3c a3 3d
       -0.61673 0.23434769 -0.20519608 0.07970555
0000a0 7b 4d bb 3e 2a 90 00 3e 15 38 50 bf 93 f4 94 be
       0.3658255 0.12554994 -0.81335574 -0.29092845
0000b0 7d ea 46 3e 90 7f 98 bf 86 14 af 3e f9 9c 0f be
       0.19425388 -1.1913929 0.34195346 -0.14024724
0000c0 1f 5b 07 be c6 27 23 bf 99 39 27 3e 30 be 46 3c
       -0.13218354 -0.63732564 0.16330566 0.012130305
0000d0 77 3f 24 3e a3 2d d9 3e 60 b3 ce bd cb b5 a3 3e
       0.16039835 0.4241763 -0.10092807 0.31974635
0000e0 5e ee b6 bd cc 1f 0c c0 f5 41 1f 3f 91 8b 82 be
       -0.08932184 -2.1894407 0.6221002 -0.25497106
0000f0 02 31 b2 3c e2 12 48 3e 97 16 a5 bf 5b a1 d6 bd
       0.021751884 0.19538453 -1.2897519 -0.10479995
000100 54 3d 0d c0 30 22 2e be c1 7a 49 be c0 77 50 3b
       -2.2068682 -0.17005229 -0.19675733 0.0031809658
000110 fa ff ff be c2 dd b4 3e 93 8b ab be 28 75 cc 3e
       -0.49999982 0.35325438 -0.33504924 0.39933133
000120 1a ed 42 be 8a 6a 0d 3d 5c 12 16 bf 55 8b 8c be
       -0.1903576 0.03452543 -0.58621764 -0.27450052
000130 91 8d 2b be 47 34 8a bf 14 0f 32 bf c9 e9 75 bf
       -0.16753222 -1.0797204 -0.6955426 -0.9605985
000140 c5 db 95 bc 97 ff bc 3f a8 da 07 bd 98 4c 6f 3d
       -0.01829327 1.47655 -0.03316751 0.058422655
000150 d3 c8 64 3d b0 d1 53 be 09 10 aa bd 05 01 d3 3e
       0.055855583 -0.20685458 -0.0830384 0.41211715
000160 42 64 a7 bd c4 98 15 c0 7c cb 25 bd d2 69 95 3d
       -0.081734195 -2.337449 -0.04047726 0.07295574
000170 18 93 1d bf 2f b6 b2 3d 94 bf 7f bf ad 3f 0b be
       -0.6155257 0.08726155 -0.999017 -0.13598509
000180 77 2b 50 c0 1d c5 e6 bd e9 fb f0 be e0 0f 5b 3f
       -3.252653 -0.11268065 -0.47067192 0.855711
000190 43 73 1f 40 3a 4f 13 be 02 18 7e bf d2 72 da bf
       2.49141 -0.14385691 -0.99255383 -1.706629
0001a0 f2 6f a8 3d 81 a7 ff 3b 83 0b 8b bf fa b5 51 be
       0.08224477 0.0078019504 -1.0862888 -0.20479575
0001b0 64 45 6e 3f 2e 29 de 3f 69 a3 5b bd cd 26 11 3f
       0.9307463 1.7356317 -0.053622637 0.5669983
0001c0 8c 09 20 be c0 6b 5d 3f 82 29 80 3e 9e 84 80 bd
       -0.15628642 0.8649254 0.25031668 -0.06275295
0001d0 e0 59 33 bf 79 ca 18 3f b0 fc d9 3c 2b 96 9f be
       -0.70059013 0.5968395 0.026609749 -0.31169257
0001e0 81 e4 98 3f 8e c6 59 c0 58 65 aa bf 7d e7 e8 3e
       1.1944734 -3.4027438 -1.3312178 0.45489112
0001f0 03 9b 8c bd ad 22 84 bf d1 8c 6d bf 1b 5e e0 bc
       -0.06865504 -1.0323082 -0.92792994 -0.027388623

classifier.0.bias f4 [4]
000000 bf 5a 81 c0 bb 04 3b c0 c9 02 d0 bf 38 d9 3b c0
       -4.0423274 -2.9221637 -1.625085 -2.935133
