Gridworld_OTDD/envs/policy_models/DQN/set_stc/iter_0/model_1015.pth (torch, 2673 bytes, 4 tensors)

extractor.0.weight f4 [32, 2]
-1.068817 -0.14655706 -0.025780383 -0.093884714 -0.51075685 -0.78454083 -0.6520374 -1.3737192
0.03098991 -1.6897953 -0.30941412 -0.6475151 -0.02298517 -0.8484392 0.13900518 -1.4388565
-0.47191566 -0.04756759 -0.05223815 -0.034019418 -0.76209116 -0.31883848 -0.6238519 -0.5017558
-1.3862765 -0.08890424 0.4487547 -2.1400964 -0.5435097 -0.6919669 -0.5539592 -1.299091
-0.15843658 0.022875033 -0.91211367 -1.5594045 -0.5669245 -0.07773188 -0.38825482 -0.48492613
-0.043194145 -0.43603528 -1.1288872 -0.053840663 -0.69848704 -0.0267458 -0.75402 -0.4081202
-0.009015799 -1.0325625 -0.31002742 -1.2389787 0.35303977 -0.7690683 -0.09536511 -0.484976
-0.7329677 -0.8825391 -0.014039233 -0.5602315 -0.29949868 -1.135503 0.067703515 -0.13510779
00000000: ffce 88bf 0e13 16be 6231 d3bc a146 c0bd
00000010: f6c0 02bf abd7 48bf eceb 26bf 08d6 afbf
00000020: 8dde fd3c 364b d8bf 876b 9ebe 8dc3 25bf
00000030: 654b bcbc 5033 59bf 6057 0e3e 732c b8bf
00000040: ee9e f1be 3cd6 42bd acf7 55bd f257 0bbd
00000050: 6818 43bf cc3e a3be c2b4 1fbf 1173 00bf
00000060: 8271 b1bf 6d13 b6bd 2dc3 e53e 57f7 08c0
00000070: 7423 0bbf be24 31bf 45d0 0dbf 9d48 a6bf
00000080: 333d 22be 6c64 bb3c 4880 69bf 919a c7bf
00000090: f721 11bf e431 9fbd 56c9 c6be 3d48 f8be
000000a0: 58ec 30bd 0440 dfbe 607f 90bf 0788 5cbd
000000b0: 0cd0 32bf 021a dbbc 7407 41bf 21f5 d0be
000000c0: 00b7 13bc 022b 84bf eabb 9ebe db96 9ebf
000000d0: a1c1 b43e a9e1 44bf c84e c3bd c64e f8be
000000e0: c5a3 3bbf 15ee 61bf d004 66bc 556b 0fbf
000000f0: e457 99be 2a58 91bf 24a8 8a3d b259 0abe

extractor.0.bias f4 [32]
4.8887305 -0.40264553 -0.037261315 1.2992913 1.4744931 0.2376591 2.0158186 -0.667529
1.0649415 -0.5080422 2.8339217 -0.3045286 1.8521947 0.4263535 1.489769 1.7843801
-0.49450392 1.0289683 0.9323758 -0.5402831 1.6746311 1.7728406 -0.019934531 0.59968805
1.012035 4.1268263 2.391008 -0.12503995 1.6016777 1.819023 2.4009218 -0.56650555
00000000: 7b70 9c40 8e27 cebe 529f 18bd 2d4f a63f
00000010: 31bc bc3f e85c 733e 2c03 0140 2ee3 2abf
00000020: 0150 883f 0e0f 02bf f95e 3540 2ceb 9bbe
00000030: b714 ed3f 024b da3e c0b0 be3f 9166 e43f
00000040: 9e2f fdbe 3cb5 833f 2eb0 6e3f fe4f 0abf
00000050: 505a d63f 71ec e23f be4d a3bc 2885 193f
00000060: 5d8a 813f f60e 8440 4606 1940 790a 00be
00000070: c603 cd3f bfd5 e83f b4a8 1940 8206 11bf

classifier.0.weight f4 [4, 32]
-3.7210565 -0.021732664 -0.15471192 -0.056890734 -0.46900365 0.09540165 -0.3943471 0.48576438
0.8014543 -0.10325009 -1.1429259 -0.30437475 2.08385 0.38785127 0.0091689695 -0.5340336
-0.031996537 0.27474222 0.6977 -0.07396749 -0.53507686 1.7931952 0.081641965 0.4836662
-0.47116724 -2.5810275 -1.1452234 0.023772677 -0.20352754 -0.77423674 -0.06532589 -0.07788268
-2.6667445 -0.11955628 -0.05735342 -0.60509616 -0.797867 0.25209388 -0.19986668 0.07970555
0.4142981 0.12554994 -0.92968124 -0.29092845 0.27950898 -1.3552674 0.3118758 -0.23651063
-0.13218354 -0.508827 0.2252764 0.012130305 0.08363214 0.49939913 -0.10092807 0.3709084
-0.18383552 -2.3981922 0.5160767 -0.25497106 -0.047634035 0.27566132 -1.3882686 -0.10479995
-2.537398 -0.17005229 -0.19675733 -0.024618514 -0.59514433 0.2447076 -0.5253106 0.39933133
-0.14830412 0.03452543 -0.6997656 -0.27450052 0.12291738 -1.1377811 -0.78696316 -1.0067476
-0.01829327 1.0836147 0.09560412 0.058422655 -0.06222396 -0.047522843 -0.0830384 0.20377533
-0.11979485 -2.5682025 0.08100862 0.07295574 -0.7022454 -0.042271204 -1.2448965 -0.13598509
-3.3083618 -0.11268065 -0.47067192 0.7010024 2.0765939 -0.02631658 -0.96543336 -1.706629
-0.021762203 0.0078019504 -1.0755966 -0.20479575 0.8002944 1.5146917 -0.15566438 0.36347234
-0.15628642 1.4796579 0.11990985 -0.06275295 -0.82826275 0.44846705 0.026609749 -0.10782469
0.9870594 -3.5051856 -1.4139451 0.45489112 -0.16490297 -1.1004392 -0.9390732 -0.027388623
00000000: ca25 6ec0 b308 b2bc cd6c 1ebe 4206 69bd
00000010: 3f21 f0be f161 c33d dde7 c9be 1cb6 f83e
00000020: 1c2c 4d3f c874 d3bd 654b 92bf 02d7 9bbe
00000030: cc5d 0540 7194 c63e 7239 163c 6db6 08bf
00000040: cd0e 03bd 03ab 8c3e 789c 323f 447c 97bd
00000050: ccfa 08bf 6c87 e53f e733 a73d 19a3 f73e
00000060: d53c f1be 8e2f 25c0 ae96 92bf ebbe c23c
00000070: 8669 50be 6134 46bf 95c9 85bd f480 9fbd
00000080: f1ab 2ac0 ecd9 f4bd 6beb 6abd 95e7 1abf
00000090: 0341 4cbf 7312 813e daa9 4cbe aa3c a33d
000000a0: e11e d43e 2a90 003e 97ff 6dbf 93f4 94be
000000b0: cd1b 8f3e 6779 adbf 2fae 9f3e d82f 72be
000000c0: 1f5b 07be 7c42 02bf dbae 663e 30be 463c
000000d0: 5447 ab3d 3eb1 ff3e 60b3 cebd b5e7 bd3e
000000e0: 613f 3cbe fb7b 19c0 9a1d 043f 918b 82be
000000f0: e81b 43bd 7b23 8d3e c9b2 b1bf 5ba1 d6bd
00000100: bb64 22c0 3022 2ebe c17a 49be c4ac c9bc
00000110: 615b 18bf a194 7a3e c17a 06bf 2875 cc3e
00000120: 09dd 17be 8a6a 0d3d d723 33bf 558b 8cbe
00000130: 1bbc fb3d d0a2 91bf 6b76 49bf 1bdd 80bf
00000140: c5db 95bc e3b3 8a3f 18cc c33d 984c 6f3d
00000150: 8dde 7ebd 50a7 42bd 0910 aabd 7baa 503e
00000160: 0157 f5bd 6e5d 24c0 d9e7 a53d d269 953d
00000170: 5bc6 33bf 9224 2dbd c558 9fbf ad3f 0bbe
00000180: 33bc 53c0 1dc5 e6bd e9fb f0be e574 333f
00000190: eae6 0440 de95 d7bc a426 77bf d272 dabf
000001a0: a646 b2bc 81a7 ff3b 26ad 89bf fab5 51be
000001b0: 18e0 4c3f 6be1 c13f 7c66 1fbe 0c19 ba3e
000001c0: 8c09 20be 6e65 bd3f 4c93 f53d 9e84 80bd
000001d0: 0709 54bf 799d e53e b0fc d93c 31d3 dcbd
000001e0: edaf 7c3f f654 60c0 27fc b4bf 7de7 e83e
000001f0: 53dc 28be 31db 8cbf 1a67 70bf 1b5e e0bc

classifier.0.bias f4 [4]
-4.073074 -2.9479163 -1.4616903 -2.9465961
00000000: 9f56 82c0 a9aa 3cc0 ab18 bbbf 0895 3cc0
