Gridworld_OTDD/envs/policy_models/DQN/set_stc/iter_0/model_807.pth (torch, 2667 bytes, 4 tensors)

extractor.0.weight f4 [32, 2]
0	0xbf8df97a	-1.1091759
1	0xbd93a72e	-0.07209621
2	0xbcd33162	-0.025780383
3	0xbdc046a1	-0.093884714
4	0xbf02c0f6	-0.51075685
5	0xbf48d7ab	-0.78454083
6	0xbf3bd37e	-0.73369586
7	0xbfafd608	-1.3737192
8	0x3d36b705	0.044608135
9	0xbfc308e0	-1.5237083
10	0xbe8a2d5c	-0.2698773
11	0xbf25c38d	-0.6475151
12	0xbdfebe4e	-0.124386415
13	0xbf57183d	-0.8402136
14	0x3e0e5760	0.13900518
15	0xbfb82c73	-1.4388565
16	0xbf1ac3b8	-0.60454893
17	0xbd6339ae	-0.05547493
18	0xbd55f7ac	-0.05223815
19	0xbd0b57f2	-0.034019418
20	0xbf193760	-0.5985012
21	0xbdd27680	-0.10276508
22	0xbf1fb4c2	-0.6238519
23	0xbf007311	-0.5017558
24	0xbfa18d36	-1.2621219
25	0x3c74d69e	0.014943747
26	0x3ee0fc75	0.4394261
27	0xbfe4a20f	-1.7861956
28	0xbf283944	-0.6571238
29	0xbf2471b9	-0.64236027
30	0xbec0bdab	-0.37644705
31	0xbfa1c467	-1.2638062
32	0xbe223d33	-0.15843658
33	0x3cbb646c	0.022875033
34	0xbf659010	-0.89672947
35	0xbfc39528	-1.5279894
36	0xbf0e4ee9	-0.5558916
37	0xbd387d16	-0.045041166
38	0xbec6c956	-0.38825482
39	0xbef8483d	-0.48492613
40	0xbdc12413	-0.09430709
41	0xbedbe2d9	-0.4294651
42	0xbf9c0aac	-1.2190757
43	0x3cf7985f	0.030224023
44	0xbf32d00c	-0.69848704
45	0xbcdb1a02	-0.0267458
46	0xbf38ae9b	-0.72141427
47	0xbeb0333f	-0.34414098
48	0xbdabffdb	-0.0839841
49	0xbf713f67	-0.9423737
50	0xbeb787e7	-0.35845873
51	0xbf944995	-1.1584955
52	0x3eeb865c	0.46000946
53	0xbf4ad1df	-0.7922649
54	0xbdc34ec8	-0.09536511
55	0xbef84ec6	-0.484976
56	0xbf42bdc1	-0.7607079
57	0xbf585516	-0.8450483
58	0x3d3d0502	0.046147354
59	0xbf1013f3	-0.5628044
60	0xbe7756ce	-0.24154207
61	0xbf89e9ce	-1.0774477
62	0x3d8aa824	0.067703515
63	0xbe0a59b2	-0.13510779

extractor.0.bias f4 [32]
0	0x409fab7f	4.9896846
1	0xbece278e	-0.40264553
2	0xbd189f52	-0.037261315
3	0x3fa87b8a	1.3162701
4	0x3fa3dc6a	1.280164
5	0x3e88fe03	0.26756296
6	0x4007a0d8	2.1191921
7	0xbf2ae32e	-0.667529
8	0x3f40fe24	0.7538779
9	0xbf020f0e	-0.5080422
10	0x40449773	3.0717437
11	0xbe9beb2c	-0.3045286
12	0x3fcb41aa	1.5879414
13	0x3ed0349c	0.40665138
14	0x3fbe08c8	1.484643
15	0x3feffd8d	1.8749253
16	0xbefd2f9e	-0.49450392
17	0x3fa010af	1.2505091
18	0x3f45af1f	0.7722034
19	0xbf0a4ffe	-0.5402831
20	0x3fe162e2	1.7608302
21	0x3fa5e08e	1.2959154
22	0xbca34dbe	-0.019934531
23	0x3f400602	0.7500917
24	0x3f750653	0.95712775
25	0x4087f225	4.2483087
26	0x401b5d4d	2.4275696
27	0xbe000a79	-0.12503995
28	0x3fd5a3b7	1.6690587
29	0x3ff44e48	1.908639
30	0x402026d4	2.5023699
31	0xbf110682	-0.56650555

classifier.0.weight f4 [4, 32]
0	0xc0704536	-3.7542243
1	0xbcb208b3	-0.021732664
2	0xbe1e6ccd	-0.15471192
3	0x3b91524e	0.0044348603
4	0xbed06771	-0.4070392
5	0x3e22257c	0.15834612
6	0xbf17b843	-0.59265536
7	0x3ef8b61c	0.48576438
8	0x3f2410f4	0.6408837
9	0xbdd374c8	-0.10325009
10	0xbfa41e7a	-1.2821801
11	0xbe9bd702	-0.30437475
12	0x4001bdf9	2.02722
13	0x3e3ae68f	0.18252014
14	0xbe2b363b	-0.16719906
15	0xbf0425d8	-0.51620245
16	0xbd030ecd	-0.031996537
17	0x3f01f0ab	0.50757855
18	0x3f25feef	0.6484212
19	0xbd977c44	-0.07396749
20	0xbf34fc89	-0.7069784
21	0x3fe26153	1.7685951
22	0x3da733e7	0.081641965
23	0x3f00942c	0.5022609
24	0xbecb7a4b	-0.3974174
25	0xc030630d	-2.7560456
26	0xbfb73f73	-1.4316238
27	0x3cc2beeb	0.023772677
28	0xbe9c46d7	-0.30522797
29	0xbf7942a9	-0.9736734
30	0xbe8fbef0	-0.2807536
31	0xbd9f80f4	-0.07788268
32	0xc0349155	-2.8213704
33	0xbdf4d9ec	-0.11955628
34	0xbd6aeb6b	-0.05735342
35	0xbf34072b	-0.7032344
36	0xbf47b69a	-0.78013
37	0x3e8a987f	0.2706947
38	0xbea1b127	-0.3158047
39	0x3da33caa	0.07970555
40	0x3eef8ce7	0.46787187
41	0x3e00902a	0.12554994
42	0xbf94733f	-1.159767
43	0xbe94f493	-0.29092845
44	0x3ef476a6	0.47746772
45	0xbf9fb197	-1.2476071
46	0x3e9f7358	0.31142688
47	0xbe8917f0	-0.26776075
48	0xbe075b1f	-0.13218354
49	0xbede29f6	-0.4339139
50	0x3ea62830	0.32452536
51	0x3c46be30	0.012130305
52	0xbd9f4146	-0.07776122
53	0x3f2eafcc	0.68236995
54	0xbdceb360	-0.10092807
55	0x3ed2b74d	0.41155472
56	0xbe32c56b	-0.17458121
57	0xc0288683	-2.63321
58	0x3e917ea3	0.2841693
59	0xbe828b91	-0.25497106
60	0xbd8c5bdf	-0.068534605
61	0x3dc91070	0.09817588
62	0xbfc289e2	-1.5198328
63	0xbdd6a15b	-0.10479995
64	0xc02ba48a	-2.6819177
65	0xbe2e2230	-0.17005229
66	0xbe497ac1	-0.19675733
67	0xbc8d17e0	-0.017223299
68	0xbf1fc54e	-0.6241044
69	0x3e453c10	0.19261193
70	0xbef385cb	-0.47563013
71	0x3ecc7528	0.39933133
72	0xbd56f2df	-0.052477714
73	0x3d0d6a8a	0.03452543
74	0xbf4e2ac1	-0.8053399
75	0xbe8c8b55	-0.27450052
76	0x3eb0237b	0.3440207
77	0xbfa3a669	-1.2785159
78	0xbf2eb0fc	-0.68238807
79	0xbf77bee6	-0.9677566
80	0xbc95dbc5	-0.01829327
81	0x3f726fdc	0.94701934
82	0x3e45d213	0.19318418
83	0x3d6f4c98	0.058422655
84	0xbded75e6	-0.11594753
85	0x3c4ce5f3	0.012505996
86	0xbdaa1009	-0.0830384
87	0x3dc0c717	0.094129734
88	0xbe0d45d4	-0.13796169
89	0xc0255f7a	-2.5839524
90	0xbe0ac077	-0.13549982
91	0x3d9569d2	0.07295574
92	0xbf1875e2	-0.59554875
93	0xbe26bb3d	-0.16282363
94	0xbf8e568e	-1.1120164
95	0xbe0b3fad	-0.13598509
96	0xc05426bd	-3.3148644
97	0xbde6c51d	-0.11268065
98	0xbef0fbe9	-0.47067192
99	0x3f1b621e	0.6069659
100	0x3fc8bd7c	1.5682826
101	0x3d9ce6bb	0.07661196
102	0xbf75257d	-0.9576033
103	0xbfda72d2	-1.706629
104	0xbdd2f7cd	-0.103011705
105	0x3bffa781	0.0078019504
106	0xbf93181c	-1.1491733
107	0xbe51b5fa	-0.20479575
108	0x3f40afc0	0.75268173
109	0x3f4df3b6	0.8045
110	0xbe9708c1	-0.29498866
111	0x3dad6460	0.08466411
112	0xbe20098c	-0.15628642
113	0x3ff248b7	1.8928441
114	0x3dc53bc4	0.0963054
115	0xbd80849e	-0.06275295
116	0xbf59a6ec	-0.8502033
117	0x3e9e08bc	0.3086604
118	0x3cd9fcb0	0.026609749
119	0x3d2304d4	0.039799526
120	0x3f2e38dc	0.6805551
121	0xc05f8978	-3.4927654
122	0xbfb00004	-1.3750005
123	0x3ee8e77d	0.45489112
124	0xbe916b2f	-0.28402087
125	0xbf8ffaee	-1.1248453
126	0xbf8686a1	-1.0509835
127	0xbce05e1b	-0.027388623

classifier.0.bias f4 [4]
0	0xc0814dd0	-4.0407486
1	0xc05123f9	-3.2678206
2	0xbfe83434	-1.8140931
3	0xc03a4390	-2.9103737
