Gridworld_OTDD/envs/policy_models/DQN/set_stc/iter_0/model_524.pth (torch, 2667 bytes, 4 tensors)

extractor.0.weight f4 [32, 2]
-0.5497836 -0.08463077 -0.025780383 -0.093884714 -0.51075685 -0.78454083 -0.8321432 -1.3562012
0.09579694 -1.3167262 -0.22078776 -0.6475151 -0.13356642 -0.78904766 0.13900518 -1.4388565
-0.55176914 -0.16050167 -0.05223815 -0.034019418 -0.5352686 -0.2558112 -0.6238519 -0.5017558
-1.1204478 -0.5963684 0.48734635 -1.5025226 -0.7301582 -0.5568956 -0.42790976 -1.1101584
-0.15843658 0.022875033 -0.6108656 -1.5315735 -0.4366796 -0.16898496 -0.38825482 -0.48492613
-0.0755452 -0.441127 -0.69314873 -0.07839162 -0.69848704 -0.0267458 -0.620685 -0.3166405
-0.21371704 -0.8258546 -0.29603496 -1.272185 0.15902166 -0.64151657 -0.09536511 -0.484976
-0.90432686 -0.88760227 -0.04153437 -0.60630596 -0.5372847 -1.0547646 0.067703515 -0.13510779
00000000: 9ebe 0cbf e652 adbd 6231 d3bc a146 c0bd
00000010: f6c0 02bf abd7 48bf 5607 55bf 0098 adbf
00000020: 3031 c43d 7c8a a8bf 3016 62be 8dc3 25bf
00000030: a3c5 08be 07ff 49bf 6057 0e3e 732c b8bf
00000040: be40 0dbf 8d5a 24be acf7 55bd f257 0bbd
00000050: 5d07 09bf b0f9 82be c2b4 1fbf 1173 00bf
00000060: d56a 8fbf 99ab 18bf 7685 f93e a952 c0bf
00000070: a6eb 3abf b690 0ebf fd16 dbbe ac19 8ebf
00000080: 333d 22be 6c64 bb3c b061 1cbf 9a0a c4bf
00000090: 7894 dfbe 650a 2dbe 56c9 c6be 3d48 f8be
000000a0: 71b7 9abd 66db e1be 3272 31bf c98b a0bd
000000b0: 0cd0 32bf 021a dbbc 36e5 1ebf b41e a2be
000000c0: a4d8 5abe 356b 53bf e591 97be f5d6 a2bf
000000d0: 93d6 223e 6e3a 24bf c84e c3bd c64e f8be
000000e0: f781 67bf e739 63bf f21f 2abd de36 1bbf
000000f0: 7d8b 09bf 8702 87bf 24a8 8a3d b259 0abe

extractor.0.bias f4 [32]
4.7454824 -0.40264553 -0.037261292 1.3363532 1.0865636 0.2637198 2.0984585 -0.667529
0.5361434 -0.5080422 2.8490562 -0.3045286 1.1177056 0.007036235 1.4154922 1.9197017
-0.49450392 1.6072861 0.5775409 -0.5402831 1.6921097 0.7978975 -0.019934531 0.8351037
0.972616 3.9554524 2.2651293 -0.12503995 1.5369035 1.7753134 2.3816721 -0.56650555
00000000: feda 9740 8e27 cebe 4c9f 18bd 9f0d ab3f
00000010: 8414 8b3f 4806 873e 254d 0640 2ee3 2abf
00000020: b240 093f 0e0f 02bf f056 3640 2ceb 9bbe
00000030: fa10 8f3f 3890 e63b d92e b53f c9b8 f53f
00000040: 9e2f fdbe 8dbb cd3f b8d9 133f fe4f 0abf
00000050: 0d97 d83f 0343 4c3f be4d a3bc 5bc9 553f
00000060: 5dfd 783f 2226 7d40 e1f7 1040 790a 00be
00000070: 41b9 c43f 783d e33f 516d 1840 8206 11bf

classifier.0.weight f4 [4, 32]
-3.312121 -0.021732664 -0.15471192 0.25788277 -0.1596366 0.18980502 -0.608263 0.48576438
0.3916769 -0.10325009 -1.0863951 -0.30437475 1.6350385 0.18760033 -0.35309893 -0.5144711
-0.031996537 1.026504 0.44714618 -0.07396749 -0.5759587 0.84396744 0.081641965 0.32131058
-0.18925807 -2.7285075 -1.0386646 0.023772677 -0.32451084 -0.79698974 -0.47842836 -0.07788268
-2.4702864 -0.11955628 -0.05735342 -0.80346805 -0.5084714 0.2657441 -0.20168817 0.07970555
0.39994666 0.12554994 -0.6630091 -0.29092845 0.24871348 -0.71427727 0.2508504 -0.31834918
-0.13218354 -0.4505353 0.22499885 0.012130305 -0.00467521 0.5366737 -0.10092807 0.38617596
-0.13204244 -2.4753351 0.091947466 -0.25497106 -0.19111793 0.01986763 -1.451562 -0.10479995
-2.7008457 -0.17005229 -0.19675733 -0.06279219 -0.3930725 0.11743437 -0.4800176 0.39933133
-0.000334804 0.03452543 -0.729872 -0.27450052 0.6212973 -0.8652304 -0.47704393 -0.7449368
-0.01829327 0.8809647 0.28593138 0.058422655 -0.24659549 0.23565094 -0.0830384 0.0795098
-0.011382287 -2.6214418 -0.47308296 0.07295574 -0.38891122 -0.40436128 -0.81563985 -0.13598509
-3.5329044 -0.11268065 -0.47067192 0.44720116 1.2585846 0.10995036 -0.6036874 -1.706629
-0.10642969 0.0078019504 -1.2458571 -0.20479575 0.73519564 0.97942394 -0.30532056 0.014803832
-0.15628642 1.8750067 0.07800891 -0.06275295 -0.5626543 0.060830276 0.026609749 0.113472916
0.46794206 -3.0134597 -1.0825099 0.45489112 -0.32825544 -0.80591184 -0.8696671 -0.027388623
00000000: caf9 53c0 b308 b2bc cd6c 1ebe 3609 843e
00000010: c777 23be 3f5c 423e 20b7 1bbf 1cb6 f83e
00000020: e089 c83e c874 d3bd ff0e 8bbf 02d7 9bbe
00000030: f148 d13f 4d1a 403e 62c9 b4be 61b4 03bf
00000040: cd0e 03bd 7c64 833f 58f0 e43e 447c 97bd
00000050: 0872 13bf 400e 583f e733 a73d d282 a43e
00000060: decc 41be de9f 2ec0 f6f2 84bf ebbe c23c
00000070: 4926 a6be 8507 4cbf 90f4 f4be f480 9fbd
00000080: 2c19 1ec0 ecd9 f4bd 6beb 6abd 15b0 4dbf
00000090: 2f2b 02bf 9c0f 883e 5887 4ebe aa3c a33d
000000a0: cfc5 cc3e 2a90 003e f7ba 29bf 93f4 94be
000000b0: bfae 7e3e e0da 36bf 776f 803e aafe a2be
000000c0: 1f5b 07be 90ac e6be 1966 663e 30be 463c
000000d0: 8132 99bb 7363 093f 60b3 cebd dbb8 c53e
000000e0: 2236 07be e46b 1ec0 f44e bc3d 918b 82be
000000f0: 6bb4 43be 71c1 a23c c9cc b9bf 5ba1 d6bd
00000100: a8da 2cc0 3022 2ebe c17a 49be 3199 80bd
00000110: cc40 c9be 6e81 f03d dec4 f5be 2875 cc3e
00000120: a288 afb9 8a6a 0d3d e4d8 3abf 558b 8cbe
00000130: 570d 1f3f bd7f 5dbf 1a3f f4be 2eb4 3ebf
00000140: c5db 95bc e786 613f 9965 923e 984c 6f3d
00000150: 8783 7cbe 7b4e 713e 0910 aabd 09d6 a23d
00000160: c67c 3abc b4c5 27c0 ee37 f2be d269 953d
00000170: 5f1f c7be 7108 cfbe c6cd 50bf ad3f 0bbe
00000180: 1b1b 62c0 1dc5 e6bd e9fb f0be 8df7 e43e
00000190: 4d19 a13f a82d e13d 428b 1abf d272 dabf
000001a0: cff7 d9bd 81a7 ff3b 3f78 9fbf fab5 51be
000001b0: c835 3c3f 87bb 7a3f fa52 9cbe c68b 723c
000001c0: 8c09 20be 3800 f03f 23c3 9f3d 9e84 80bd
000001d0: 1d0a 10bf 2b29 793d b0fc d93c 7d64 e83d
000001e0: 1a96 ef3e 86dc 40c0 af8f 8abf 7de7 e83e
000001f0: 1911 a8be 3d50 4ebf 81a2 5ebf 1b5e e0bc

classifier.0.bias f4 [4]
-3.2233677 -2.826225 -2.0574958 -3.1880746
00000000: a84b 4ec0 dfe0 34c0 03ae 03c0 6a09 4cc0
