Gridworld_OTDD/envs/policy_models/DQN/set_stc/iter_0/model_585.pth (torch, 2667 bytes, 4 tensors)

extractor.0.weight f4 [32, 2]
-0.6438926 0.21566375 -0.025780383 -0.093884714 -0.51075685 -0.78454083 -0.79396075 -1.3603569
0.23992643 -1.3186508 -0.22678797 -0.6475151 0.0047635124 -0.67140985 0.13900518 -1.4388565
-0.5518636 -0.21505477 -0.05223815 -0.034019418 -0.643345 -0.08222426 -0.6238519 -0.5017558
-1.1497958 -0.58199376 0.5885144 -1.5672506 -0.6814897 -0.5745765 -0.36758608 -1.1243535
-0.15843658 0.022875033 -0.69082224 -1.5280045 -0.4779204 -0.19600458 -0.38825482 -0.48492613
-0.027186163 -0.4356242 -0.73169297 -0.01913207 -0.69848704 -0.0267458 -0.67349994 -0.32315928
-0.16030964 -0.8670489 -0.30216888 -1.0401598 0.33669 -0.6826515 -0.09536511 -0.484976
-0.8450985 -0.869968 0.08174934 -0.5859703 -0.39996058 -0.9864455 0.067703515 -0.13510779
00000000: 25d6 24bf f5d6 5c3e 6231 d3bc a146 c0bd
00000010: f6c0 02bf abd7 48bf 0341 4bbf 2d20 aebf
00000020: 46af 753e 8dc9 a8bf 1b3b 68be 8dc3 25bf
00000030: 3d17 9c3b 84e1 2bbf 6057 0e3e 732c b8bf
00000040: ef46 0dbf 5137 5cbe acf7 55bd f257 0bbd
00000050: 42b2 24bf 3165 a8bd c2b4 1fbf 1173 00bf
00000060: 822c 93bf 8bfd 14bf e1a8 163f ab9b c8bf
00000070: 1c76 2ebf 7217 13bf 3e34 bcbe d1ea 8fbf
00000080: 333d 22be 6c64 bb3c bad9 30bf a795 c3bf
00000090: fcb1 f4be 6db5 48be 56c9 c6be 3d48 f8be
000000a0: 84b5 debc 230a dfbe 3b50 3bbf dcba 9cbc
000000b0: 0cd0 32bf 021a dbbc 7e6a 2cbf 2275 a5be
000000c0: 3628 24be ebf6 5dbf e1b5 9abe f523 85bf
000000d0: a262 ac3e 40c2 2ebf c84e c3bd c64e f8be
000000e0: 6058 58bf 39b6 5ebf 336c a73d 2602 16bf
000000f0: a2c7 ccbe b187 7cbf 24a8 8a3d b259 0abe

extractor.0.bias f4 [32]
5.1987514 -0.40264553 -0.037261315 1.3531342 1.121032 0.19133233 2.31827 -0.667529
0.5306517 -0.5080422 3.176175 -0.3045286 0.86846626 0.130838 1.515334 2.0102124
-0.49450392 1.1637492 0.4320079 -0.5402831 1.8352426 0.7520747 -0.019934531 0.7223742
0.9024627 4.3811064 2.51215 -0.12503995 1.660274 1.9788014 2.593206 -0.56650555
00000000: 2c5c a640 8e27 cebe 529f 18bd 8033 ad3f
00000010: fa7d 8f3f 9fec 433e 895e 1440 2ee3 2abf
00000020: cad8 073f 0e0f 02bf 7446 4b40 2ceb 9bbe
00000030: ce53 5e3f 66fa 053e 77f6 c13f 52a7 0040
00000040: 9e2f fdbe bcf5 943f 2430 dd3e fe4f 0abf
00000050: 3be9 ea3f f887 403f be4d a3bc 84ed 383f
00000060: cc07 673f 0632 8c40 11c7 2040 790a 00be
00000070: dc83 d43f 5d49 fd3f 16f7 2540 8206 11bf

classifier.0.weight f4 [4, 32]
-3.5628765 -0.021732664 -0.15471192 0.16521831 -0.27854636 0.16488779 -0.70747226 0.48576438
0.4166886 -0.10325009 -1.2634315 -0.30437475 1.5702513 0.13662845 -0.35951033 -0.5572119
-0.031996537 0.76966614 0.44853058 -0.07396749 -0.7185422 0.9795296 0.081641965 0.32977024
-0.2787457 -2.8698342 -1.2473792 0.023772677 -0.36761594 -0.9226875 -0.5103805 -0.07788268
-2.8310583 -0.11955628 -0.05735342 -0.9382948 -0.647438 0.25250134 -0.39887547 0.07970555
0.3910256 0.12554994 -1.1578227 -0.29092845 0.20534968 -0.8325008 0.21828873 -0.38047764
-0.13218354 -0.72897416 0.20619038 0.012130305 -0.19506899 0.460654 -0.10092807 0.3639447
-0.19688626 -2.7481315 0.029990574 -0.25497106 -0.22282192 -0.13003819 -1.6109698 -0.10479995
-3.0338361 -0.17005229 -0.19675733 -0.100298174 -0.48419693 0.11967754 -0.6196457 0.39933133
-0.0138573 0.03452543 -1.0749916 -0.27450052 0.5791104 -0.98717755 -0.5624354 -0.8613331
-0.01829327 0.77134734 0.2620733 0.058422655 -0.423754 0.17192042 -0.0830384 0.040171765
-0.07945778 -2.8596103 -0.62581486 0.07295574 -0.4704342 -0.55191904 -1.0001295 -0.13598509
-3.5051916 -0.11268065 -0.47067192 0.27324936 1.1904129 0.061418187 -0.94309527 -1.706629
-0.18872356 0.0078019504 -1.3213215 -0.20479575 0.42560172 1.0347975 -0.46699214 -0.21387991
-0.15628642 1.5067357 -0.016050033 -0.06275295 -0.834563 0.013989059 0.026609749 -0.03011423
0.37282324 -3.4397366 -1.3487957 0.45489112 -0.51242363 -1.1222974 -1.2419875 -0.027388623
00000000: 2b06 64c0 b308 b2bc cd6c 1ebe fd2e 293e
00000010: a19d 8ebe 58d8 283e e71c 35bf 1cb6 f83e
00000020: 3558 d53e c874 d3bd 20b8 a1bf 02d7 9bbe
00000030: fffd c83f 54e8 0b3e bd11 b8be 70a5 0ebf
00000040: cd0e 03bd d708 453f cda5 e53e 447c 97bd
00000050: 62f2 37bf 74c2 7a3f e733 a73d a5d7 a83e
00000060: c2b7 8ebe 5dab 37c0 1faa 9fbf ebbe c23c
00000070: 2838 bcbe 3f35 6cbf 4ca8 02bf f480 9fbd
00000080: 0f30 35c0 ecd9 f4bd 6beb 6abd 1734 70bf
00000090: 7fbe 25bf db47 813e 6839 ccbe aa3c a33d
000000a0: 8234 c83e 2a90 003e 8933 94bf 93f4 94be
000000b0: 3047 523e c61e 55bf 1587 5f3e f7cd c2be
000000c0: 1f5b 07be 0d9e 3abf 9223 533e 30be 463c
000000d0: 2ac0 47be d7da eb3e 60b3 cebd f656 ba3e
000000e0: 8d9c 49be 63e1 2fc0 cbae f53c 918b 82be
000000f0: 6e2b 64be bb28 05be 4234 cebf 5ba1 d6bd
00000100: 5f2a 42c0 3022 2ebe c17a 49be 2169 cdbd
00000110: a9e8 f7be 8019 f53d 1aa1 1ebf 2875 cc3e
00000120: bb09 63bc 8a6a 0d3d 5399 89bf 558b 8cbe
00000130: 9440 143f abb7 7cbf c4fb 0fbf 5380 5cbf
00000140: c5db 95bc 0577 453f 792e 863e 984c 6f3d
00000150: 49f6 d8be e80b 303e 0910 aabd 268b 243d
00000160: c3ba a2bd db03 37c0 6735 20bf d269 953d
00000170: c0dc f0be 914a 0dbf 3e04 80bf ad3f 0bbe
00000180: 0f55 60c0 1dc5 e6bd e9fb f0be 57e7 8b3e
00000190: 735f 983f a391 7b3d b16e 71bf d272 dabf
000001a0: c040 41be 81a7 ff3b 1021 a9bf fab5 51be
000001b0: 78e8 d93e 3f74 843f 9819 efbe 5603 5bbe
000001c0: 8c09 20be b7dc c03f 5c7b 83bc 9e84 80bd
000001d0: eca5 55bf 5e32 653c b0fc d93c 1eb2 f6bc
000001e0: b0e2 be3e a524 5cc0 56a5 acbf 7de7 e83e
000001f0: 322e 03bf 71a7 8fbf 72f9 9ebf 1b5e e0bc

classifier.0.bias f4 [4]
-3.559456 -3.3086913 -2.3891833 -3.1572468
00000000: 21ce 63c0 99c1 53c0 61e8 18c0 5510 4ac0
