Gridworld_OTDD/envs/policy_models/DQN/set_stc/iter_0/model_1073.pth (torch, 2673 bytes, 4 tensors)

extractor.0.weight f4 [32, 2]
000000 65 4f a0 bf 97 94 57 be 62 31 d3 bc a1 46 c0 bd
       -1.2524229 -0.21052776 -0.025780383 -0.093884714
000010 f6 c0 02 bf ab d7 48 bf 47 9f 20 bf 08 d6 af bf
       -0.51075685 -0.78454083 -0.6274304 -1.3737192
000020 a1 cf 1a 3e 8f 89 db bf 87 6b 9e be 8d c3 25 bf
       0.15118267 -1.7151355 -0.30941412 -0.6475151
000030 49 ca d5 bd e1 e3 6f bf 60 57 0e 3e 73 2c b8 bf
       -0.104389735 -0.9370709 0.13900518 -1.4388565
000040 ee 23 f0 be 7c 9a 1c be ac f7 55 bd f2 57 0b bd
       -0.46902412 -0.15293306 -0.05223815 -0.034019418
000050 ee c0 57 bf 65 0f a9 be c2 b4 1f bf 11 73 00 bf
       -0.8427876 -0.33019558 -0.6238519 -0.5017558
000060 61 cc b6 bf 2a 35 8f be 2e 33 b7 3e 5f 81 0a c0
       -1.4281121 -0.27970248 0.35781235 -2.1641462
000070 67 f4 0f bf f6 7e 38 bf c5 03 1f bf f6 00 a7 bf
       -0.56232303 -0.72068727 -0.62115127 -1.3047168
000080 33 3d 22 be 6c 64 bb 3c f7 09 51 bf 91 9a c7 bf
       -0.15843658 0.022875033 -0.8165583 -1.5594045
000090 37 ae 0c bf d8 87 05 be 56 c9 c6 be 3d 48 f8 be
       -0.5495333 -0.13040102 -0.38825482 -0.48492613
0000a0 7e 92 17 be c8 73 c3 be 3d f0 95 bf 7d f5 72 be
       -0.14801976 -0.38174272 -1.171394 -0.23726459
0000b0 0c d0 32 bf 02 1a db bc 74 07 41 bf 1b 18 d3 be
       -0.69848704 -0.0267458 -0.75402 -0.4122933
0000c0 94 76 9c 3c db 56 8d bf 86 3d b9 be a3 cd 98 bf
       0.019099511 -1.1042131 -0.3617975 -1.1937755
0000d0 ad 78 7b 3e b1 ee 27 bf c8 4e c3 bd c6 4e f8 be
       0.24557753 -0.6559859 -0.09536511 -0.484976
0000e0 d9 43 45 bf 0c ee 63 bf 10 75 1c be c9 39 1a bf
       -0.7705665 -0.89035106 -0.15279031 -0.60244423
0000f0 53 50 a4 be de a3 8c bf 24 a8 8a 3d b2 59 0a be
       -0.32092533 -1.0987508 0.067703515 -0.13510779

extractor.0.bias f4 [32]
000000 fd af 9a 40 8e 27 ce be 52 9f 18 bd e4 80 a8 3f
       4.833983 -0.40264553 -0.037261315 1.3164334
000010 4b c2 cd 3f 07 e9 70 3e ea 5e f8 3f 2e e3 2a bf
       1.6074919 0.23526393 1.9403965 -0.667529
000020 bf cf 80 3f 0e 0f 02 bf b2 de 32 40 2c eb 9b be
       1.0063399 -0.5080422 2.7948422 -0.3045286
000030 7f d2 de 3f 89 27 f5 3e 9d ed b7 3f 65 aa e2 3f
       1.7407988 0.47881725 1.4369389 1.770825
000040 9e 2f fd be 4b 65 86 3f 32 39 61 3f fe 4f 0a bf
       -0.49450392 1.0499662 0.879779 -0.5402831
000050 2f ea da 3f 0d 05 d4 3f be 4d a3 bc 99 cd 14 3f
       1.7102717 1.6564041 -0.019934531 0.5812622
000060 45 6f 81 3f 37 f1 83 40 ae 82 1f 40 79 0a 00 be
       1.0112082 4.123195 2.492351 -0.12503995
000070 b6 9b c9 3f 9a ec e7 3f d8 39 19 40 82 06 11 bf
       1.5750644 1.811908 2.3941555 -0.56650555

classifier.0.weight f4 [4, 32]
000000 7a 8d 70 c0 b3 08 b2 bc cd 6c 1e be cf c3 cc bd
       -3.758635 -0.021732664 -0.15471192 -0.09998285
000010 da ee 13 bf a1 e7 a9 3d 9f 90 ed be 1c b6 f8 3e
       -0.57786334 0.08296133 -0.463994 0.48576438
000020 13 88 3e 3f c8 74 d3 bd c2 13 92 bf 02 d7 9b be
       0.7442638 -0.10325009 -1.141228 -0.30437475
000030 32 4b f3 3f 80 81 45 3e 36 87 9c bc 02 17 17 bf
       1.9007323 0.19287682 -0.019107442 -0.5901948
000040 cd 0e 03 bd 90 8a 70 3e da a3 14 3f 44 7c 97 bd
       -0.031996537 0.23490357 0.5806252 -0.07396749
000050 1c 5e 14 bf f2 0e d6 3f e7 33 a7 3d e1 39 eb 3e
       -0.579561 1.6723311 0.081641965 0.45942596
000060 b3 e1 0b bf fd 52 29 c0 1b d2 94 bf eb be c2 3c
       -0.54641265 -2.6456902 -1.1626619 0.023772677
000070 03 4e 82 be 3e 96 50 bf 8f 0a 08 be f4 80 9f bd
       -0.25450143 -0.8147925 -0.13285278 -0.07788268
000080 91 0b 2b c0 ec d9 f4 bd 6b eb 6a bd 3a 16 29 bf
       -2.672581 -0.11955628 -0.05735342 -0.6604954
000090 cd 6f 31 bf 78 bf 78 3e 74 9a 30 be aa 3c a3 3d
       -0.6931122 0.2429179 -0.17246419 0.07970555
0000a0 f1 2c b8 3e 2a 90 00 3e 71 83 6c bf 93 f4 94 be
       0.35971788 0.12554994 -0.92388064 -0.29092845
0000b0 b4 8c f1 3d 17 22 90 bf 1f 84 95 3e 39 51 7d be
       0.11794415 -1.1260403 0.29202363 -0.24738015
0000c0 1f 5b 07 be e6 83 16 bf c6 ad 2d 3e 30 be 46 3c
       -0.13218354 -0.5879501 0.1696082 0.012130305
0000d0 90 28 fb 3d 90 04 c7 3e 60 b3 ce bd cd c9 b3 3e
       0.12263596 0.38870668 -0.10092807 0.351149
0000e0 45 da 06 be cd fe 16 c0 60 cf 15 3f 91 8b 82 be
       -0.131692 -2.3593018 0.58519554 -0.25497106
0000f0 97 f5 af bd ab 0e 9a 3e e5 36 ae bf 5b a1 d6 bd
       -0.085917644 0.30089316 -1.3610502 -0.10479995
000100 2c 09 18 c0 30 22 2e be c1 7a 49 be bd 7b 15 bd
       -2.3755598 -0.17005229 -0.19675733 -0.03649496
000110 7b 31 16 bf 43 9d 80 3e 9e 1e e6 be 28 75 cc 3e
       -0.5866925 0.2511998 -0.44945234 0.39933133
000120 5f 99 03 be 8a 6a 0d 3d 29 28 11 bf 55 8b 8c be
       -0.12851475 0.03452543 -0.56701905 -0.27450052
000130 0b a0 ed 3d d5 1b 90 bf c3 4d 47 bf e4 db 80 bf
       0.116027914 -1.1258494 -0.7785303 -1.0067105
000140 c5 db 95 bc bf 02 8e 3f 57 6c bf 3d 98 4c 6f 3d
       -0.01829327 1.1094588 0.09346836 0.058422655
000150 44 6e 51 3d d0 28 2e bb 09 10 aa bd 76 be 62 3e
       0.051130548 -0.002657462 -0.0830384 0.22142968
000160 2d 13 df bd d0 83 1a c0 9d 7c 1b 3e d2 69 95 3d
       -0.10892329 -2.4142952 0.15184255 0.07295574
000170 f8 4e 34 bf e8 3f 5b 3d d6 f1 95 bf ad 3f 0b be
       -0.70432997 0.053527743 -1.1714427 -0.13598509
000180 6d 8c 57 c0 1d c5 e6 bd e9 fb f0 be e6 33 31 3f
       -3.367946 -0.11268065 -0.47067192 0.69219816
000190 8e ab 11 40 3b 50 88 bd c9 2b 76 bf d2 72 da bf
       2.2760959 -0.06655928 -0.9616056 -1.706629
0001a0 c2 c9 4c bd 81 a7 ff 3b a3 0e 91 bf fa b5 51 be
       -0.0499971 0.0078019504 -1.1332592 -0.20479575
0001b0 22 77 29 3f 3d 24 e5 3f 13 d4 19 be ec b9 d0 3e
       0.6619741 1.7901684 -0.15022306 0.40766847
0001c0 8c 09 20 be 41 ef a5 3f 2d 61 bf 3d 9e 84 80 bd
       -0.15628642 1.296364 0.09344707 -0.06275295
0001d0 fa bd 58 bf b3 aa a8 3e b0 fc d9 3c 78 1c 2f be
       -0.8466488 0.32942733 0.026609749 -0.17100704
0001e0 ec 78 8d 3f f2 49 62 c0 f7 f7 af bf 7d e7 e8 3e
       1.1052527 -3.5357633 -1.3747548 0.45489112
0001f0 53 59 32 be 72 76 8b bf 81 2e 6b bf 1b 5e e0 bc
       -0.17416887 -1.0895522 -0.91867834 -0.027388623

classifier.0.bias f4 [4]
000000 a9 d1 83 c0 cd b1 38 c0 5b 47 ac bf f4 1e 3b c0
       -4.1193433 -2.885852 -1.3459276 -2.9237642
