Gridworld_OTDD/envs/policy_models/DQN/set_stc/iter_0/model_250.pth (torch, 2667 bytes, 4 tensors)

extractor.0.weight f4 [32, 2]
0	0x3fb4db06	1.4129341
1	0x3fb87491	1.4410573
2	0xbcd33162	-0.025780383
3	0xbdc046a1	-0.093884714
4	0xbd7fe40d	-0.062473346
5	0xbe9f26b4	-0.31084216
6	0xbf862e9a	-1.0482972
7	0xbfaa63a3	-1.3311657
8	0x3db5355f	0.0884807
9	0xbf6c0464	-0.921942
10	0xbdf6305c	-0.120209426
11	0xbf25c372	-0.6475135
12	0x3e7ef187	0.24896823
13	0xbf702673	-0.9380867
14	0x3e0e5760	0.13900518
15	0xbfb82c73	-1.4388565
16	0xbeca00df	-0.3945379
17	0xbe8c935e	-0.27456182
18	0xbd55f7ac	-0.05223815
19	0xbd0b57f2	-0.034019418
20	0xbf424896	-0.7589201
21	0x3ee0a46d	0.43875447
22	0xbf1fb4c2	-0.6238519
23	0xbf007311	-0.5017558
24	0xbf3ef185	-0.7458728
25	0xbe906820	-0.2820444
26	0x3f1ff04f	0.62476057
27	0xbf881903	-1.0632633
28	0xbe3df4fe	-0.18550488
29	0x3dbc8c53	0.09206452
30	0x3dffdc00	0.124931335
31	0xbed43e98	-0.41454005
32	0xbe223d33	-0.15843658
33	0x3cbb646c	0.022875033
34	0xbf2f5e62	-0.6850339
35	0xbf8c4e10	-1.0961323
36	0xbe0efd5b	-0.13963835
37	0xbe81c0f8	-0.25342536
38	0xbec6c956	-0.38825482
39	0xbef8483d	-0.48492613
40	0xbf33339d	-0.7000063
41	0xbe92e7aa	-0.2869237
42	0xbebaa63b	-0.3645495
43	0xbe97dcbd	-0.29660597
44	0xbf32d00c	-0.69848704
45	0xbcdb1a02	-0.0267458
46	0xbeda4769	-0.42632607
47	0xbf018b8d	-0.5060356
48	0xbe5bc60c	-0.21462268
49	0xbec0ae66	-0.37633055
50	0x3e06494b	0.13113897
51	0xbf25e92f	-0.64808935
52	0x3ec39ec6	0.38207072
53	0xbe85d19e	-0.26136488
54	0xbdb92c00	-0.090415955
55	0xbef7e6e4	-0.48418343
56	0xbf05f102	-0.52320874
57	0xbd9c5623	-0.07633617
58	0xbd739a9a	-0.05947361
59	0xbf3e3822	-0.743044
60	0xbf66fd05	-0.9022983
61	0xbf9839bf	-1.1892623
62	0x3d8aa824	0.067703515
63	0xbe0a59b2	-0.13510779

extractor.0.bias f4 [32]
0	0x40aa47aa	5.321248
1	0xbece278e	-0.40264553
2	0x3fbd79fe	1.4802854
3	0x40046fe5	2.0693295
4	0x3ff3cb20	1.9046364
5	0x3d86e244	0.065861255
6	0x4038f69a	2.8900514
7	0xbf2ae32e	-0.667529
8	0x3f4e69d5	0.80630237
9	0xbf020f0e	-0.5080422
10	0x40624ef9	3.53607
11	0xbe9beb2c	-0.3045286
12	0x3cf4b49c	0.029871278
13	0x3efe7628	0.4969952
14	0x4026bfd5	2.6054585
15	0x404e547f	3.2239072
16	0xbefd2f9e	-0.49450392
17	0x3ebe08d4	0.3711611
18	0x3d8f81d0	0.07007182
19	0xbf0a4ffe	-0.5402831
20	0x40127aa8	2.2887363
21	0x3e655d47	0.22398864
22	0xbca34dbe	-0.019934531
23	0x3f990c53	1.1956886
24	0x3ff3530e	1.9009721
25	0x40905af8	4.5111046
26	0x403fc72e	2.996532
27	0xbdcc45ad	-0.09974227
28	0x4036e800	2.8579102
29	0x4011d264	2.2784662
30	0x403f359e	2.9876475
31	0xbf110682	-0.56650555

classifier.0.weight f4 [4, 32]
0	0xc05abfce	-3.4179568
1	0xbcb208b3	-0.021732664
2	0xbefdd66c	-0.49577653
3	0xbf67ba34	-0.905185
4	0xbf19306b	-0.59839505
5	0x3cb51315	0.022103826
6	0xbf8370f7	-1.0268849
7	0x3ef8b61c	0.48576438
8	0xbe835b70	-0.256557
9	0xbdd374c8	-0.10325009
10	0xbff22c65	-1.8919798
11	0xbe9bd702	-0.30437475
12	0x3e173a54	0.14768344
13	0xbf4a6edc	-0.7907541
14	0xbf9f92c1	-1.2466661
15	0xbfa62f98	-1.2983274
16	0xbd030ecd	-0.031996537
17	0x3d374986	0.04474785
18	0x3e0fa5c4	0.14028078
19	0xbd977c44	-0.07396749
20	0xbf80deec	-1.006803
21	0x3e3ba4d2	0.18324593
22	0x3da733e7	0.081641965
23	0xbebd1cde	-0.36936086
24	0xbf4181d2	-0.75588715
25	0xc0441e33	-3.0643432
26	0xbfa69b59	-1.3016158
27	0x3ce7747e	0.02825379
28	0xbfa18e0c	-1.2621474
29	0xbf73c6e7	-0.95225376
30	0xbf982c02	-1.188843
31	0xbd9f80f4	-0.07788268
32	0xc05fa1bc	-3.4942465
33	0xbdf4d9ec	-0.11955628
34	0xbec70bb3	-0.38876113
35	0xbfd3b4fa	-1.6539605
36	0xbf2bb220	-0.6706867
37	0x3e6f5a0b	0.23374192
38	0xbfb3cbd2	-1.4046576
39	0x3da33caa	0.07970555
40	0x3e047552	0.12935379
41	0x3e00902a	0.12554994
42	0xbfb2002a	-1.39063
43	0xbe94f493	-0.29092845
44	0x3c94861e	0.018130358
45	0xbf44aeec	-0.7682941
46	0xbf279a6c	-0.65470004
47	0xbf971a60	-1.1804924
48	0xbe075b1f	-0.13218354
49	0xbf342255	-0.70364887
50	0x3e0ce173	0.13757877
51	0x3c46be30	0.012130305
52	0xbf29ae4e	-0.6628159
53	0x3ebaa27f	0.364521
54	0xbdceb360	-0.10092807
55	0xbb8c7c77	-0.0042872983
56	0xbf08eaec	-0.5348346
57	0xc06f5b3e	-3.739944
58	0xbf7d65a6	-0.9898323
59	0xbe8107a7	-0.2520115
60	0xbf8cf536	-1.1012332
61	0xbf281b37	-0.65666527
62	0xc027bdc4	-2.6209574
63	0xbdd6a15b	-0.10479995
64	0xc080ca98	-4.0247307
65	0xbe2e2230	-0.17005229
66	0xbf00dd26	-0.50337446
67	0xbf81cd3c	-1.0140758
68	0xbf01e123	-0.50734156
69	0x3d170076	0.036865674
70	0xbf573800	-0.84069824
71	0x3ecc7528	0.39933133
72	0xbe9d3122	-0.30701548
73	0x3d0d6a8a	0.03452543
74	0xbff3a4e5	-1.9034697
75	0xbe8c8b55	-0.27450052
76	0x3dc9881c	0.09840414
77	0xbf3bbe5f	-0.7333736
78	0xbf914e2f	-1.1351985
79	0xbf9f2c33	-1.2435364
80	0xbc95dbc5	-0.01829327
81	0x3e9031b6	0.28162926
82	0x3e3d47d6	0.18484434
83	0x3d6f4c98	0.058422655
84	0xbf519aac	-0.81876636
85	0x3cb5c7d0	0.022190005
86	0xbdaa1009	-0.0830384
87	0xbe6b947a	-0.23005858
88	0xbededbda	-0.43527108
89	0xc0465405	-3.0988781
90	0xbf733657	-0.9500479
91	0x3d9a2bb1	0.07527865
92	0xbf9473c3	-1.1597828
93	0xbf23c8b5	-0.6397813
94	0xbfaa420f	-1.330141
95	0xbe0b3fad	-0.13598509
96	0xc04b4457	-3.1760461
97	0xbde6c51d	-0.11268065
98	0xbf81c984	-1.0139623
99	0xbfb28b43	-1.3948749
100	0xbf711ae2	-0.94181645
101	0xbd6f4e27	-0.05842414
102	0xbfca4039	-1.5800849
103	0xbfda72d2	-1.706629
104	0xbeddbb47	-0.43306944
105	0x3bffa781	0.0078019504
106	0xbfa4b529	-1.2867786
107	0xbe51b5fa	-0.20479575
108	0x3ee1e4d6	0.441199
109	0xbe5b91ae	-0.21442291
110	0xbf7db337	-0.99101585
111	0xbfc9efe7	-1.5776337
112	0xbe20098c	-0.15628642
113	0x3ec0760d	0.37590066
114	0xbdde5f76	-0.108580515
115	0xbd80849e	-0.06275295
116	0xbf63361b	-0.88754433
117	0xbe5e7926	-0.21725902
118	0x3cd9fcb0	0.026609749
119	0xbeef0fd1	-0.46691754
120	0xbf43a5d3	-0.764249
121	0xc0588f40	-3.3837433
122	0xbfafce27	-1.3734788
123	0x3eeb3645	0.45939842
124	0xbf98ed31	-1.1947385
125	0xbf8ba513	-1.0909752
126	0xc0119c2e	-2.2751575
127	0xbce05e1b	-0.027388623

classifier.0.bias f4 [4]
0	0xc03d0401	-2.9533694
1	0xc04dc1b7	-3.2149484
2	0xc02aad71	-2.666836
3	0xc02d2bbb	-2.705794
