Gridworld_OTDD/envs/policy_models/DQN/set_stc/iter_0/model_258.pth (torch, 2667 bytes, 4 tensors)

extractor.0.weight f4 [32, 2]
1.2256054 1.1237135 -0.025780383 -0.093884714 -0.08163642 -0.42796397 -0.9933948 -1.2895753
0.16605693 -0.84275305 -0.12086873 -0.6475145 0.17509827 -0.89673907 0.13900518 -1.4388565
-0.3623753 -0.27270728 -0.05223815 -0.034019418 -0.93819374 0.12851752 -0.6238519 -0.5017558
-0.7458814 -0.28211337 0.5806721 -1.1723745 -0.3042116 -0.16072193 -0.004508011 -0.6846087
-0.15843658 0.022875033 -0.6851426 -1.0961581 -0.13970207 -0.25345927 -0.38825482 -0.48492613
-0.56751394 -0.30579835 -0.36461097 -0.2966744 -0.69848704 -0.0267458 -0.37699166 -0.4574573
-0.18657163 -0.43571728 -0.047269117 -0.94821435 0.25536793 -0.5187721 -0.093187325 -0.48462734
-0.654923 -0.326566 0.014676356 -0.6425174 -0.7089816 -1.0607157 0.067703515 -0.13510779
00000000: a3e0 9c3f d8d5 8f3f 6231 d3bc a146 c0bd
00000010: ff30 a7bd 181e dbbe 1f4f 7ebf ce10 a5bf
00000020: d40a 2a3e aabe 57bf 068a f7bd 83c3 25bf
00000030: f64c 333e b190 65bf 6057 0e3e 732c b8bf
00000040: 4189 b9be 4aa0 8bbe acf7 55bd f257 0bbd
00000050: 772d 70bf 199a 033e c2b4 1fbf 1173 00bf
00000060: 15f2 3ebf 2a71 90be eda6 143f 5e10 96bf
00000070: 9fc1 9bbe 4a94 24be f0b7 93bb 8442 2fbf
00000080: 333d 22be 6c64 bb3c 8165 2fbf e94e 8cbf
00000090: 0f0e 0fbe 6ac5 81be 56c9 c6be 3d48 f8be
000000a0: 9848 11bf 9a91 9cbe 4aae babe b5e5 97be
000000b0: 0cd0 32bf 021a dbbc 0d05 c1be d837 eabe
000000c0: a20c 3fbe 5616 dfbe 439d 41bd 2dbe 72bf
000000d0: 96bf 823e 40ce 04bf ffd8 bebd 1321 f8be
000000e0: 09a9 27bf a933 a7be 1975 703c 057c 24bf
000000f0: d17f 35bf 88c5 87bf 24a8 8a3d b259 0abe

extractor.0.bias f4 [32]
5.4648075 -0.40264553 1.640401 2.2001226 2.1103296 0.059917804 3.149333 -0.667529
0.86971086 -0.5080422 3.6655746 -0.3045286 0.027417043 0.6181978 2.759932 3.387251
-0.49450392 0.38143942 0.085877426 -0.5402831 2.4711106 0.2320425 -0.019934531 1.2999849
2.0316644 4.640864 3.175992 -0.11390804 2.9812596 2.5116637 3.2708733 -0.56650555
00000000: b4df ae40 8e27 cebe a9f8 d13f cfce 0c40
00000010: a40f 0740 5f6c 753d ac8e 4940 2ee3 2abf
00000020: 5fa5 5e3f 0e0f 02bf c698 6a40 2ceb 9bbe
00000030: b599 e03c 3642 1e3f baa2 3040 b8c8 5840
00000040: 9e2f fdbe 074c c33e 81e0 af3d fe4f 0abf
00000050: ad26 1e40 8d9c 6d3e be4d a3bc e865 a63f
00000060: ca06 0240 f581 9440 7443 4b40 9e48 e9bd
00000070: f5cc 3e40 19bf 2040 fd55 5140 8206 11bf

classifier.0.weight f4 [4, 32]
-3.4562647 -0.021732664 -0.5735811 -0.8724095 -0.6672172 0.029007547 -1.1149169 0.48576438
-0.2673092 -0.10325009 -2.0307996 -0.30437475 0.15695713 -0.8791957 -1.3440244 -1.4020967
-0.031996537 0.08635532 0.14623502 -0.07396749 -1.0936023 0.2056188 0.081641965 -0.38454255
-0.8476801 -3.1875217 -1.3763996 0.025744533 -1.3960872 -1.0358434 -1.227038 -0.07788268
-3.2548633 -0.11955628 -0.41225997 -1.704982 -0.74761903 0.23206261 -1.4984105 0.07970555
0.10704669 0.12554994 -1.2811087 -0.29092845 0.0160969 -0.8634584 -0.57281876 -1.1486425
-0.13218354 -0.715823 0.13701017 0.012130305 -0.70831645 0.36146542 -0.10092807 -0.032161254
-0.59180725 -3.7301543 -0.91133827 -0.25366884 -1.0777081 -0.7397561 -2.723172 -0.10479995
-3.9939473 -0.17005229 -0.5746158 -1.0598369 -0.59630024 0.0371051 -0.9694153 0.39933133
-0.33750203 0.03452543 -1.9879584 -0.27450052 0.09905045 -0.80988085 -1.1952657 -1.343647
-0.01829327 0.2838408 0.18493801 0.058422655 -0.92660224 0.023430029 -0.0830384 -0.27086866
-0.53247243 -3.2560663 -1.0131508 0.073977895 -1.270237 -0.7480613 -1.4349849 -0.13598509
-3.5106156 -0.11268065 -1.1353899 -1.4620556 -1.0987091 -0.06118328 -1.8923341 -1.706629
-0.4722157 0.0078019504 -1.5130032 -0.20479575 0.43753684 -0.39487836 -1.1920152 -1.860706
-0.15628642 0.36331987 -0.10940519 -0.06275295 -1.0432377 -0.22220515 0.026609749 -0.52291197
-0.9329889 -3.75475 -1.641808 0.45687446 -1.399382 -1.307463 -2.4222984 -0.027388623
00000000: 7133 5dc0 b308 b2bc 36d6 12bf 3b56 5fbf
00000010: bfce 2abf 3ca1 ed3c 99b5 8ebf 1cb6 f83e
00000020: c0dc 88be c874 d3bd 9ff8 01c0 02d7 9bbe
00000030: 5fb9 203e f812 61bf fe08 acbf e877 b3bf
00000040: cd0e 03bd 0fdb b03d a2be 153e 447c 97bd
00000050: 29fb 8bbf bc8d 523e e733 a73d c3e2 c4be
00000060: 9001 59bf 5b00 4cc0 dd2d b0bf 33e6 d23c
00000070: fcb2 b2bf 8496 84bf 950f 9dbf f480 9fbd
00000080: ae4f 50c0 ecd9 f4bd bd13 d3be da3c dabf
00000090: f663 3fbf d2a1 6d3e eacb bfbf aa3c a33d
000000a0: 4c3b db3d 2a90 003e 5ffb a3bf 93f4 94be
000000b0: a5dd 833c 9c0b 5dbf 40a4 12bf b806 93bf
000000c0: 1f5b 07be 2d40 37bf 654c 0c3e 30be 463c
000000d0: 3a54 35bf ff11 b93e 60b3 cebd 85bb 03bd
000000e0: ae80 17bf d9ba 6ec0 774d 69bf e2e0 81be
000000f0: 57f2 89bf a860 3dbf 7348 2ec0 5ba1 d6bd
00000100: d59c 7fc0 3022 2ebe 051a 13bf bca8 87bf
00000110: 22a7 18bf 84fb 173d 9a2b 78bf 2875 cc3e
00000120: 11cd acbe 8a6a 0d3d 6c75 febf 558b 8cbe
00000130: f6da ca3d 5a54 4fbf 77fe 98bf a0fc abbf
00000140: c5db 95bc 9553 913e 6460 3d3e 984c 6f3d
00000150: ce35 6dbf 55f0 bf3c 0910 aabd 4caf 8abe
00000160: 1d50 08bf 6463 50c0 edae 81bf b981 973d
00000170: 2097 a2bf f280 3fbf 96ad b7bf ad3f 0bbe
00000180: edad 60c0 1dc5 e6bd 7554 91bf a324 bbbf
00000190: 80a2 8cbf 529b 7abd 0138 f2bf d272 dabf
000001a0: 42c6 f1be 81a7 ff3b 17aa c1bf fab5 51be
000001b0: d404 e03e 7f2d cabe f493 98bf 9d2b eebf
000001c0: 8c09 20be 1005 ba3e d40f e0bd 9e84 80bd
000001d0: d088 85bf bf89 63be b0fc d93c 8fdd 05bf
000001e0: 5cd8 6ebf d34d 70c0 c426 d2bf 73eb e93e
000001f0: f31e b3bf f35a a7bf f006 1bc0 1b5e e0bc

classifier.0.bias f4 [4]
-3.0386138 -3.1620579 -2.7399585 -2.9620953
00000000: a678 42c0 285f 4ac0 7b5b 2fc0 f892 3dc0
