Gridworld_OTDD/envs/policy_models/DQN/set_stc/iter_0/model_373.pth (torch, 2667 bytes, 4 tensors)

extractor.0.weight f4 [32, 2]
00000000: 0b29 36be 87b4 80bd 6231 d3bc a146 c0bd
00000010: b6c0 02bf 90d7 48bf 1fec 7fbf f6a2 a2bf
00000020: 10df 2d3b 7c01 5abf 496a 29be 8dc3 25bf
00000030: 39c7 75be b782 6bbf 6057 0e3e 732c b8bf
00000040: 3b28 d3be 99ff 7bbe acf7 55bd f257 0bbd
00000050: 8403 74bf 5d1c febe c2b4 1fbf 1173 00bf
00000060: 3e65 41bf 6bfb 13bf ba63 433e c8a9 b4bf
00000070: b8de 27bf ff79 28bf 3891 e5be 79ad 94bf
00000080: 333d 22be 6c64 bb3c c203 4cbf 3386 8cbf
00000090: d27e 84be 47bc 95be 56c9 c6be 3d48 f8be
000000a0: 4210 b4be c547 0bbf 9547 d8be 6440 b0be
000000b0: 0cd0 32bf 021a dbbc cbae f0be de35 e1be
000000c0: 35a3 c0be c8d4 3cbf 8a81 3bbf 90c7 c0bf
000000d0: 2824 e3bd e3c7 47bf c84e c3bd c64e f8be
000000e0: 5885 82bf bed2 6cbf e886 68be 84e6 28bf
000000f0: e998 16bf e61e 82bf 24a8 8a3d b259 0abe
-0.17789094 -0.06284433 -0.025780383 -0.093884714 -0.51075304 -0.7845392 -0.9996967 -1.2705982
0.002653066 -0.85158515 -0.16544451 -0.6475151 -0.24001779 -0.9199633 0.13900518 -1.4388565
-0.4124163 -0.24609222 -0.05223815 -0.034019418 -0.95317864 -0.49631014 -0.6238519 -0.5017558
-0.7554511 -0.5780551 0.19081011 -1.4114313 -0.65574217 -0.6581115 -0.44837356 -1.161544
-0.15843658 0.022875033 -0.79693234 -1.0978454 -0.25878006 -0.29245207 -0.38825482 -0.48492613
-0.35168654 -0.54406387 -0.42242113 -0.34424126 -0.69848704 -0.0267458 -0.47008356 -0.4398641
-0.37624517 -0.7376218 -0.73244536 -1.5060902 -0.11090881 -0.7803938 -0.09536511 -0.484976
-1.0196943 -0.9250907 -0.22707713 -0.6597674 -0.5882707 -1.016568 0.067703515 -0.13510779

extractor.0.bias f4 [32]
00000000: 896c 9b40 8e27 cebe ccd6 b43d 779c b63f
00000010: c071 a83f b192 3f3e 60d0 0c40 2ee3 2abf
00000020: baf6 f53e 0e0f 02bf 784a 3640 2ceb 9bbe
00000030: 6dde 7d3f 54af 19bf c855 c43f efe3 0340
00000040: 9e2f fdbe 68d1 a03f 85e5 bc3e fe4f 0abf
00000050: 7356 e13f 9ecc ef3e be4d a3bc 2f9c 483f
00000060: be6d 803f 4482 7e40 b79e 1240 780a 00be
00000070: fcae ce3f 0bfc f03f 5069 2740 8206 11bf
4.856999 -0.40264553 0.08830032 1.4266499 1.3159714 0.18708302 2.2002182 -0.667529
0.480398 -0.5080422 2.8482952 -0.3045286 0.9916752 -0.60033154 1.5338678 2.060787
-0.49450392 1.2563906 0.3689386 -0.5402831 1.7604507 0.46835798 -0.019934531 0.7836332
1.0033491 3.9767008 2.2909372 -0.12503994 1.6147151 1.8826917 2.6158028 -0.56650555

classifier.0.weight f4 [4, 32]
00000000: 34eb 51c0 b308 b2bc 4eb1 33be 8001 5c3e
00000010: f2eb b1be 8088 343e 9dea 3ebf 1cb6 f83e
00000020: a4a4 443e c874 d3bd 506f adbf 02d7 9bbe
00000030: 4b96 ae3f ee35 6cbf 7158 10bf 9eab 36bf
00000040: cd0e 03bd 4e36 8a3f 3dba c13e 447c 97bd
00000050: efd9 3cbf 3d47 1a3f e733 a73d af51 343e
00000060: 13e1 73be b250 3ec0 23dc 8fbf efbe c23c
00000070: 4e8a 01bf da42 6ebf 6beb 41bf f480 9fbd
00000080: ed09 1ec0 ecd9 f4bd 5b58 79bd 2cf1 72bf
00000090: 8201 2cbe 92ed 743e 8908 f7be aa3c a33d
000000a0: 20a4 8c3e 2a90 003e 7a0e 2abf 93f4 94be
000000b0: 0513 1d3d 6c43 23bf c79d b63d 8567 c5be
000000c0: 1f5b 07be 083f 0ebf 87b0 203e 30be 463c
000000d0: d661 48be 0fd3 c93e 60b3 cebd 2ffb 743e
000000e0: 78ea f6bd c054 35c0 e217 0cbe 918b 82be
000000f0: 70b1 c9be 5534 48be 2dff e0bf 5ba1 d6bd
00000100: d7e4 3ec0 3022 2ebe 215c 50be 66d6 9bbe
00000110: 381f 9cbe 377c 8a3d 3d62 07bf 2875 cc3e
00000120: 0631 a5bd 8a6a 0d3d b5f6 84bf 558b 8cbe
00000130: d1bc 963e 645c 33bf 5b08 07bf 5a9f 3ebf
00000140: c5db 95bc 582c 203f dfe5 6b3e 984c 6f3d
00000150: a9c2 c4be fd8b 0c3e 0910 aabd 7032 e63b
00000160: 2c3a 82bd f410 30c0 f308 0dbf d269 953d
00000170: 6f2c 00bf 1fab f4be 52cd 5fbf ad3f 0bbe
00000180: 5472 5fc0 1dc5 e6bd c5fd f7be c4de 84bd
00000190: 9345 483e 2d18 1f3d 6418 4dbf d272 dabf
000001a0: 8867 e5bd 81a7 ff3b 244e 9bbf fab5 51be
000001b0: d8ee 283f 2626 243f 191f e2be 2d4f 1abf
000001c0: 8c09 20be aace 933f 4f65 0a3d 9e84 80bd
000001d0: 2536 0cbf 72e7 abbc b0fc d93c 6266 2e3d
000001e0: 4030 dfba 58b9 4ac0 5d11 86bf 7de7 e83e
000001f0: dc6e 06bf fc12 56bf e121 afbf 1b5e e0bc
-3.2799807 -0.021732664 -0.17548105 0.21484947 -0.34750324 0.17630196 -0.7457674 0.48576438
0.1920343 -0.10325009 -1.3549595 -0.30437475 1.3639616 -0.9226979 -0.5638495 -0.7135562
-0.031996537 1.0797822 0.378374 -0.07396749 -0.7377004 0.6026495 0.081641965 0.17609285
-0.23816328 -2.9736753 -1.1239055 0.023772685 -0.5060166 -0.9307076 -0.75749844 -0.07788268
-2.4693558 -0.11955628 -0.060875278 -0.9489925 -0.1679745 0.23918751 -0.482487 0.07970555
0.27468967 0.12554994 -0.6642834 -0.29092845 0.038348217 -0.6377475 0.089168124 -0.38555542
-0.13218354 -0.5556493 0.1569234 0.012130305 -0.19568571 0.39418837 -0.10092807 0.23923944
-0.1205644 -2.8332977 -0.13680986 -0.25497106 -0.39393187 -0.19551213 -1.7577873 -0.10479995
-2.9827173 -0.17005229 -0.20347644 -0.3043701 -0.30492568 0.06761973 -0.52884275 0.39933133
-0.08065991 0.03452543 -1.0387789 -0.27450052 0.2944093 -0.7006285 -0.52747124 -0.744619
-0.01829327 0.62567663 0.23036908 0.058422655 -0.38429764 0.13725276 -0.0830384 0.0070250556
-0.06358752 -2.7510347 -0.5509178 0.07295574 -0.500678 -0.47786805 -0.8742267 -0.13598509
-3.491353 -0.11268065 -0.48435798 -0.06487802 0.1955779 0.038841415 -0.8011534 -1.706629
-0.11201388 0.0078019504 -1.2133222 -0.20479575 0.65989447 0.6412071 -0.4416435 -0.6027706
-0.15628642 1.1547444 0.03378802 -0.06275295 -0.5477012 -0.020984385 0.026609749 0.04257811
-0.001702793 -3.1675625 -1.0474049 0.45489112 -0.5251291 -0.8362272 -1.3682214 -0.027388623

classifier.0.bias f4 [4]
00000000: b7d4 46c0 9cb8 38c0 a195 12c0 c2b9 43c0
-3.106733 -2.8862677 -2.2903826 -3.0582128
