Gridworld_OTDD/envs/policy_models/SAC/set_stc/iter_0/model_656.pth (torch, 14301 bytes, 12 tensors)

net.0.weight f4 [32, 2]
000000 66 55 0f 3f e5 3d 82 bd fb 5c 03 be 10 3b f7 be
       0.5598968 -0.06359462 -0.12828438 -0.4828725
000010 72 47 27 bf 7f 05 e0 3d 0f dd ca 3d c6 8b d7 3e
       -0.6534339 0.10938548 0.09905445 0.42098826
000020 7b a6 e7 bd c6 d8 b7 3e 6e cc 59 bc e5 84 9f be
       -0.113110505 0.35907573 -0.013293369 -0.31156078
000030 cf cd 2c 3f 79 66 08 bf 37 fe 76 be 13 6a ea 3e
       0.6750154 -0.5328136 -0.24120413 0.45784053
000040 98 85 1d bf 79 a1 a0 3e 75 27 97 be b2 26 aa be
       -0.6153197 0.31373194 -0.2952229 -0.33232647
000050 56 35 c7 3d 8a 01 0d 3f 04 ff 1f bf ed b2 49 be
       0.0972697 0.55080473 -0.624985 -0.19697161
000060 2a 70 46 3e 5f 83 9f be 50 7c 5c be f2 5b 25 3f
       0.19378725 -0.31154916 -0.21531796 0.6459342
000070 ad f8 96 be ae 45 ba 3e 7d 66 ac 3e c7 5c d4 3e
       -0.294866 0.36381286 0.33671942 0.41477033
000080 d3 df 6b 3e 55 d5 51 3e 84 0c 2b 3e 1b b8 99 3e
       0.23034601 0.20491536 0.16703993 0.30023274
000090 e6 c5 00 3f ee 9d 01 bf 4f 3f 0f 3e 49 65 19 be
       0.5030197 -0.50631607 0.13988994 -0.14980043
0000a0 cc e9 af be 43 13 eb be 42 56 93 3e 4b 7c 2d bf
       -0.3435806 -0.45913133 0.28776747 -0.6776778
0000b0 77 25 31 3f b6 2b 30 3e ff 5f 04 bf 8d e0 33 bf
       0.6919779 0.17204174 -0.5170898 -0.7026451
0000c0 cb 69 80 be a8 59 c8 3e 2c 70 10 bf 0a 5c de 3d
       -0.25080714 0.39130902 -0.5642116 0.10857399
0000d0 cd 6c 22 bf 01 4a 17 3d 0a 39 e8 be e1 4e 08 bf
       -0.63447267 0.03693581 -0.45356017 -0.5324536
0000e0 ca c2 c5 3e 85 77 94 3e e3 22 e2 be 9d 37 a9 3e
       0.38625175 0.28997436 -0.4416724 0.33050242
0000f0 da ed 83 be d1 ea 14 3f dc 70 d3 be cd 41 ba bd
       -0.25767404 0.581708 -0.41297042 -0.09094582

net.0.bias f4 [32]
000000 a7 f3 24 bf f0 bf 99 3e d8 3f 20 3f b8 35 70 bd
       -0.64434284 0.3002925 0.6259742 -0.05864498
000010 f1 19 34 3f 20 de 5a be cb b6 1f bf 48 bb 40 be
       0.70352083 -0.21373796 -0.62388295 -0.18821442
000020 fb 6f 19 be 1f df 0f 3f bf 29 d8 3e e6 bd 15 3f
       -0.14984123 0.5619983 0.4221935 0.5849289
000030 0a f6 11 3e 15 a8 e5 bd e4 0c 27 bf e7 b8 c7 3e
       0.14254013 -0.112137 -0.65254045 0.39008257
000040 57 3c fe be 2c 4f 20 be 97 1e 10 3f 5a e2 28 3f
       -0.4965541 -0.15655202 0.56296676 0.65970385
000050 cf 9d 43 be f1 76 36 be c0 b1 4e 3e d3 0e 33 bf
       -0.19103168 -0.1781881 0.20184994 -0.69944495
000060 de 81 41 3e 3a 0d e9 be d3 6e bc be b4 9f a9 3e
       0.18897197 -0.45517904 -0.36803302 0.33129656
000070 98 fb ec 3e 8a 87 3e be 8b 27 4c 3e 6c 23 bd 3e
       0.462857 -0.18606392 0.1993696 0.36941087

net.2.weight f4 [32, 32]
000000 1c f7 1c bd b7 c7 e5 3d 3f e4 cd bd bb 1f 30 be
       -0.0383216 0.11219733 -0.100533 -0.17199604
000010 31 12 a7 3d e4 51 83 3c 1d 5e 1b 3e 9d 69 cc bb
       0.081577666 0.01603026 0.1517262 -0.006238176
000020 86 e4 bc 3d a6 f9 ba bc 4f 11 c9 bc 4f dc 67 3d
       0.09223275 -0.02282412 -0.024544386 0.056606587
000030 a3 86 b3 3d ff 26 13 3e fd 5b 53 bc 69 f9 a6 bd
       0.08765914 0.14370345 -0.01290035 -0.0815304
000040 8b 1d 31 bc 27 94 8a bd 8f f9 cf 3d 2b 4b 20 be
       -0.010810266 -0.06766539 0.101550214 -0.15653674
000050 e1 0f 93 bd 3a 3e 19 3e d2 bd 10 3e 5d e2 16 3e
       -0.07180763 0.14965144 0.1413491 0.14734788
000060 97 45 0c be c1 bc 0e be da 3f 7e bd e5 29 d7 bd
       -0.13698421 -0.13939191 -0.062072612 -0.105060376
000070 2a 96 d8 3d 8a 3d af bd de f9 b0 3d 04 85 95 3d
       0.105755165 -0.085566595 0.086414084 0.07300761
000080 65 e6 ff 3d 9a b9 2d be d1 84 9b 3d 2a 8e c3 bd
       0.12495116 -0.16965333 0.07593692 -0.095486
000090 21 f7 bc bd 0f 13 0e be 59 b9 b3 bd b0 3d 95 3d
       -0.092268236 -0.13874458 -0.08775587 0.072871566
0000a0 d6 2f 3a bd a2 4c ee 3d 56 0f 03 3e da da 24 3d
       -0.045455776 0.1163571 0.12798819 0.040247776
0000b0 8a 08 2b bd b8 13 9e 3c 48 72 0e 3e 84 f4 15 3e
       -0.04175619 0.019296512 0.13910782 0.14644057
0000c0 87 ee 26 3c 7d 43 6b 3d 30 2d ec 3d 65 92 06 3d
       0.010188705 0.05743741 0.11532056 0.032854456
0000d0 8b 7a 0a be 52 27 37 3d cc 8b ca bd 26 1e 32 3e
       -0.13523309 0.044715233 -0.098899454 0.17394313
0000e0 36 c7 92 bd 7d 4a db bd dd ed b3 bc 3b e3 01 bd
       -0.07166903 -0.10707567 -0.021964008 -0.031710844
0000f0 a2 68 03 3e 0c 56 18 3e 65 a6 b2 bd 3a 9a 27 be
       0.12832883 0.14876574 -0.087231435 -0.16367427
000100 51 ed dc 3c a9 ee 0d 3d 2e 65 af bd d1 14 63 3d
       0.02696863 0.034651432 -0.0856422 0.055439774
000110 ea 39 5b 3c 5c 8c 39 3d dc 6d 36 3d b0 49 ae 3d
       0.013380507 0.045299873 0.044538364 0.085101485
000120 b9 1a 55 bd d8 3a 46 3d 23 eb fa bd d1 b3 2c be
       -0.052027438 0.04839596 -0.1225188 -0.1686547
000130 1c 2c 0b be de 50 f8 bd 4c e3 4d 3c 23 78 00 3e
       -0.13591045 -0.12124799 0.012566399 0.12545829
000140 5f 6f 14 be 2a a4 5e 3c 54 5c 51 3d 5d fc 20 3e
       -0.1449561 0.013588944 0.05111344 0.15721269
000150 a4 bb e7 bd c4 29 2c be b7 e9 4b bd 29 64 cf bd
       -0.113150865 -0.16812807 -0.049783435 -0.10126526
000160 35 71 52 bd ee c6 69 bd 76 45 b9 bd 7c e2 a0 bd
       -0.051377494 -0.05707448 -0.09046452 -0.078556985
000170 9d 83 0c 3e aa 9a d1 3d 05 5f 1b 3d 5b ed 87 bd
       0.13722081 0.10234578 0.037932415 -0.06637069
000180 c7 2b 28 be 6f 54 21 be 6e a1 87 3d 49 ba c0 bc
       -0.1642295 -0.15754865 0.06622587 -0.023526328
000190 b7 bb 8d bd a2 70 34 3c 49 22 00 3d aa 09 2e 3e
       -0.069205694 0.011013182 0.031282697 0.16995874
0001a0 6b 9f 2b 3e 50 22 e2 3d 79 32 34 bd 14 74 c1 3c
       0.16760032 0.11041701 -0.043993447 0.02361492
0001b0 18 dc 14 3e b8 2f cc bc a3 9f 2b 3c d5 3d ae 3d
       0.14537084 -0.024925098 0.010475072 0.08507887
0001c0 53 40 c4 3d cc c9 ab bb b6 5b 01 be 5d ff 2f bd
       0.09582581 -0.005242562 -0.12632641 -0.042968143
0001d0 32 06 e8 bd 8d 52 d1 3d 5f cb 3f 3c f0 f6 09 3e
       -0.11329307 0.102208234 0.011706202 0.13473105
0001e0 57 6a 5d 3d 0e 55 1b 3d 3b 2b 1c 3e 4f 87 03 be
       0.05405649 0.03792291 0.15250866 -0.12844585
0001f0 8e 8c dc 3d 3c 59 92 3d 08 a2 a5 bd 35 94 b9 bd
       0.10768996 0.07145926 -0.08087546 -0.090614714
000200 f3 56 db 3c 17 61 3a bd 1a a3 e5 bd 81 e0 1c 3e
       0.026774859 -0.04550275 -0.1121275 0.15320016
000210 9f d0 4e bc 99 77 66 bd 58 ac 1e 3e 12 9b bf bc
       -0.012622981 -0.0562664 0.15495431 -0.023389373
000220 6f 09 16 3e 46 32 97 3c 9f 54 09 3e 63 1e de 3c
       0.14652036 0.01845659 0.13411187 0.027114099
000230 6b 8e 2a 3e 6a be f3 3d 77 b8 c0 3d d2 e9 a6 bd
       0.1665589 0.11901553 0.09410184 -0.081500664
000240 6b e5 f7 3b b8 8d 09 3e 80 c8 18 3e 5b 50 0c 3e
       0.0075651905 0.13432968 0.14920235 0.13702528
000250 ab fb 5a bd 4d 6f 16 be cd 4d 29 bd df 83 b6 3d
       -0.053462666 -0.14690895 -0.041333962 0.08911871
000260 33 b0 64 ba 9b 0b 0d be 78 fd 6d bc 3a 70 a5 3d
       -0.00087237655 -0.13773958 -0.014525764 0.08078046
000270 c7 f9 13 be 54 fc 02 bc c2 7f 2a 3e ff b2 ff bc
       -0.14450751 -0.00799473 0.16650298 -0.031213282
000280 ea 9b 27 3e ea f4 65 3d 31 91 84 3d d0 f2 7f bc
       0.1636807 0.05614177 0.064730056 -0.015621856
000290 2f 0a 12 3e 76 62 ff bd 9e 58 09 bd 00 a5 ac ba
       0.14261697 -0.12469952 -0.033531778 -0.0013171732
0002a0 77 6e 2f 3e cd ac 4e 3d 88 c4 93 bc a6 1e b5 3d
       0.17131983 0.050457764 -0.01803805 0.08843736
0002b0 3e 40 14 be 5a f0 63 3d 4d 72 8c 3c 03 b6 07 be
       -0.14477631 0.05564914 0.017144347 -0.13253026
0002c0 a0 88 9c 3d 4e 8f 07 3e 05 2e c5 bd 7c cb d8 bd
       0.07643247 0.1323826 -0.09627918 -0.105856866
0002d0 8e 17 a2 bd 9e ef 17 be 67 0b 7c bc 9e 77 b8 3d
       -0.07914649 -0.148375 -0.015383578 0.0900719
0002e0 4b c4 2e be f3 55 69 bd f6 7d f5 bd be 16 06 bd
       -0.17067067 -0.056966733 -0.11986916 -0.032736532
0002f0 61 cb 15 be 79 c4 ab 3d 17 e4 0a 3e 4e 9a 63 bc
       -0.14628364 0.083870836 0.13563572 -0.01389177
000300 87 62 e0 bd 2d 8f dd 3d 73 b1 02 be a2 12 4d bd
       -0.109562926 0.10818324 -0.12763004 -0.050066598
000310 27 67 c5 bc 70 75 43 bc c6 75 f9 3d 73 55 78 bd
       -0.024097038 -0.011929855 0.121806666 -0.060628366
000320 fd 73 aa 3d 48 b7 07 be 01 74 3a 3c af 3b bb bd
       0.08322904 -0.1325351 0.011380197 -0.09142243
000330 90 5a 85 bd dd 87 22 bd 7b 88 1a 3d 2a e3 66 3d
       -0.06511414 -0.03968035 0.037727814 0.056368984
000340 6f 40 5b bd 9b 96 7e bd 43 70 2e 3e 1b 64 4d bd
       -0.053528246 -0.062155347 0.17035012 -0.050144296
000350 e1 aa 80 3d a3 64 7b 3d df 2e 1f 3e 0d fb ba 3d
       0.062825926 0.06137527 0.15545224 0.091299154
000360 cf f2 00 be 65 a2 27 3e 8a 47 e1 bc 4c 1f 3c bd
       -0.12592624 0.16370542 -0.027499933 -0.045928285
000370 f1 c9 cb 3d 90 24 7a bd 4a 60 0f 3e f5 50 a5 3c
       0.09950627 -0.061070025 0.14001575 0.020180205
000380 df 0e 13 3d 87 3e 1b be d5 87 d0 bd e2 8b ab 3d
       0.035902854 -0.15160571 -0.10182158 0.0837629
000390 e3 64 18 be 1b 5b 24 3e ac aa 2f 3e 6b 70 04 be
       -0.14882235 0.16050379 0.1715495 -0.12933509
0003a0 45 e5 17 be 7d b0 21 3e 79 82 20 be 2d ea e3 3d
       -0.14833553 0.15789981 -0.15674771 0.1112865
0003b0 84 6a d5 3c 12 0a 79 bc 4d 74 d4 3d bd 30 a1 3d
       0.026051767 -0.015200155 0.10373745 0.07870624
0003c0 cb b0 a7 3d 2b eb 33 3c 13 b9 8b 3d 54 09 86 bc
       0.081880175 0.010981361 0.068224095 -0.01636187
0003d0 fd 27 09 be 5d 45 db 3d ac df f7 3d 83 15 ca 3d
       -0.1339416 0.10706589 0.12103209 0.09867384
0003e0 b6 4b ab bd 26 e8 ea 3d e5 96 dc bd 3e 6e dd 3d
       -0.0836405 0.1147006 -0.10770968 0.10812043
0003f0 15 35 cd bb d5 d1 db bd 01 c1 ba 3d ae 2d 9f bd
       -0.0062624314 -0.10733382 0.09118844 -0.077723846

net.2.bias f4 [32]
000000 60 26 58 3c cf 8b 70 3c a7 15 be 3d 51 1a 9e 3d
       0.013192743 0.0146817705 0.092814736 0.07719863
000010 79 fd 00 3e 6a a9 03 be 6a 32 0d bc 94 4f b4 bc
       0.12596692 -0.12857595 -0.008617977 -0.022010602
000020 40 27 01 3c 03 65 34 be 4d 26 a7 3c c0 22 ef 3d
       0.007882893 -0.17616658 0.020404005 0.1167655
000030 cc 1a ac 3d 1c d3 cb bd 78 4e e5 bd 39 b5 1f bd
       0.084035486 -0.09952375 -0.11196607 -0.038991187
000040 11 c8 b1 bd 8c 50 aa 3d 71 e0 56 bd 15 5c d8 3d
       -0.08680738 0.08316144 -0.052460138 0.10564438
000050 90 da 00 3e a3 45 17 be ac 99 33 bd e5 41 8b 3d
       0.12583375 -0.14772658 -0.043847725 0.06799678
000060 23 b0 0d be 3e e9 08 be e8 c7 43 3c c6 bc c8 bd
       -0.13836722 -0.13370225 0.011949517 -0.09801631
000070 26 2e a2 3d 2d bf 9f 3d 6a f2 81 3c 0f 05 c8 bd
       0.07918958 0.07800136 0.015862662 -0.0976659

net.4.weight f4 [4, 32]
000000 f4 49 1c 3e 25 a9 69 3d 3a a5 05 be c2 c9 09 3e
       0.15262586 0.057046074 -0.1305131 0.13455871
000010 43 6f 9b bd dc 49 91 bc bd 70 1c 3e b2 5c e8 bd
       -0.07589581 -0.017735414 0.15277381 -0.11345805
000020 f5 f2 0f bd 22 86 f3 3d 03 6e fa bb 32 eb a5 3b
       -0.03514381 0.11890818 -0.007642509 0.005063438
000030 05 2e d0 bd c7 ed ae 3d 39 f2 0b 3e c3 f0 14 3e
       -0.101650275 0.08541446 0.1366662 0.14544968
000040 77 47 b2 bd 06 af fa 3c eb 5f 0a be 3d d8 25 3e
       -0.08705037 0.030601036 -0.13513152 0.1619577
000050 49 58 d1 3c af 2d 19 be 4d ca c1 3c f4 75 df bc
       0.025554793 -0.14958833 0.023656035 -0.027277924
000060 85 ab 24 3d 76 7f f3 bd d9 31 1b be fc 66 b5 3d
       0.040202636 -0.118895456 -0.15155734 0.08857533
000070 95 3d d1 3d 2d 08 22 3e b9 f2 be bd 53 6c a5 bd
       0.10216824 0.15823431 -0.093236394 -0.08077302
000080 c3 10 00 be a9 df a1 bd c9 d1 9f bd a3 a9 c0 3d
       -0.12506394 -0.07903988 -0.07803685 0.09407356
000090 48 82 08 be fe 4f 5f bc 95 1e 0b 3e 9f 7a 19 be
       -0.13330948 -0.0136299115 0.13585885 -0.14988182
0000a0 54 7a 1a 3e 96 ab b9 3c ba bc 7d 3d 05 35 d1 3c
       0.15085727 0.022664826 0.06194756 0.025537977
0000b0 f2 14 98 3c 50 7e 29 3e c7 bf 13 be d6 ba 2f be
       0.018564675 0.1655209 -0.14428626 -0.17161116
0000c0 ef cb 8b bd 0f 1c 79 3d 09 58 fc 3b 0f ac 8f 3d
       -0.068260066 0.060817774 0.0077009243 0.070152394
0000d0 62 35 d7 3d 13 8f 23 3e 6d c6 ae 3d 89 4d 14 3d
       0.10508229 0.15972547 0.085339405 0.036206756
0000e0 2d 39 8b bd 26 19 05 3e 40 14 33 3d 67 40 1d 3e
       -0.06798015 0.12997875 0.043720484 0.15356599
0000f0 23 be 13 be 63 82 a8 bd 34 c4 99 bd eb ee 34 be
       -0.14428 -0.08227994 -0.07508126 -0.17669265
000100 e1 95 6d bd 9d e4 11 3e dd e2 fa 3c 85 89 c4 bc
       -0.058004264 0.14247365 0.030625755 -0.023991356
000110 e0 50 0f be 04 8d 29 be f2 d4 14 3e 1f 63 58 3d
       -0.13995695 -0.165577 0.14534357 0.052828904
000120 b1 6e cf bd 36 51 d6 3d 10 f0 a0 bc 08 09 8c 3c
       -0.101285346 0.104647085 -0.01964572 0.01709415
000130 1d d3 ad bc b0 0e 21 bb 51 f0 db 3d b9 19 12 3e
       -0.02121883 -0.0024575405 0.10739196 0.14267625
000140 ba 71 e0 bc 57 15 90 3d 7f 8a 15 3d 7d e8 20 3e
       -0.027397979 0.0703532 0.036509033 0.15713687
000150 e1 7a 16 be 28 ab 03 be 79 fe 8a bd c1 9c fd 3d
       -0.14695312 -0.1285826 -0.06786818 0.12383414
000160 77 67 92 bd ed ee 03 3e 6a f8 2b 3e 83 c7 ba bd
       -0.071486406 0.12884112 0.16793981 -0.09120085
000170 93 3d 82 bd 10 76 16 be 1a 1e e6 bd 67 24 d3 3d
       -0.063594006 -0.14693475 -0.1123621 0.103096776
000180 5b 9b 95 bd 2e 6a 2b 3e dd f8 96 3c ab 9a ee 3d
       -0.07305022 0.16739723 0.018429214 0.11650594
000190 5d e0 0a be 7f a7 5b 3d 98 48 12 3d e7 f2 ee bd
       -0.1356215 0.053626534 0.035713762 -0.11667424
0001a0 1c 87 2a be b6 3f 1f 3c 3f 37 fe 3d 80 0a b8 3d
       -0.16653103 0.00971978 0.12412881 0.08986378
0001b0 95 3a 28 bd 89 67 0a be 03 eb a9 3d 2a 25 10 3d
       -0.041071493 -0.13516058 0.08296778 0.035191692
0001c0 9c 0c 16 be 42 73 f4 3c a8 c4 dc 3d 37 52 d8 bd
       -0.14653248 0.029840115 0.10779697 -0.10562556
0001d0 38 fa 07 be 4f fc c7 3d 57 37 81 bb 1d ce 88 bc
       -0.13279045 0.09764921 -0.0039433646 -0.016699845
0001e0 fa 15 65 3d 9f a4 fb 3d 42 0c 22 be bd 99 f0 bd
       0.05592916 0.12287258 -0.15824988 -0.11748073
0001f0 f9 b3 ae bc 21 83 b0 3b 0a 7f 1b be ff 81 f0 bc
       -0.021326052 0.0053867255 -0.1518518 -0.029358862

net.4.bias f4 [4]
000000 c7 31 82 bd e0 ee 1d 3e f6 ca a4 bc ea fb 16 3d
       -0.063571505 0.15423155 -0.02011631 0.036861338

extractor.0.weight f4 [32, 2]
000000 b3 d6 1e 3f 27 a7 f1 be 44 3f fe 3e fd af e3 bd
       0.62046355 -0.4719784 0.49657643 -0.111175515
000010 07 28 0a bf ae 39 b6 be d1 10 95 be fb 89 c4 3e
       -0.53967327 -0.3559088 -0.29114392 0.3838652
000020 88 65 22 3f e1 71 97 be eb 93 74 be aa 20 8e bd
       0.63436174 -0.2957907 -0.23884551 -0.06939824
000030 c5 20 c0 3e 17 95 c9 3e da 8b 24 bf 89 2f 23 bf
       0.37525 0.3937156 -0.64275897 -0.6374441
000040 c3 96 81 3e 97 32 ab 3e 68 0c c3 bc f1 6d ef 3e
       0.25310335 0.33437034 -0.023809627 0.46763566
000050 ff ee fb 3e 92 fa 2b bf fd 86 b5 3e f6 72 17 3e
       0.49205777 -0.67179215 0.3545455 0.14789948
000060 6a ec 97 3d de c8 76 3e 49 90 a2 3e ad 2d 1e 3f
       0.07418139 0.24100062 0.31750706 0.61788446
000070 08 5d af 3e 6b c3 5f be 25 5f 28 bf cb 7b 18 bf
       0.34250665 -0.2185189 -0.6577018 -0.59563893
000080 65 db 27 bd d2 2b 19 be 86 f3 c2 3c 92 ce f0 3e
       -0.040980715 -0.14958122 0.023797762 0.470326
000090 a5 01 44 3e d5 89 c1 be b5 51 80 3e 22 2e 20 bf
       0.19141252 -0.3780047 0.25062338 -0.62570393
0000a0 1c 6a 0a bf 83 ce 88 bd b5 d6 e7 3e 2e d5 e4 3e
       -0.5406816 -0.06680014 0.45280996 0.44693893
0000b0 17 bf f3 be f5 ad 05 be a8 f8 b6 3e d6 72 a0 3e
       -0.47606727 -0.1305464 0.35736585 0.31337613
0000c0 09 90 32 3e 06 40 39 3f 7e d6 e8 be dc 8f c2 be
       0.17437758 0.72363317 -0.45476145 -0.3800038
0000d0 9a 73 7b 3d 13 18 1a 3e 70 23 4a bd e1 bf 14 bf
       0.061389543 0.15048246 -0.049350202 -0.58105284
0000e0 53 2e 09 be b1 d3 10 bf 07 3c 1e bc 8b 76 28 bf
       -0.13396578 -0.56573015 -0.009657866 -0.6580588
0000f0 c5 32 42 3e 5e 0d 80 be a6 29 1e bf dd fd f9 3c
       0.1896468 -0.25010198 -0.617823 0.03051656

extractor.0.bias f4 [32]
000000 61 32 97 3e 54 5f 4c be 7f e8 dd 3d 1f b9 25 bf
       0.29530624 -0.1995824 0.10835361 -0.647356
000010 2b 0d e0 be 45 1f 12 bf a4 63 c4 be 4d 57 0d 3e
       -0.43760046 -0.57078964 -0.3835727 0.13802834
000020 91 5b 28 be 5d 5c 1d 3f 17 62 49 3e 32 4c 03 bf
       -0.1644118 0.6146906 0.19666325 -0.5128814
000030 44 c6 83 3c 50 d3 26 bf fc c6 15 bf 75 7c 30 3f
       0.016085751 -0.6516619 -0.5850675 0.68939906
000040 f4 1e c2 3e 01 3c 63 be 6c 34 fb 3e 04 3c 77 3e
       0.3791424 -0.22190858 0.49063432 0.24143988
000050 9e 13 dc bd b2 5d 43 be 1b 41 07 bf 34 8a 12 3f
       -0.10745929 -0.1907871 -0.5283372 0.5724213
000060 d0 17 29 3f 70 a0 b8 3e fe bd ad 3e 2d ca 22 3f
       0.6605196 0.36059904 0.33934015 0.63589746
000070 8c 93 0a 3d 04 aa 5f be b3 5c 34 3f 38 63 0f 3f
       0.033832118 -0.218422 0.7045395 0.5601077

extractor.2.weight f4 [32, 32]
000000 7c ad 45 3d f1 4a a5 bd aa 9c ec 3d 52 74 ce 3d
       0.04826115 -0.080709346 0.11553319 0.1008078
000010 f4 1b 44 3e 96 58 b1 3d 74 a2 a9 3d 8b 7c b5 bd
       0.19151288 0.086594746 0.082829386 -0.08861645
000020 3f aa aa bd 18 25 a9 3d f2 df 11 3e 2c cb 08 be
       -0.08333253 0.08259028 0.14245585 -0.13358754
000030 50 79 c8 bd 5e 08 3c bc 9f c2 2b 3e 36 4b f1 bc
       -0.097887635 -0.011476604 0.16773461 -0.029454809
000040 b8 60 ea 3c 04 e8 a5 ba 6d 62 c3 bd c4 7d e0 3d
       0.028610572 -0.0012657647 -0.095402576 0.10961488
000050 29 61 b1 3b 6d 21 9f 3d 2c c2 ae bd 23 40 70 3d
       0.0054131937 0.07770047 -0.08533129 0.058654916
000060 6a 26 d9 bc 79 40 db 3d ea b9 10 be 1b 0c 8e 3d
       -0.026507575 0.107056566 -0.1413342 0.06935903
000070 51 ef c5 bd ef 9d b6 bd 7b 36 d9 bd ca 86 26 be
       -0.096647866 -0.08916842 -0.106060944 -0.16262355
000080 c7 b4 27 be 51 6e 29 3e c6 c7 87 3c ae 5b 4a 3d
       -0.16377555 0.16545989 0.016574752 0.04940384
000090 71 d3 14 bc ce 9d 98 3d 8b 77 ca bc 3e e5 15 bd
       -0.009083615 0.07451974 -0.024715206 -0.036595576
0000a0 89 60 75 bd d7 ff bb bd dd ef bf bd 73 e8 b9 bd
       -0.059906516 -0.09179657 -0.09371922 -0.09077539
0000b0 a1 76 bb 3a 4b 77 c3 bc 80 85 3b bd c6 4c fe 3d
       0.0014302322 -0.023860594 -0.045781612 0.12416987
0000c0 1b b6 a0 bd 7c 9b c0 bc aa 6f 0e bd 13 fe b9 3d
       -0.07847234 -0.02351164 -0.03477446 0.09081664
0000d0 8d c4 7d bd 57 3c c5 bd 6a e0 d1 3d 7a d9 80 bd
       -0.061955024 -0.096306495 0.10247882 -0.0629148
0000e0 87 fc 79 3d e1 e2 96 bd c8 0f 35 be be a7 52 bc
       0.061031844 -0.073674925 -0.17681801 -0.012857376
0000f0 59 dc 81 3d 7d 52 df bd d9 ad 9a 3d a4 42 f9 3c
       0.06340856 -0.10904405 0.0755269 0.030427285
000100 88 3a 28 be a3 bc 5c 3d 6b 9e 23 be 4b 67 bb bc
       -0.16428578 0.053890835 -0.159784 -0.022876402
000110 7f 21 29 3d 4e 47 09 3e e4 31 90 bd cf 42 ee bd
       0.04129171 0.13406107 -0.07040766 -0.116338365
000120 2a 94 93 bd e9 9f 1d 3d f7 bd fb bd 66 12 d0 bd
       -0.072059944 0.03848258 -0.12292092 -0.10159759
000130 6f fe cd bc 36 a3 f4 3b 54 db 54 3c 6e 47 4c bd
       -0.025145737 0.0074657453 0.012991745 -0.04987281
000140 71 bc 94 bd 2a d9 1d 3e 34 75 0f be 49 ff dd 3d
       -0.07262505 0.15414873 -0.14009553 0.108397074
000150 11 f4 8e bd 42 97 de 3b f5 d6 d7 3d ef f2 0e be
       -0.06980146 0.0067929337 0.10539047 -0.1395986
000160 02 13 38 ba 40 45 19 be 29 d0 c5 b9 70 16 0d 3d
       -0.00070218754 -0.14967823 -0.0003772986 0.034445226
000170 58 ae a0 3b bd d5 1f be 49 c6 2f 3d 74 11 1c be
       0.004903596 -0.15608878 0.04291371 -0.15241033
000180 38 e1 24 3e ad ae e9 ba 43 98 43 bd 00 99 1c bd
       0.16101539 -0.0017828547 -0.04775263 -0.03823185
000190 77 1e b4 bc 82 e2 fa 3c 0d d9 f9 3d 9b c8 be 3d
       -0.021987183 0.030625585 0.12199602 0.09315606
0001a0 fc 3a 3b 3d fc 9c bc bd 97 26 12 be 0d a2 f1 bd
       0.04571055 -0.0920963 -0.14272533 -0.11798487
0001b0 0d dd bd 3d 7a 2c 3a be cc e8 f1 bd 81 5f a6 3d
       0.09270678 -0.18181029 -0.118119806 0.08123685
0001c0 ad 61 3b bd ea 4b 10 be 20 44 80 3b a3 9d f9 bd
       -0.045747448 -0.14091459 0.003914371 -0.1218827
0001d0 46 d4 14 3e 27 f7 09 3e d9 21 02 be e4 42 f0 3d
       0.14534101 0.13473187 -0.12708224 0.117315084
0001e0 0f fb 20 be a3 46 5c 3d 87 cd b3 3d d5 1e a0 3c
       -0.15720771 0.053778302 0.087794356 0.019545952
0001f0 10 0f 08 bd 8e 59 0c bd a9 8f 3c be fb 8b 94 bc
       -0.03321749 -0.034265094 -0.18414177 -0.018133154
000200 85 8e 1a 3e f7 19 a9 bd d7 ea 14 bd e5 8b b0 bb
       0.1509343 -0.082569055 -0.036356773 -0.0053877705
000210 6e 87 1a 3d 6f 74 1d be 49 26 37 bd 95 be 04 3d
       0.037726812 -0.15376447 -0.044714246 0.032408316
000220 2e f6 10 3e cf 8c 40 bd f1 20 05 3d 77 a4 16 be
       0.1415641 -0.047009286 0.03250212 -0.14711176
000230 45 a8 eb 3c 79 d1 28 be aa 38 ed 3d 3a 28 57 3d
       0.02876676 -0.16486157 0.115830734 0.052528597
000240 2f 67 a2 3d 99 d8 fb bd 1e e7 eb bc 5d a0 c4 bc
       0.07929837 -0.12297172 -0.028796729 -0.024002248
000250 87 a7 a0 bd 69 92 80 bd 9b c0 ab 3d 0c 47 51 3d
       -0.07844453 -0.062779255 0.08386346 0.051093146
000260 6e d7 e0 3d 38 c4 8a bc ed 2d 3c bd 74 c4 f0 3d
       0.1097859 -0.016939268 -0.045942236 0.117562205
000270 90 ac e3 3d a8 68 1c 3e 87 a8 0f 3e 19 e3 52 bd
       0.11116898 0.15274298 0.14029132 -0.05148611
000280 6b 21 2b bd 34 89 b0 bd 04 f9 cb 3d 7e fb 1f 3e
       -0.041779917 -0.086199194 0.09959605 0.1562328
000290 4f 7d fd bc 3c 59 2a 3e 9a 5c dc bd 3e ba 94 bd
       -0.03094354 0.16635603 -0.1075985 -0.072620854
0002a0 2e 7d 0c be 17 41 65 bd 29 c9 9c 3d ab 03 0f 3e
       -0.13719627 -0.055970278 0.07655556 0.13966243
0002b0 1d 3d f3 bd 62 4e 8a 3c 3f 9d 45 bc 1a 58 8d bd
       -0.11876891 0.016883079 -0.012061416 -0.0690157
0002c0 18 8a 89 bd ea 5c 98 3d 7e 44 17 3e 12 d3 70 3d
       -0.067157924 0.07439597 0.14772221 0.058795042
0002d0 ad a4 ba 3d 32 d6 09 be e5 62 f6 bc 85 1c 19 be
       0.09113441 -0.13460615 -0.030076453 -0.14952286
0002e0 fa 13 02 3e 24 b0 1b bd 67 50 ae bc be 1a b8 3c
       0.12702933 -0.038009778 -0.021278573 0.02247369
0002f0 da b4 16 3d 2b 5d 55 ba 09 ae 83 bc 00 5b ac 3d
       0.036793567 -0.0008139188 -0.016074197 0.084157944
000300 4a 36 94 bd 0c 90 22 3e fb f7 26 3e cf ab 2a be
       -0.07236917 0.15875262 0.16305535 -0.16667102
000310 22 8c 9b bd ed ad 4e 3d 42 39 c3 3d de 8e 37 bd
       -0.075950876 0.050458837 0.095324054 -0.044813983
000320 ab 51 af bd 41 5a 1e be ba 92 b7 bd 6e 26 88 bd
       -0.08560499 -0.15464117 -0.08963533 -0.06647955
000330 45 5d 03 3d fa e1 2c 3e 50 c0 91 3d 65 8e 0d 3e
       0.03207137 0.16883078 0.07116759 0.1382385
000340 40 d5 80 bd 2e bf e4 3d b9 84 a3 bb 67 c2 e5 bd
       -0.06290674 0.11169277 -0.004990187 -0.1121872
000350 ee b1 1c 3e 18 dd 91 bd e8 71 0c 3c 72 20 10 be
       0.1530225 -0.071222484 0.008572079 -0.14074877
000360 5a 0e 37 bd 3b 4f 7a 3d 70 a4 7e 3c 51 34 a2 bc
       -0.04469142 0.061110716 0.015542135 -0.019800337
000370 5f 4e e7 bd af 2a 15 3e 79 55 03 be 60 ac 94 bc
       -0.11294245 0.14567064 -0.12825574 -0.018148601
000380 68 be ed 3d 0c 3f ef bd 4a 68 60 3d 39 44 2f bd
       0.11608583 -0.11681947 0.054786958 -0.04278967
000390 fa 4e 70 3c 7b 7e 2d 3e 82 0f ac 3c 83 9e 1b bc
       0.014667267 0.1694278 0.021003488 -0.009498241
0003a0 a2 ea 42 3c d6 18 ea 3d b9 17 09 be 58 93 0e 3e
       0.011896761 0.11430518 -0.13387956 0.13923395
0003b0 8a 10 1e bc e9 cb 88 3c d4 06 60 be e0 c0 8d 3b
       -0.009647498 0.016698794 -0.21877605 0.004325971
0003c0 05 d0 32 bc 7a 85 36 3d 2a 95 ae bd 11 37 74 be
       -0.0109138535 0.044560887 -0.085245445 -0.23849131
0003d0 92 56 a7 bd ab f3 9c 3c 49 d1 c1 bd 07 b9 04 3e
       -0.08170809 0.019159159 -0.09463746 0.12961207
0003e0 94 af 10 3e c6 58 60 3b 2d 20 25 3e ba 27 cd bd
       0.14129478 0.00342326 0.16125555 -0.10017343
0003f0 4a 0c 14 be 92 45 2c be ca 64 26 3b 10 48 9f bc
       -0.14457813 -0.16823414 0.0025389665 -0.019443542

extractor.2.bias f4 [32]
000000 46 db 8b 3d c7 fc 4b 3d 51 62 ea 3d a3 c8 e9 b9
       0.068289325 0.049801614 0.114445336 -0.0004459071
000010 0b ac 85 bc 16 20 13 bd 70 33 15 3e 3a 42 e0 3c
       -0.016317388 -0.03591927 0.14570403 0.02737533
000020 8f 0f d5 3d 0c 9a e5 3d 36 de 95 3d 1e 4e fd 3d
       0.10403358 0.11211023 0.07317774 0.12368415
000030 68 09 06 be ce 16 a2 3d d4 7b 56 3e be f4 0e be
       -0.13089526 0.07914506 0.20945674 -0.13960549
000040 05 61 d6 3b 12 f7 cb bd b4 73 7a bd 98 33 86 bd
       0.0065423273 -0.09959234 -0.0611455 -0.065528095
000050 e3 fe 82 bd 30 57 1e 3d 57 3a 3b 3e 92 6c 01 3e
       -0.06396272 0.038657367 0.18283974 0.12639073
000060 08 94 30 be 70 dc 04 3e a9 5c 08 3e 87 6d b3 3d
       -0.1724397 0.12974715 0.13316597 0.08761125
000070 d6 62 80 bc 2b bd 3a be fc f2 a1 3d 77 7f 02 be
       -0.015672129 -0.18236224 0.07907674 -0.12743936

classifier.0.weight f4 [4, 32]
000000 39 94 a7 3d f1 f2 0f 3d ea 20 d4 3b f3 49 cb bc
       0.08182568 0.035143796 0.00647365 -0.024815535
000010 f4 b0 cf 3d 96 e9 b3 bd 25 8d 6e bd 0e 60 b2 bd
       0.10141173 -0.08784787 -0.058240075 -0.08709727
000020 db ac 8a 3d 5c 74 c6 bd 1e 5b c9 bc 3d 5c 2c 3e
       0.06771251 -0.096901625 -0.02457958 0.16832061
000030 8d 62 29 be 65 58 ed 3d e0 19 29 3d 52 b9 f8 3d
       -0.165415 0.115891255 0.041284442 0.12144722
000040 2a f5 e0 bd 71 18 4e 3d 2f 18 d4 bc a2 07 8b bd
       -0.10984261 0.050316278 -0.025890438 -0.06788565
000050 77 76 59 be 04 93 72 3c 7a 49 40 3d 69 46 c6 3d
       -0.21236597 0.014805559 0.046945073 0.096813984
000060 ae 5f 32 be 54 4e f4 3c 7c 47 e1 bd 95 98 14 be
       -0.17419311 0.029822506 -0.10999963 -0.1451133
000070 74 b5 10 bc d9 2f ac 3d a7 db 1d be c8 8f 08 3e
       -0.008832324 0.08407564 -0.15415822 0.13336098
000080 e7 7d 1a 3e 4f 4a ef 3c 86 2b 0c be 21 2e 1a 3e
       0.1508709 0.029210238 -0.13688478 0.1505666
000090 6d d1 06 3e 78 31 43 3c 0d e7 fc 3b 56 15 92 3d
       0.13165827 0.01191365 0.007717973 0.07132976
0000a0 77 79 d9 3c 5f ee 14 3e 8d 9c 23 be 3a 34 e8 3d
       0.026547177 0.14544056 -0.15977688 0.113380864
0000b0 10 a4 78 3d ab 66 b1 bd 0a 30 07 be 6f 1e 9e bd
       0.060703337 -0.086621605 -0.13201919 -0.077206485
0000c0 25 36 dc 3d 9b c1 74 3d 51 dc 64 bc d8 65 d1 3d
       0.10752515 0.05975495 -0.013968543 0.10224503
0000d0 dd ef c6 bd 8b 55 96 3d 36 8f 42 be a6 a4 17 3d
       -0.09713719 0.07340535 -0.18999943 0.037022255
0000e0 a5 7f 21 be 67 a9 24 be 59 f3 21 be 1f ff 06 be
       -0.15771349 -0.16080247 -0.15815486 -0.13183258
0000f0 34 4f f0 3d 89 2b 9b 3d d6 85 d1 bb 6f 52 29 be
       0.11733857 0.07576663 -0.0063941283 -0.16535352
000100 d2 67 ae bc 19 fb 81 bd 61 69 a9 bd 81 3b 1e 3e
       -0.02128974 -0.06346721 -0.082720526 0.15452386
000110 1d d3 12 3c dc 90 c3 bd 6f 68 56 3d a6 ea e2 3d
       0.008961466 -0.09549114 0.05234569 0.11079912
000120 56 8b 1c 3e c4 1b 12 3e e7 28 ea 3c 04 5d 7a bd
       0.15287527 0.14268404 0.028583957 -0.061123863
000130 08 61 2f bd b8 a1 3b 3e f4 5b 05 3e 20 77 92 3d
       -0.042817146 0.1832341 0.13023359 0.071516275
000140 0d 16 5b 3d 7f c8 1e be ad 26 10 be 65 c5 46 3d
       0.053487826 -0.1550617 -0.14077254 0.048528094
000150 14 91 0d be 7c 21 02 3e 48 37 6c 3e 05 6c 01 3c
       -0.13824874 0.12708086 0.23067963 0.007899289
000160 6a 81 08 3d 69 2d 44 3e 4f ae 32 3d 24 90 1b 3e
       0.033326544 0.19157948 0.043623265 0.15191704
000170 04 c2 33 3d 08 87 a2 3d 44 b0 a9 bd bb ec a9 3b
       0.0438862 0.079359114 -0.08285573 0.005185691
000180 e9 00 35 bd 29 6f 9f bd ef ee 5b bc 06 ac fb 3d
       -0.04419032 -0.07784874 -0.013423665 0.1228867
000190 34 52 05 3d 81 5f 0d 3e 6d f3 45 3c 12 24 29 3e
       0.032549098 0.13805963 0.012081963 0.16517666
0001a0 70 10 44 3e cd a3 ab 3c 78 88 f9 bd f8 3c 1b be
       0.19146895 0.02095213 -0.121842325 -0.15159976
0001b0 0c 5f ed bd 14 c7 a1 39 6c ed 0e bd f0 fe 1e bd
       -0.115903944 0.00030856638 -0.034894392 -0.038817346
0001c0 11 41 1d be b4 dc a6 bc 13 92 88 bd 20 33 b0 bd
       -0.15356852 -0.020368911 -0.066684864 -0.08603501
0001d0 55 10 ba 3d 24 c4 cc 3d a7 3f 09 3e 09 b5 a1 bd
       0.09085146 0.09998348 0.13403188 -0.07895858
0001e0 42 87 a2 3d 82 90 f9 bc 0a b2 c5 3d 74 2b 12 bd
       0.07935955 -0.030464415 0.09653099 -0.03568597
0001f0 d5 68 f3 3d 8a 69 1e bd b1 9b 2a be e6 d0 b4 3d
       0.118852295 -0.03867487 -0.16660954 0.08828907

classifier.0.bias f4 [4]
000000 42 69 28 b9 e9 58 c3 3c 8b 60 b7 3d df d8 fb bc
       -0.0001606094 0.023846107 0.08953961 -0.03074306
