Gridworld_OTDD/envs/policy_models/SAC/set_stc/iter_0/model_342.pth (torch, 14301 bytes, 12 tensors)

net.0.weight f4 [32, 2]
000000 66 55 0f 3f e5 3d 82 bd fb 5c 03 be 10 3b f7 be
       0.5598968 -0.06359462 -0.12828438 -0.4828725
000010 72 47 27 bf 7f 05 e0 3d 0f dd ca 3d c6 8b d7 3e
       -0.6534339 0.10938548 0.09905445 0.42098826
000020 7b a6 e7 bd c6 d8 b7 3e 6e cc 59 bc e5 84 9f be
       -0.113110505 0.35907573 -0.013293369 -0.31156078
000030 cf cd 2c 3f 79 66 08 bf 37 fe 76 be 13 6a ea 3e
       0.6750154 -0.5328136 -0.24120413 0.45784053
000040 98 85 1d bf 79 a1 a0 3e 75 27 97 be b2 26 aa be
       -0.6153197 0.31373194 -0.2952229 -0.33232647
000050 56 35 c7 3d 8a 01 0d 3f 04 ff 1f bf ed b2 49 be
       0.0972697 0.55080473 -0.624985 -0.19697161
000060 2a 70 46 3e 5f 83 9f be 50 7c 5c be f2 5b 25 3f
       0.19378725 -0.31154916 -0.21531796 0.6459342
000070 ad f8 96 be ae 45 ba 3e 7d 66 ac 3e c7 5c d4 3e
       -0.294866 0.36381286 0.33671942 0.41477033
000080 d3 df 6b 3e 55 d5 51 3e 84 0c 2b 3e 1b b8 99 3e
       0.23034601 0.20491536 0.16703993 0.30023274
000090 e6 c5 00 3f ee 9d 01 bf 4f 3f 0f 3e 49 65 19 be
       0.5030197 -0.50631607 0.13988994 -0.14980043
0000a0 cc e9 af be 43 13 eb be 42 56 93 3e 4b 7c 2d bf
       -0.3435806 -0.45913133 0.28776747 -0.6776778
0000b0 77 25 31 3f b6 2b 30 3e ff 5f 04 bf 8d e0 33 bf
       0.6919779 0.17204174 -0.5170898 -0.7026451
0000c0 cb 69 80 be a8 59 c8 3e 2c 70 10 bf 0a 5c de 3d
       -0.25080714 0.39130902 -0.5642116 0.10857399
0000d0 cd 6c 22 bf 01 4a 17 3d 0a 39 e8 be e1 4e 08 bf
       -0.63447267 0.03693581 -0.45356017 -0.5324536
0000e0 ca c2 c5 3e 85 77 94 3e e3 22 e2 be 9d 37 a9 3e
       0.38625175 0.28997436 -0.4416724 0.33050242
0000f0 da ed 83 be d1 ea 14 3f dc 70 d3 be cd 41 ba bd
       -0.25767404 0.581708 -0.41297042 -0.09094582

net.0.bias f4 [32]
000000 a7 f3 24 bf f0 bf 99 3e d8 3f 20 3f b8 35 70 bd
       -0.64434284 0.3002925 0.6259742 -0.05864498
000010 f1 19 34 3f 20 de 5a be cb b6 1f bf 48 bb 40 be
       0.70352083 -0.21373796 -0.62388295 -0.18821442
000020 fb 6f 19 be 1f df 0f 3f bf 29 d8 3e e6 bd 15 3f
       -0.14984123 0.5619983 0.4221935 0.5849289
000030 0a f6 11 3e 15 a8 e5 bd e4 0c 27 bf e7 b8 c7 3e
       0.14254013 -0.112137 -0.65254045 0.39008257
000040 57 3c fe be 2c 4f 20 be 97 1e 10 3f 5a e2 28 3f
       -0.4965541 -0.15655202 0.56296676 0.65970385
000050 cf 9d 43 be f1 76 36 be c0 b1 4e 3e d3 0e 33 bf
       -0.19103168 -0.1781881 0.20184994 -0.69944495
000060 de 81 41 3e 3a 0d e9 be d3 6e bc be b4 9f a9 3e
       0.18897197 -0.45517904 -0.36803302 0.33129656
000070 98 fb ec 3e 8a 87 3e be 8b 27 4c 3e 6c 23 bd 3e
       0.462857 -0.18606392 0.1993696 0.36941087

net.2.weight f4 [32, 32]
000000 1c f7 1c bd b7 c7 e5 3d 3f e4 cd bd bb 1f 30 be
       -0.0383216 0.11219733 -0.100533 -0.17199604
000010 31 12 a7 3d e4 51 83 3c 1d 5e 1b 3e 9d 69 cc bb
       0.081577666 0.01603026 0.1517262 -0.006238176
000020 86 e4 bc 3d a6 f9 ba bc 4f 11 c9 bc 4f dc 67 3d
       0.09223275 -0.02282412 -0.024544386 0.056606587
000030 a3 86 b3 3d ff 26 13 3e fd 5b 53 bc 69 f9 a6 bd
       0.08765914 0.14370345 -0.01290035 -0.0815304
000040 8b 1d 31 bc 27 94 8a bd 8f f9 cf 3d 2b 4b 20 be
       -0.010810266 -0.06766539 0.101550214 -0.15653674
000050 e1 0f 93 bd 3a 3e 19 3e d2 bd 10 3e 5d e2 16 3e
       -0.07180763 0.14965144 0.1413491 0.14734788
000060 97 45 0c be c1 bc 0e be da 3f 7e bd e5 29 d7 bd
       -0.13698421 -0.13939191 -0.062072612 -0.105060376
000070 2a 96 d8 3d 8a 3d af bd de f9 b0 3d 04 85 95 3d
       0.105755165 -0.085566595 0.086414084 0.07300761
000080 65 e6 ff 3d 9a b9 2d be d1 84 9b 3d 2a 8e c3 bd
       0.12495116 -0.16965333 0.07593692 -0.095486
000090 21 f7 bc bd 0f 13 0e be 59 b9 b3 bd b0 3d 95 3d
       -0.092268236 -0.13874458 -0.08775587 0.072871566
0000a0 d6 2f 3a bd a2 4c ee 3d 56 0f 03 3e da da 24 3d
       -0.045455776 0.1163571 0.12798819 0.040247776
0000b0 8a 08 2b bd b8 13 9e 3c 48 72 0e 3e 84 f4 15 3e
       -0.04175619 0.019296512 0.13910782 0.14644057
0000c0 87 ee 26 3c 7d 43 6b 3d 30 2d ec 3d 65 92 06 3d
       0.010188705 0.05743741 0.11532056 0.032854456
0000d0 8b 7a 0a be 52 27 37 3d cc 8b ca bd 26 1e 32 3e
       -0.13523309 0.044715233 -0.098899454 0.17394313
0000e0 36 c7 92 bd 7d 4a db bd dd ed b3 bc 3b e3 01 bd
       -0.07166903 -0.10707567 -0.021964008 -0.031710844
0000f0 a2 68 03 3e 0c 56 18 3e 65 a6 b2 bd 3a 9a 27 be
       0.12832883 0.14876574 -0.087231435 -0.16367427
000100 51 ed dc 3c a9 ee 0d 3d 2e 65 af bd d1 14 63 3d
       0.02696863 0.034651432 -0.0856422 0.055439774
000110 ea 39 5b 3c 5c 8c 39 3d dc 6d 36 3d b0 49 ae 3d
       0.013380507 0.045299873 0.044538364 0.085101485
000120 b9 1a 55 bd d8 3a 46 3d 23 eb fa bd d1 b3 2c be
       -0.052027438 0.04839596 -0.1225188 -0.1686547
000130 1c 2c 0b be de 50 f8 bd 4c e3 4d 3c 23 78 00 3e
       -0.13591045 -0.12124799 0.012566399 0.12545829
000140 5f 6f 14 be 2a a4 5e 3c 54 5c 51 3d 5d fc 20 3e
       -0.1449561 0.013588944 0.05111344 0.15721269
000150 a4 bb e7 bd c4 29 2c be b7 e9 4b bd 29 64 cf bd
       -0.113150865 -0.16812807 -0.049783435 -0.10126526
000160 35 71 52 bd ee c6 69 bd 76 45 b9 bd 7c e2 a0 bd
       -0.051377494 -0.05707448 -0.09046452 -0.078556985
000170 9d 83 0c 3e aa 9a d1 3d 05 5f 1b 3d 5b ed 87 bd
       0.13722081 0.10234578 0.037932415 -0.06637069
000180 c7 2b 28 be 6f 54 21 be 6e a1 87 3d 49 ba c0 bc
       -0.1642295 -0.15754865 0.06622587 -0.023526328
000190 b7 bb 8d bd a2 70 34 3c 49 22 00 3d aa 09 2e 3e
       -0.069205694 0.011013182 0.031282697 0.16995874
0001a0 6b 9f 2b 3e 50 22 e2 3d 79 32 34 bd 14 74 c1 3c
       0.16760032 0.11041701 -0.043993447 0.02361492
0001b0 18 dc 14 3e b8 2f cc bc a3 9f 2b 3c d5 3d ae 3d
       0.14537084 -0.024925098 0.010475072 0.08507887
0001c0 53 40 c4 3d cc c9 ab bb b6 5b 01 be 5d ff 2f bd
       0.09582581 -0.005242562 -0.12632641 -0.042968143
0001d0 32 06 e8 bd 8d 52 d1 3d 5f cb 3f 3c f0 f6 09 3e
       -0.11329307 0.102208234 0.011706202 0.13473105
0001e0 57 6a 5d 3d 0e 55 1b 3d 3b 2b 1c 3e 4f 87 03 be
       0.05405649 0.03792291 0.15250866 -0.12844585
0001f0 8e 8c dc 3d 3c 59 92 3d 08 a2 a5 bd 35 94 b9 bd
       0.10768996 0.07145926 -0.08087546 -0.090614714
000200 f3 56 db 3c 17 61 3a bd 1a a3 e5 bd 81 e0 1c 3e
       0.026774859 -0.04550275 -0.1121275 0.15320016
000210 9f d0 4e bc 99 77 66 bd 58 ac 1e 3e 12 9b bf bc
       -0.012622981 -0.0562664 0.15495431 -0.023389373
000220 6f 09 16 3e 46 32 97 3c 9f 54 09 3e 63 1e de 3c
       0.14652036 0.01845659 0.13411187 0.027114099
000230 6b 8e 2a 3e 6a be f3 3d 77 b8 c0 3d d2 e9 a6 bd
       0.1665589 0.11901553 0.09410184 -0.081500664
000240 6b e5 f7 3b b8 8d 09 3e 80 c8 18 3e 5b 50 0c 3e
       0.0075651905 0.13432968 0.14920235 0.13702528
000250 ab fb 5a bd 4d 6f 16 be cd 4d 29 bd df 83 b6 3d
       -0.053462666 -0.14690895 -0.041333962 0.08911871
000260 33 b0 64 ba 9b 0b 0d be 78 fd 6d bc 3a 70 a5 3d
       -0.00087237655 -0.13773958 -0.014525764 0.08078046
000270 c7 f9 13 be 54 fc 02 bc c2 7f 2a 3e ff b2 ff bc
       -0.14450751 -0.00799473 0.16650298 -0.031213282
000280 ea 9b 27 3e ea f4 65 3d 31 91 84 3d d0 f2 7f bc
       0.1636807 0.05614177 0.064730056 -0.015621856
000290 2f 0a 12 3e 76 62 ff bd 9e 58 09 bd 00 a5 ac ba
       0.14261697 -0.12469952 -0.033531778 -0.0013171732
0002a0 77 6e 2f 3e cd ac 4e 3d 88 c4 93 bc a6 1e b5 3d
       0.17131983 0.050457764 -0.01803805 0.08843736
0002b0 3e 40 14 be 5a f0 63 3d 4d 72 8c 3c 03 b6 07 be
       -0.14477631 0.05564914 0.017144347 -0.13253026
0002c0 a0 88 9c 3d 4e 8f 07 3e 05 2e c5 bd 7c cb d8 bd
       0.07643247 0.1323826 -0.09627918 -0.105856866
0002d0 8e 17 a2 bd 9e ef 17 be 67 0b 7c bc 9e 77 b8 3d
       -0.07914649 -0.148375 -0.015383578 0.0900719
0002e0 4b c4 2e be f3 55 69 bd f6 7d f5 bd be 16 06 bd
       -0.17067067 -0.056966733 -0.11986916 -0.032736532
0002f0 61 cb 15 be 79 c4 ab 3d 17 e4 0a 3e 4e 9a 63 bc
       -0.14628364 0.083870836 0.13563572 -0.01389177
000300 87 62 e0 bd 2d 8f dd 3d 73 b1 02 be a2 12 4d bd
       -0.109562926 0.10818324 -0.12763004 -0.050066598
000310 27 67 c5 bc 70 75 43 bc c6 75 f9 3d 73 55 78 bd
       -0.024097038 -0.011929855 0.121806666 -0.060628366
000320 fd 73 aa 3d 48 b7 07 be 01 74 3a 3c af 3b bb bd
       0.08322904 -0.1325351 0.011380197 -0.09142243
000330 90 5a 85 bd dd 87 22 bd 7b 88 1a 3d 2a e3 66 3d
       -0.06511414 -0.03968035 0.037727814 0.056368984
000340 6f 40 5b bd 9b 96 7e bd 43 70 2e 3e 1b 64 4d bd
       -0.053528246 -0.062155347 0.17035012 -0.050144296
000350 e1 aa 80 3d a3 64 7b 3d df 2e 1f 3e 0d fb ba 3d
       0.062825926 0.06137527 0.15545224 0.091299154
000360 cf f2 00 be 65 a2 27 3e 8a 47 e1 bc 4c 1f 3c bd
       -0.12592624 0.16370542 -0.027499933 -0.045928285
000370 f1 c9 cb 3d 90 24 7a bd 4a 60 0f 3e f5 50 a5 3c
       0.09950627 -0.061070025 0.14001575 0.020180205
000380 df 0e 13 3d 87 3e 1b be d5 87 d0 bd e2 8b ab 3d
       0.035902854 -0.15160571 -0.10182158 0.0837629
000390 e3 64 18 be 1b 5b 24 3e ac aa 2f 3e 6b 70 04 be
       -0.14882235 0.16050379 0.1715495 -0.12933509
0003a0 45 e5 17 be 7d b0 21 3e 79 82 20 be 2d ea e3 3d
       -0.14833553 0.15789981 -0.15674771 0.1112865
0003b0 84 6a d5 3c 12 0a 79 bc 4d 74 d4 3d bd 30 a1 3d
       0.026051767 -0.015200155 0.10373745 0.07870624
0003c0 cb b0 a7 3d 2b eb 33 3c 13 b9 8b 3d 54 09 86 bc
       0.081880175 0.010981361 0.068224095 -0.01636187
0003d0 fd 27 09 be 5d 45 db 3d ac df f7 3d 83 15 ca 3d
       -0.1339416 0.10706589 0.12103209 0.09867384
0003e0 b6 4b ab bd 26 e8 ea 3d e5 96 dc bd 3e 6e dd 3d
       -0.0836405 0.1147006 -0.10770968 0.10812043
0003f0 15 35 cd bb d5 d1 db bd 01 c1 ba 3d ae 2d 9f bd
       -0.0062624314 -0.10733382 0.09118844 -0.077723846

net.2.bias f4 [32]
000000 60 26 58 3c cf 8b 70 3c a7 15 be 3d 51 1a 9e 3d
       0.013192743 0.0146817705 0.092814736 0.07719863
000010 79 fd 00 3e 6a a9 03 be 6a 32 0d bc 94 4f b4 bc
       0.12596692 -0.12857595 -0.008617977 -0.022010602
000020 40 27 01 3c 03 65 34 be 4d 26 a7 3c c0 22 ef 3d
       0.007882893 -0.17616658 0.020404005 0.1167655
000030 cc 1a ac 3d 1c d3 cb bd 78 4e e5 bd 39 b5 1f bd
       0.084035486 -0.09952375 -0.11196607 -0.038991187
000040 11 c8 b1 bd 8c 50 aa 3d 71 e0 56 bd 15 5c d8 3d
       -0.08680738 0.08316144 -0.052460138 0.10564438
000050 90 da 00 3e a3 45 17 be ac 99 33 bd e5 41 8b 3d
       0.12583375 -0.14772658 -0.043847725 0.06799678
000060 23 b0 0d be 3e e9 08 be e8 c7 43 3c c6 bc c8 bd
       -0.13836722 -0.13370225 0.011949517 -0.09801631
000070 26 2e a2 3d 2d bf 9f 3d 6a f2 81 3c 0f 05 c8 bd
       0.07918958 0.07800136 0.015862662 -0.0976659

net.4.weight f4 [4, 32]
000000 f4 49 1c 3e 25 a9 69 3d 3a a5 05 be c2 c9 09 3e
       0.15262586 0.057046074 -0.1305131 0.13455871
000010 43 6f 9b bd dc 49 91 bc bd 70 1c 3e b2 5c e8 bd
       -0.07589581 -0.017735414 0.15277381 -0.11345805
000020 f5 f2 0f bd 22 86 f3 3d 03 6e fa bb 32 eb a5 3b
       -0.03514381 0.11890818 -0.007642509 0.005063438
000030 05 2e d0 bd c7 ed ae 3d 39 f2 0b 3e c3 f0 14 3e
       -0.101650275 0.08541446 0.1366662 0.14544968
000040 77 47 b2 bd 06 af fa 3c eb 5f 0a be 3d d8 25 3e
       -0.08705037 0.030601036 -0.13513152 0.1619577
000050 49 58 d1 3c af 2d 19 be 4d ca c1 3c f4 75 df bc
       0.025554793 -0.14958833 0.023656035 -0.027277924
000060 85 ab 24 3d 76 7f f3 bd d9 31 1b be fc 66 b5 3d
       0.040202636 -0.118895456 -0.15155734 0.08857533
000070 95 3d d1 3d 2d 08 22 3e b9 f2 be bd 53 6c a5 bd
       0.10216824 0.15823431 -0.093236394 -0.08077302
000080 c3 10 00 be a9 df a1 bd c9 d1 9f bd a3 a9 c0 3d
       -0.12506394 -0.07903988 -0.07803685 0.09407356
000090 48 82 08 be fe 4f 5f bc 95 1e 0b 3e 9f 7a 19 be
       -0.13330948 -0.0136299115 0.13585885 -0.14988182
0000a0 54 7a 1a 3e 96 ab b9 3c ba bc 7d 3d 05 35 d1 3c
       0.15085727 0.022664826 0.06194756 0.025537977
0000b0 f2 14 98 3c 50 7e 29 3e c7 bf 13 be d6 ba 2f be
       0.018564675 0.1655209 -0.14428626 -0.17161116
0000c0 ef cb 8b bd 0f 1c 79 3d 09 58 fc 3b 0f ac 8f 3d
       -0.068260066 0.060817774 0.0077009243 0.070152394
0000d0 62 35 d7 3d 13 8f 23 3e 6d c6 ae 3d 89 4d 14 3d
       0.10508229 0.15972547 0.085339405 0.036206756
0000e0 2d 39 8b bd 26 19 05 3e 40 14 33 3d 67 40 1d 3e
       -0.06798015 0.12997875 0.043720484 0.15356599
0000f0 23 be 13 be 63 82 a8 bd 34 c4 99 bd eb ee 34 be
       -0.14428 -0.08227994 -0.07508126 -0.17669265
000100 e1 95 6d bd 9d e4 11 3e dd e2 fa 3c 85 89 c4 bc
       -0.058004264 0.14247365 0.030625755 -0.023991356
000110 e0 50 0f be 04 8d 29 be f2 d4 14 3e 1f 63 58 3d
       -0.13995695 -0.165577 0.14534357 0.052828904
000120 b1 6e cf bd 36 51 d6 3d 10 f0 a0 bc 08 09 8c 3c
       -0.101285346 0.104647085 -0.01964572 0.01709415
000130 1d d3 ad bc b0 0e 21 bb 51 f0 db 3d b9 19 12 3e
       -0.02121883 -0.0024575405 0.10739196 0.14267625
000140 ba 71 e0 bc 57 15 90 3d 7f 8a 15 3d 7d e8 20 3e
       -0.027397979 0.0703532 0.036509033 0.15713687
000150 e1 7a 16 be 28 ab 03 be 79 fe 8a bd c1 9c fd 3d
       -0.14695312 -0.1285826 -0.06786818 0.12383414
000160 77 67 92 bd ed ee 03 3e 6a f8 2b 3e 83 c7 ba bd
       -0.071486406 0.12884112 0.16793981 -0.09120085
000170 93 3d 82 bd 10 76 16 be 1a 1e e6 bd 67 24 d3 3d
       -0.063594006 -0.14693475 -0.1123621 0.103096776
000180 5b 9b 95 bd 2e 6a 2b 3e dd f8 96 3c ab 9a ee 3d
       -0.07305022 0.16739723 0.018429214 0.11650594
000190 5d e0 0a be 7f a7 5b 3d 98 48 12 3d e7 f2 ee bd
       -0.1356215 0.053626534 0.035713762 -0.11667424
0001a0 1c 87 2a be b6 3f 1f 3c 3f 37 fe 3d 80 0a b8 3d
       -0.16653103 0.00971978 0.12412881 0.08986378
0001b0 95 3a 28 bd 89 67 0a be 03 eb a9 3d 2a 25 10 3d
       -0.041071493 -0.13516058 0.08296778 0.035191692
0001c0 9c 0c 16 be 42 73 f4 3c a8 c4 dc 3d 37 52 d8 bd
       -0.14653248 0.029840115 0.10779697 -0.10562556
0001d0 38 fa 07 be 4f fc c7 3d 57 37 81 bb 1d ce 88 bc
       -0.13279045 0.09764921 -0.0039433646 -0.016699845
0001e0 fa 15 65 3d 9f a4 fb 3d 42 0c 22 be bd 99 f0 bd
       0.05592916 0.12287258 -0.15824988 -0.11748073
0001f0 f9 b3 ae bc 21 83 b0 3b 0a 7f 1b be ff 81 f0 bc
       -0.021326052 0.0053867255 -0.1518518 -0.029358862

net.4.bias f4 [4]
000000 c7 31 82 bd e0 ee 1d 3e f6 ca a4 bc ea fb 16 3d
       -0.063571505 0.15423155 -0.02011631 0.036861338

extractor.0.weight f4 [32, 2]
000000 04 6f 22 3f ad 2d 00 bf f3 26 01 3f 4a 13 03 be
       0.63450646 -0.50069696 0.50450057 -0.12800327
000010 07 28 0a bf ae 39 b6 be 67 48 82 be 1f 60 df 3e
       -0.53967327 -0.3559088 -0.25445864 0.43628022
000020 46 4a 1f 3f 9a c0 95 be eb 93 74 be aa 20 8e bd
       0.6222271 -0.29248506 -0.23884551 -0.06939824
000030 df a3 ca 3e 49 d9 c1 3e da 8b 24 bf 89 2f 23 bf
       0.3957815 0.37861088 -0.64275897 -0.6374441
000040 df af 78 3e 2c 6c 85 3e d3 60 1d bc 33 27 ee 3e
       0.2428584 0.2605909 -0.009605604 0.46514282
000050 1a 9b fc 3e ee 4b 2b bf 82 b4 ad 3e fc 66 bb 3d
       0.49337083 -0.66912735 0.3392678 0.09150502
000060 d1 32 9d 3d 64 f4 31 3e 30 79 a7 3e ab f5 0e 3f
       0.07675708 0.17378384 0.32709646 0.5584361
000070 5d 5f 97 3e 26 df 7e be ac 30 2c bf 30 8e 17 bf
       0.29564944 -0.24889812 -0.6726177 -0.59201336
000080 8b 18 b6 bc f8 70 51 be df 57 ae 3b db 1a e0 3e
       -0.0222285 -0.2045325 0.0053205336 0.4377049
000090 89 87 2a 3e d0 93 b0 be 37 16 62 3e e1 f9 22 bf
       0.16653265 -0.34487772 0.22078787 -0.63662535
0000a0 1c 6a 0a bf 83 ce 88 bd f6 88 f1 3e 7c 01 c3 3e
       -0.5406816 -0.06680014 0.47174805 0.3808707
0000b0 17 bf f3 be f5 ad 05 be e6 b5 c0 3e ba f7 ad 3e
       -0.47606727 -0.1305464 0.37638777 0.33978063
0000c0 56 60 2e 3e 10 9b 25 3f 7e d6 e8 be dc 8f c2 be
       0.17028937 0.6468973 -0.45476145 -0.3800038
0000d0 05 31 c0 3d 11 84 d0 3d 13 6b fe bc f0 8f 09 bf
       0.0938435 0.1018144 -0.031056916 -0.53735256
0000e0 53 2e 09 be b1 d3 10 bf 07 3c 1e bc 8b 76 28 bf
       -0.13396578 -0.56573015 -0.009657866 -0.6580588
0000f0 1f 44 18 3e cc 7f 8d be ad 50 1d bf 30 0e f4 3c
       0.14869736 -0.27636564 -0.61451226 0.029791921

extractor.0.bias f4 [32]
000000 da d5 9a 3e 32 37 53 be 76 3a 88 3d 73 aa 18 bf
       0.3024128 -0.20626524 0.066517755 -0.59635085
000010 b5 69 e6 be 45 1f 12 bf ff 66 ca be 66 39 b7 3d
       -0.45002523 -0.57078964 -0.39531705 0.08946495
000020 00 05 66 be e5 78 23 3f fa 6d 4e 3e 1d e9 09 bf
       -0.22462845 0.63856345 0.2015914 -0.5387133
000030 11 a1 24 bd 3d f5 31 bf b9 2c 22 bf 0a 1a 34 3f
       -0.040192667 -0.6951483 -0.6334949 0.7035223
000040 80 55 ab 3e bc 4a 84 be 38 b3 f0 3e 8d e6 50 3e
       0.3346367 -0.25838268 0.47011733 0.20400448
000050 9e 13 dc bd 70 9f 7b be 1b 41 07 bf 73 1b 1a 3f
       -0.10745929 -0.2457254 -0.5283372 0.60198134
000060 81 1c 18 3f 72 87 a2 3e a8 47 a3 3e b8 3d 29 3f
       0.59418494 0.31743962 0.31890607 0.661098
000070 1c 05 3c 3c 04 aa 5f be 5b 72 2d 3f 96 72 12 3f
       0.011475828 -0.218422 0.6775262 0.57206094

extractor.2.weight f4 [32, 32]
000000 6b 68 05 3d c0 88 bd bd ac ee 18 3e 2f ad 2f 3e
       0.032570284 -0.092545986 0.14934796 0.17155908
000010 a7 24 2f 3e 96 58 b1 3d 8c 66 0f 3e 38 a1 53 bd
       0.17103826 0.086594746 0.14003962 -0.051667422
000020 9a b3 a5 bc 64 fe 1c 3e 66 32 f5 3d c1 a5 fc bd
       -0.020227242 0.15331417 0.11972503 -0.123363025
000030 30 1c bf bc 52 5b 82 3d ef 4c 03 3e a1 75 92 3b
       -0.02332887 0.06365074 0.12822317 0.004469589
000040 66 51 04 3d 78 6d a6 3d 19 62 d9 bd e0 30 af 3d
       0.03230419 0.08126348 -0.10614414 0.08554244
000050 29 61 b1 3b e6 20 05 3e 2c c2 ae bd 3c e9 db 3d
       0.0054131937 0.13000831 -0.08533129 0.10737845
000060 84 d0 2b 3d b3 ae 10 3e e1 5e b4 bd d1 cf 86 3d
       0.041946903 0.14129142 -0.08807159 0.065826066
000070 d6 a2 5a bd ef 9d b6 bd 7a 8c dc bd 79 bc bc bd
       -0.05337795 -0.08916842 -0.10768981 -0.09215636
000080 2f 1e 20 be 51 6e 29 3e 26 65 c4 3c ae 5b 4a 3d
       -0.15636514 0.16545989 0.023974013 0.04940384
000090 71 d3 14 bc ce 9d 98 3d 8b 77 ca bc d8 08 ef bc
       -0.009083615 0.07451974 -0.024715206 -0.029179022
0000a0 89 60 75 bd d0 d1 ac bd 77 c3 b0 bd 73 e8 b9 bd
       -0.059906516 -0.08438456 -0.08631032 -0.09077539
0000b0 a1 76 bb 3a 4b 77 c3 bc 80 85 3b bd 6e bd 06 3e
       0.0014302322 -0.023860594 -0.045781612 0.13158199
0000c0 e7 86 91 bd 7c 9b c0 bc f9 22 e0 bc 8c 2d c9 3d
       -0.07105809 -0.02351164 -0.027360426 0.098231405
0000d0 8d c4 7d bd 57 3c c5 bd 6a e0 d1 3d ff 56 63 bd
       -0.061955024 -0.096306495 0.10247882 -0.055502888
0000e0 48 2d 8c 3d a3 b3 87 bd 26 79 2d be be 6e b2 bb
       0.06844574 -0.0662606 -0.16940746 -0.0054453304
0000f0 93 10 91 3d 7d 52 df bd 51 dc a9 3d 2d fd 1a 3d
       0.070832394 -0.10904405 0.08293975 0.037839103
000100 88 3a 28 be a3 bc 5c 3d 6b 9e 23 be 4b 67 bb bc
       -0.16428578 0.053890835 -0.159784 -0.022876402
000110 7f 21 29 3d 4e 47 09 3e e4 31 90 bd cf 42 ee bd
       0.04129171 0.13406107 -0.07040766 -0.116338365
000120 2a 94 93 bd e9 9f 1d 3d f7 bd fb bd 66 12 d0 bd
       -0.072059944 0.03848258 -0.12292092 -0.10159759
000130 6f fe cd bc 36 a3 f4 3b 54 db 54 3c 6e 47 4c bd
       -0.025145737 0.0074657453 0.012991745 -0.04987281
000140 71 bc 94 bd 2a d9 1d 3e 34 75 0f be 49 ff dd 3d
       -0.07262505 0.15414873 -0.14009553 0.108397074
000150 11 f4 8e bd 42 97 de 3b f5 d6 d7 3d ef f2 0e be
       -0.06980146 0.0067929337 0.10539047 -0.1395986
000160 02 13 38 ba 40 45 19 be 29 d0 c5 b9 70 16 0d 3d
       -0.00070218754 -0.14967823 -0.0003772986 0.034445226
000170 58 ae a0 3b bd d5 1f be 49 c6 2f 3d 74 11 1c be
       0.004903596 -0.15608878 0.04291371 -0.15241033
000180 66 82 2e 3e dd 96 f3 3b 43 98 43 bd 00 99 1c bd
       0.1704193 0.007433756 -0.04775263 -0.03823185
000190 ac 1f 51 bc 82 e2 fa 3c f9 f7 05 3e 9b c8 be 3d
       -0.012763899 0.030625585 0.13082875 0.09315606
0001a0 fb 84 5f 3d 4d 29 aa bd 84 58 08 be d3 c9 df bd
       0.05457018 -0.08308659 -0.13315016 -0.10927167
0001b0 d8 ec cf 3d 5d 98 31 be 5f d5 df bd 81 5f a6 3d
       0.10152596 -0.17343278 -0.10929369 0.08123685
0001c0 e9 24 12 bd 3a f4 07 be ed 7f 5e 3c 87 69 e5 bd
       -0.03567973 -0.13276759 0.013580305 -0.11201768
0001d0 46 d4 14 3e b7 1f 13 3e d9 21 02 be e2 7c 01 3e
       0.14534101 0.14367567 -0.12708224 0.12645295
0001e0 3e c0 17 be a3 46 5c 3d 25 93 c6 3d db f4 f0 3c
       -0.14819428 0.053778302 0.09696034 0.029413631
0001f0 10 0f 08 bd 8e 59 0c bd 59 c2 32 be fb 8b 94 bc
       -0.03321749 -0.034265094 -0.1745695 -0.018133154
000200 f3 e9 12 3e ce 91 c0 bd 4a ee 08 3c 6c aa 1e 3c
       0.14347057 -0.0940281 0.008357594 0.009684186
000210 a8 a1 b2 3c 6f 74 1d be ae 81 32 bd a3 8a a2 3d
       0.0218056 -0.15376447 -0.043580703 0.07936599
000220 d7 96 14 3e ad ea b0 bc 26 e1 ac 3c 4d 95 28 be
       0.14510666 -0.021596277 0.021103453 -0.16463204
000230 82 d5 34 3d ab 5d 20 be 75 64 aa 3d 77 51 bf 3d
       0.04414893 -0.15660731 0.08319942 0.0934171
000240 2b c4 ce 3d 69 1e c7 bd 37 19 d6 bc 92 7f 0e bd
       0.1009601 -0.09722597 -0.02613507 -0.03478963
000250 87 a7 a0 bd 1b 64 77 bd 9b c0 ab 3d 34 19 84 3d
       -0.07844453 -0.060398202 0.08386346 0.064501196
000260 45 d3 05 3e f1 d6 c9 3c 97 21 e7 bc 37 00 05 3e
       0.13068874 0.024638625 -0.02821426 0.12988363
000270 62 97 29 3e a8 68 1c 3e a6 cd 18 3e 8c c7 dd bb
       0.16561654 0.15274298 0.14922199 -0.0067681726
000280 6b 21 2b bd 34 89 b0 bd 04 f9 cb 3d 7e fb 1f 3e
       -0.041779917 -0.086199194 0.09959605 0.1562328
000290 4f 7d fd bc 3c 59 2a 3e 9a 5c dc bd 3e ba 94 bd
       -0.03094354 0.16635603 -0.1075985 -0.072620854
0002a0 2e 7d 0c be 17 41 65 bd 29 c9 9c 3d ab 03 0f 3e
       -0.13719627 -0.055970278 0.07655556 0.13966243
0002b0 1d 3d f3 bd 62 4e 8a 3c 3f 9d 45 bc 1a 58 8d bd
       -0.11876891 0.016883079 -0.012061416 -0.0690157
0002c0 18 8a 89 bd ea 5c 98 3d 7e 44 17 3e 12 d3 70 3d
       -0.067157924 0.07439597 0.14772221 0.058795042
0002d0 ad a4 ba 3d 32 d6 09 be e5 62 f6 bc 85 1c 19 be
       0.09113441 -0.13460615 -0.030076453 -0.14952286
0002e0 fa 13 02 3e 24 b0 1b bd 67 50 ae bc be 1a b8 3c
       0.12702933 -0.038009778 -0.021278573 0.02247369
0002f0 da b4 16 3d 2b 5d 55 ba 09 ae 83 bc 00 5b ac 3d
       0.036793567 -0.0008139188 -0.016074197 0.084157944
000300 4a 36 94 bd 0c 90 22 3e fb f7 26 3e cf ab 2a be
       -0.07236917 0.15875262 0.16305535 -0.16667102
000310 22 8c 9b bd ed ad 4e 3d 42 39 c3 3d de 8e 37 bd
       -0.075950876 0.050458837 0.095324054 -0.044813983
000320 ab 51 af bd 41 5a 1e be ba 92 b7 bd 6e 26 88 bd
       -0.08560499 -0.15464117 -0.08963533 -0.06647955
000330 45 5d 03 3d fa e1 2c 3e 50 c0 91 3d 65 8e 0d 3e
       0.03207137 0.16883078 0.07116759 0.1382385
000340 40 d5 80 bd 2e bf e4 3d b9 84 a3 bb 67 c2 e5 bd
       -0.06290674 0.11169277 -0.004990187 -0.1121872
000350 ee b1 1c 3e 18 dd 91 bd e8 71 0c 3c 72 20 10 be
       0.1530225 -0.071222484 0.008572079 -0.14074877
000360 5a 0e 37 bd 3b 4f 7a 3d 70 a4 7e 3c 51 34 a2 bc
       -0.04469142 0.061110716 0.015542135 -0.019800337
000370 5f 4e e7 bd af 2a 15 3e 79 55 03 be 60 ac 94 bc
       -0.11294245 0.14567064 -0.12825574 -0.018148601
000380 44 3f 2a 3e c9 b0 b1 bd 73 f0 2f 3d 19 90 78 bd
       0.16625696 -0.08676297 0.04295392 -0.060684297
000390 80 f8 6c 3d 7b 7e 2d 3e 4d ec 9d 3b ab 37 bc bc
       0.057854176 0.1694278 0.004819429 -0.022975763
0003a0 30 0e e7 bb a3 be c7 3d 2b fe 87 bd fb ec 0b 3e
       -0.007051252 0.09753158 -0.066402756 0.1366462
0003b0 63 18 08 bd 81 02 27 bc 43 31 1b be d3 91 49 39
       -0.033226382 -0.010193468 -0.1515551 0.00019223178
0003c0 b8 9a 53 3d 62 73 80 3c c0 4d c3 bc 27 b0 23 be
       0.051661223 0.015680019 -0.023840785 -0.15985166
0003d0 92 56 a7 bd 28 36 e0 3b 49 d1 c1 bd b7 7d fe 3d
       -0.08170809 0.0068423934 -0.09463746 0.12426322
0003e0 1b b2 fe 3d 0e 32 a7 bb 9b 95 1d 3e 7c 45 0d bd
       0.12436315 -0.0051024025 0.15389101 -0.034490094
0003f0 0f 8e 29 be 92 45 2c be aa 00 56 3d 12 b7 f5 bc
       -0.16558097 -0.16823414 0.052246727 -0.029994521

extractor.2.bias f4 [32]
000000 57 6c e8 3d f7 59 6a 3d 51 62 ea 3d 4b a1 12 3c
       0.11348789 0.057214703 0.114445336 0.008949588
000010 d5 1d ca 3b 16 20 13 bd 70 33 15 3e a5 66 f3 3c
       0.006168107 -0.03591927 0.14570403 0.02971203
000020 7f 1b a5 3d 6b ac 0b 3e c0 25 d5 3c 1f e7 16 3e
       0.08061885 0.13639991 0.026018977 0.14736603
000030 e1 82 fb bd 27 b3 00 3d 66 06 2e 3e 3f b0 0c be
       -0.122808225 0.031420853 0.16994628 -0.13739108
000040 a7 bc af 3c 3f 84 a9 bd 3a 37 34 bd 3c 39 0a bd
       0.021452261 -0.08277177 -0.04399798 -0.03374599
000050 14 ef c8 bd f5 a0 9b 3d 13 c0 d3 3d 92 6c 01 3e
       -0.098112255 0.075990595 0.103393696 0.12639073
000060 08 94 30 be e9 7b 8d 3d 3e 5e 98 3d c4 f5 ce 3d
       -0.1724397 0.069083996 0.0743985 0.1010547
000070 b7 7c 6c 3b ee 60 34 be 52 db b8 3d e5 10 02 be
       0.0036085078 -0.176151 0.09026207 -0.12701757

classifier.0.weight f4 [4, 32]
000000 5e d0 a6 3d 2b 64 eb 3c ea 20 d4 3b c2 9d 05 bd
       0.08145212 0.028734287 0.00647365 -0.032621153
000010 c4 54 78 3d 96 e9 b3 bd 25 8d 6e bd 33 76 97 bd
       0.060627714 -0.08784787 -0.058240075 -0.073955916
000020 0c 74 69 3c b7 8d f5 bd 01 91 5a bc c9 2e 21 3e
       0.014248859 -0.119899206 -0.013340236 0.15740503
000030 0f 09 31 be 9e 93 f0 3d 96 52 a9 3d 91 6e 04 3e
       -0.17288612 0.11746906 0.08267705 0.12932803
000040 70 91 f5 bd db 9f 49 3d ce a5 22 bd fe 93 ad bd
       -0.119906306 0.049224716 -0.039708905 -0.08475493
000050 ff 7d 2f be 76 b4 a1 bc 34 78 b6 3d 69 46 c6 3d
       -0.17137907 -0.01973937 0.08909646 0.096813984
000060 ae 5f 32 be 98 c6 62 3d b4 af 9a bd 5f 5d 1f be
       -0.17419311 0.055365175 -0.07553044 -0.15562962
000070 a5 9c db bb 92 14 a2 3d 0a ca 27 be 72 35 0b 3e
       -0.006702023 0.0791408 -0.16385666 0.13594607
000080 1f 67 27 3e 2a ec 11 3d 86 2b 0c be a4 d5 22 3e
       0.16347931 0.035625614 -0.13688478 0.1590181
000090 b8 36 20 3e 78 31 43 3c 0d e7 fc 3b 5b 67 cd 3d
       0.15645874 0.01191365 0.007717973 0.10029479
0000a0 12 18 b8 3d dd 4f 23 3e ff 07 fb bd 9f 3a 0a 3e
       0.08988966 0.15948434 -0.122573845 0.13498925
0000b0 99 d5 8e 3d 2d 2b 81 bd ed 49 a8 bd b9 2a ab bd
       0.06974334 -0.06307063 -0.08217225 -0.08357758
0000c0 17 5f f3 3d ee 7b 96 3d 2c 51 ee 39 e8 20 fe 3d
       0.11883371 0.073478565 0.00045455375 0.1240862
0000d0 22 05 dc bd fa b5 a7 3d 22 ad 0f be a6 a4 17 3d
       -0.107431665 0.08189006 -0.14030889 0.037022255
0000e0 a5 7f 21 be 74 eb fd bd 9b cb c5 bd 8d a5 f6 bd
       -0.15771349 -0.12398425 -0.09657975 -0.12043295
0000f0 da 80 07 3e 2e f6 a5 3d 87 ce 40 3b 87 4e 29 be
       0.13232747 0.08103596 0.0029419975 -0.16533862
000100 44 c9 1b bd c9 72 69 bd 61 69 a9 bd 66 a6 27 3e
       -0.03803374 -0.056994233 -0.082720526 0.1637207
000110 ac 43 2f 3d dc 90 c3 bd 6f 68 56 3d cd 63 9e 3d
       0.042789146 -0.09549114 0.05234569 0.07733879
000120 11 c2 1d 3e a2 d3 20 3e b6 e3 ce bb ea 52 8e bd
       0.15406062 0.15705732 -0.0063137664 -0.06949408
000130 6b d0 35 bd a8 64 21 3e b3 30 a7 3d 77 15 85 3d
       -0.044388216 0.15761054 0.081635855 0.06498235
000140 0b 58 83 3d 50 03 18 be f9 0c 03 be 7e 11 95 3d
       0.06413277 -0.14845014 -0.12797917 0.07278727
000150 32 9c 31 be 81 f5 0f 3e 33 d1 32 3e 05 6c 01 3c
       -0.1734474 0.14058496 0.17462616 0.007899289
000160 6a 81 08 3d 64 2f 17 3e c1 c7 18 bc dc b2 28 3e
       0.033326544 0.14764172 -0.009324969 0.1647448
000170 fd 89 d8 3c 8d f6 9d 3d 7c 65 95 bd d1 3b 0f bc
       0.026432985 0.077130415 -0.07294747 -0.008742289
000180 f7 ea 34 bd 54 ae ac bd ef ee 5b bc f6 1b e8 3d
       -0.044169392 -0.08431688 -0.013423665 0.11333458
000190 72 80 a1 3c 81 5f 0d 3e 6d f3 45 3c b1 1b 0e 3e
       0.019714568 0.13805963 0.012081963 0.13877751
0001a0 1f 17 2b 3e 67 82 85 3c 4e 95 01 be 87 19 27 be
       0.16708039 0.016297532 -0.12654611 -0.16318332
0001b0 6c 0c 00 be 1c ea 26 3c 17 6d 9c bd 61 57 1a bd
       -0.12504739 0.010187652 -0.07637995 -0.037680987
0001c0 24 9d 29 be fd 55 1e bd f4 bb a5 bd bb ac fb bd
       -0.1656385 -0.038656224 -0.0809249 -0.12288805
0001d0 dc 59 aa 3d af bd da 3d 5b 64 15 3e 09 b5 a1 bd
       0.083179206 0.106807105 0.14589064 -0.07895858
0001e0 42 87 a2 3d da 3f 69 bd b9 38 89 3d e3 e3 4a bd
       0.07935955 -0.05694566 0.06700272 -0.049533736
0001f0 d7 0c e5 3d 63 84 34 bd e0 23 34 be d7 46 c0 3d
       0.1118409 -0.044071566 -0.1759181 0.09388512

classifier.0.bias f4 [4]
000000 70 d7 fe bb 0f 44 74 3d 10 0c 96 3d 8b d2 74 bd
       -0.007777147 0.05963522 0.073265195 -0.059771102
