Gridworld_OTDD/envs/policy_models/SAC/set_stc/iter_0/model_2985.pth (torch, 14315 bytes, 12 tensors)

net.0.weight f4 [32, 2]
0.5598968 -0.06359462 -0.12828438 -0.4828725 -0.6534339 0.10938548 0.09905445 0.42098826
-0.113110505 0.35907573 -0.013293369 -0.31156078 0.6750154 -0.5328136 -0.24120413 0.45784053
-0.6153197 0.31373194 -0.2952229 -0.33232647 0.0972697 0.55080473 -0.624985 -0.19697161
0.19378725 -0.31154916 -0.21531796 0.6459342 -0.294866 0.36381286 0.33671942 0.41477033
0.23034601 0.20491536 0.16703993 0.30023274 0.5030197 -0.50631607 0.13988994 -0.14980043
-0.3435806 -0.45913133 0.28776747 -0.6776778 0.6919779 0.17204174 -0.5170898 -0.7026451
-0.25080714 0.39130902 -0.5642116 0.10857399 -0.63447267 0.03693581 -0.45356017 -0.5324536
0.38625175 0.28997436 -0.4416724 0.33050242 -0.25767404 0.581708 -0.41297042 -0.09094582
00000000: 6655 0f3f e53d 82bd fb5c 03be 103b f7be
00000010: 7247 27bf 7f05 e03d 0fdd ca3d c68b d73e
00000020: 7ba6 e7bd c6d8 b73e 6ecc 59bc e584 9fbe
00000030: cfcd 2c3f 7966 08bf 37fe 76be 136a ea3e
00000040: 9885 1dbf 79a1 a03e 7527 97be b226 aabe
00000050: 5635 c73d 8a01 0d3f 04ff 1fbf edb2 49be
00000060: 2a70 463e 5f83 9fbe 507c 5cbe f25b 253f
00000070: adf8 96be ae45 ba3e 7d66 ac3e c75c d43e
00000080: d3df 6b3e 55d5 513e 840c 2b3e 1bb8 993e
00000090: e6c5 003f ee9d 01bf 4f3f 0f3e 4965 19be
000000a0: cce9 afbe 4313 ebbe 4256 933e 4b7c 2dbf
000000b0: 7725 313f b62b 303e ff5f 04bf 8de0 33bf
000000c0: cb69 80be a859 c83e 2c70 10bf 0a5c de3d
000000d0: cd6c 22bf 014a 173d 0a39 e8be e14e 08bf
000000e0: cac2 c53e 8577 943e e322 e2be 9d37 a93e
000000f0: daed 83be d1ea 143f dc70 d3be cd41 babd

net.0.bias f4 [32]
-0.64434284 0.3002925 0.6259742 -0.05864498 0.70352083 -0.21373796 -0.62388295 -0.18821442
-0.14984123 0.5619983 0.4221935 0.5849289 0.14254013 -0.112137 -0.65254045 0.39008257
-0.4965541 -0.15655202 0.56296676 0.65970385 -0.19103168 -0.1781881 0.20184994 -0.69944495
0.18897197 -0.45517904 -0.36803302 0.33129656 0.462857 -0.18606392 0.1993696 0.36941087
00000000: a7f3 24bf f0bf 993e d83f 203f b835 70bd
00000010: f119 343f 20de 5abe cbb6 1fbf 48bb 40be
00000020: fb6f 19be 1fdf 0f3f bf29 d83e e6bd 153f
00000030: 0af6 113e 15a8 e5bd e40c 27bf e7b8 c73e
00000040: 573c febe 2c4f 20be 971e 103f 5ae2 283f
00000050: cf9d 43be f176 36be c0b1 4e3e d30e 33bf
00000060: de81 413e 3a0d e9be d36e bcbe b49f a93e
00000070: 98fb ec3e 8a87 3ebe 8b27 4c3e 6c23 bd3e

net.2.weight f4 [32, 32]
-0.0383216 0.11219733 -0.100533 -0.17199604 0.081577666 0.01603026 0.1517262 -0.006238176
0.09223275 -0.02282412 -0.024544386 0.056606587 0.08765914 0.14370345 -0.01290035 -0.0815304
-0.010810266 -0.06766539 0.101550214 -0.15653674 -0.07180763 0.14965144 0.1413491 0.14734788
-0.13698421 -0.13939191 -0.062072612 -0.105060376 0.105755165 -0.085566595 0.086414084 0.07300761
0.12495116 -0.16965333 0.07593692 -0.095486 -0.092268236 -0.13874458 -0.08775587 0.072871566
-0.045455776 0.1163571 0.12798819 0.040247776 -0.04175619 0.019296512 0.13910782 0.14644057
0.010188705 0.05743741 0.11532056 0.032854456 -0.13523309 0.044715233 -0.098899454 0.17394313
-0.07166903 -0.10707567 -0.021964008 -0.031710844 0.12832883 0.14876574 -0.087231435 -0.16367427
0.02696863 0.034651432 -0.0856422 0.055439774 0.013380507 0.045299873 0.044538364 0.085101485
-0.052027438 0.04839596 -0.1225188 -0.1686547 -0.13591045 -0.12124799 0.012566399 0.12545829
-0.1449561 0.013588944 0.05111344 0.15721269 -0.113150865 -0.16812807 -0.049783435 -0.10126526
-0.051377494 -0.05707448 -0.09046452 -0.078556985 0.13722081 0.10234578 0.037932415 -0.06637069
-0.1642295 -0.15754865 0.06622587 -0.023526328 -0.069205694 0.011013182 0.031282697 0.16995874
0.16760032 0.11041701 -0.043993447 0.02361492 0.14537084 -0.024925098 0.010475072 0.08507887
0.09582581 -0.005242562 -0.12632641 -0.042968143 -0.11329307 0.102208234 0.011706202 0.13473105
0.05405649 0.03792291 0.15250866 -0.12844585 0.10768996 0.07145926 -0.08087546 -0.090614714
0.026774859 -0.04550275 -0.1121275 0.15320016 -0.012622981 -0.0562664 0.15495431 -0.023389373
0.14652036 0.01845659 0.13411187 0.027114099 0.1665589 0.11901553 0.09410184 -0.081500664
0.0075651905 0.13432968 0.14920235 0.13702528 -0.053462666 -0.14690895 -0.041333962 0.08911871
-0.00087237655 -0.13773958 -0.014525764 0.08078046 -0.14450751 -0.00799473 0.16650298 -0.031213282
0.1636807 0.05614177 0.064730056 -0.015621856 0.14261697 -0.12469952 -0.033531778 -0.0013171732
0.17131983 0.050457764 -0.01803805 0.08843736 -0.14477631 0.05564914 0.017144347 -0.13253026
0.07643247 0.1323826 -0.09627918 -0.105856866 -0.07914649 -0.148375 -0.015383578 0.0900719
-0.17067067 -0.056966733 -0.11986916 -0.032736532 -0.14628364 0.083870836 0.13563572 -0.01389177
-0.109562926 0.10818324 -0.12763004 -0.050066598 -0.024097038 -0.011929855 0.121806666 -0.060628366
0.08322904 -0.1325351 0.011380197 -0.09142243 -0.06511414 -0.03968035 0.037727814 0.056368984
-0.053528246 -0.062155347 0.17035012 -0.050144296 0.062825926 0.06137527 0.15545224 0.091299154
-0.12592624 0.16370542 -0.027499933 -0.045928285 0.09950627 -0.061070025 0.14001575 0.020180205
0.035902854 -0.15160571 -0.10182158 0.0837629 -0.14882235 0.16050379 0.1715495 -0.12933509
-0.14833553 0.15789981 -0.15674771 0.1112865 0.026051767 -0.015200155 0.10373745 0.07870624
0.081880175 0.010981361 0.068224095 -0.01636187 -0.1339416 0.10706589 0.12103209 0.09867384
-0.0836405 0.1147006 -0.10770968 0.10812043 -0.0062624314 -0.10733382 0.09118844 -0.077723846
00000000: 1cf7 1cbd b7c7 e53d 3fe4 cdbd bb1f 30be
00000010: 3112 a73d e451 833c 1d5e 1b3e 9d69 ccbb
00000020: 86e4 bc3d a6f9 babc 4f11 c9bc 4fdc 673d
00000030: a386 b33d ff26 133e fd5b 53bc 69f9 a6bd
00000040: 8b1d 31bc 2794 8abd 8ff9 cf3d 2b4b 20be
00000050: e10f 93bd 3a3e 193e d2bd 103e 5de2 163e
00000060: 9745 0cbe c1bc 0ebe da3f 7ebd e529 d7bd
00000070: 2a96 d83d 8a3d afbd def9 b03d 0485 953d
00000080: 65e6 ff3d 9ab9 2dbe d184 9b3d 2a8e c3bd
00000090: 21f7 bcbd 0f13 0ebe 59b9 b3bd b03d 953d
000000a0: d62f 3abd a24c ee3d 560f 033e dada 243d
000000b0: 8a08 2bbd b813 9e3c 4872 0e3e 84f4 153e
000000c0: 87ee 263c 7d43 6b3d 302d ec3d 6592 063d
000000d0: 8b7a 0abe 5227 373d cc8b cabd 261e 323e
000000e0: 36c7 92bd 7d4a dbbd dded b3bc 3be3 01bd
000000f0: a268 033e 0c56 183e 65a6 b2bd 3a9a 27be
00000100: 51ed dc3c a9ee 0d3d 2e65 afbd d114 633d
00000110: ea39 5b3c 5c8c 393d dc6d 363d b049 ae3d
00000120: b91a 55bd d83a 463d 23eb fabd d1b3 2cbe
00000130: 1c2c 0bbe de50 f8bd 4ce3 4d3c 2378 003e
00000140: 5f6f 14be 2aa4 5e3c 545c 513d 5dfc 203e
00000150: a4bb e7bd c429 2cbe b7e9 4bbd 2964 cfbd
00000160: 3571 52bd eec6 69bd 7645 b9bd 7ce2 a0bd
00000170: 9d83 0c3e aa9a d13d 055f 1b3d 5bed 87bd
00000180: c72b 28be 6f54 21be 6ea1 873d 49ba c0bc
00000190: b7bb 8dbd a270 343c 4922 003d aa09 2e3e
000001a0: 6b9f 2b3e 5022 e23d 7932 34bd 1474 c13c
000001b0: 18dc 143e b82f ccbc a39f 2b3c d53d ae3d
000001c0: 5340 c43d ccc9 abbb b65b 01be 5dff 2fbd
000001d0: 3206 e8bd 8d52 d13d 5fcb 3f3c f0f6 093e
000001e0: 576a 5d3d 0e55 1b3d 3b2b 1c3e 4f87 03be
000001f0: 8e8c dc3d 3c59 923d 08a2 a5bd 3594 b9bd
00000200: f356 db3c 1761 3abd 1aa3 e5bd 81e0 1c3e
00000210: 9fd0 4ebc 9977 66bd 58ac 1e3e 129b bfbc
00000220: 6f09 163e 4632 973c 9f54 093e 631e de3c
00000230: 6b8e 2a3e 6abe f33d 77b8 c03d d2e9 a6bd
00000240: 6be5 f73b b88d 093e 80c8 183e 5b50 0c3e
00000250: abfb 5abd 4d6f 16be cd4d 29bd df83 b63d
00000260: 33b0 64ba 9b0b 0dbe 78fd 6dbc 3a70 a53d
00000270: c7f9 13be 54fc 02bc c27f 2a3e ffb2 ffbc
00000280: ea9b 273e eaf4 653d 3191 843d d0f2 7fbc
00000290: 2f0a 123e 7662 ffbd 9e58 09bd 00a5 acba
000002a0: 776e 2f3e cdac 4e3d 88c4 93bc a61e b53d
000002b0: 3e40 14be 5af0 633d 4d72 8c3c 03b6 07be
000002c0: a088 9c3d 4e8f 073e 052e c5bd 7ccb d8bd
000002d0: 8e17 a2bd 9eef 17be 670b 7cbc 9e77 b83d
000002e0: 4bc4 2ebe f355 69bd f67d f5bd be16 06bd
000002f0: 61cb 15be 79c4 ab3d 17e4 0a3e 4e9a 63bc
00000300: 8762 e0bd 2d8f dd3d 73b1 02be a212 4dbd
00000310: 2767 c5bc 7075 43bc c675 f93d 7355 78bd
00000320: fd73 aa3d 48b7 07be 0174 3a3c af3b bbbd
00000330: 905a 85bd dd87 22bd 7b88 1a3d 2ae3 663d
00000340: 6f40 5bbd 9b96 7ebd 4370 2e3e 1b64 4dbd
00000350: e1aa 803d a364 7b3d df2e 1f3e 0dfb ba3d
00000360: cff2 00be 65a2 273e 8a47 e1bc 4c1f 3cbd
00000370: f1c9 cb3d 9024 7abd 4a60 0f3e f550 a53c
00000380: df0e 133d 873e 1bbe d587 d0bd e28b ab3d
00000390: e364 18be 1b5b 243e acaa 2f3e 6b70 04be
000003a0: 45e5 17be 7db0 213e 7982 20be 2dea e33d
000003b0: 846a d53c 120a 79bc 4d74 d43d bd30 a13d
000003c0: cbb0 a73d 2beb 333c 13b9 8b3d 5409 86bc
000003d0: fd27 09be 5d45 db3d acdf f73d 8315 ca3d
000003e0: b64b abbd 26e8 ea3d e596 dcbd 3e6e dd3d
000003f0: 1535 cdbb d5d1 dbbd 01c1 ba3d ae2d 9fbd

net.2.bias f4 [32]
0.013192743 0.0146817705 0.092814736 0.07719863 0.12596692 -0.12857595 -0.008617977 -0.022010602
0.007882893 -0.17616658 0.020404005 0.1167655 0.084035486 -0.09952375 -0.11196607 -0.038991187
-0.08680738 0.08316144 -0.052460138 0.10564438 0.12583375 -0.14772658 -0.043847725 0.06799678
-0.13836722 -0.13370225 0.011949517 -0.09801631 0.07918958 0.07800136 0.015862662 -0.0976659
00000000: 6026 583c cf8b 703c a715 be3d 511a 9e3d
00000010: 79fd 003e 6aa9 03be 6a32 0dbc 944f b4bc
00000020: 4027 013c 0365 34be 4d26 a73c c022 ef3d
00000030: cc1a ac3d 1cd3 cbbd 784e e5bd 39b5 1fbd
00000040: 11c8 b1bd 8c50 aa3d 71e0 56bd 155c d83d
00000050: 90da 003e a345 17be ac99 33bd e541 8b3d
00000060: 23b0 0dbe 3ee9 08be e8c7 433c c6bc c8bd
00000070: 262e a23d 2dbf 9f3d 6af2 813c 0f05 c8bd

net.4.weight f4 [4, 32]
0.15262586 0.057046074 -0.1305131 0.13455871 -0.07589581 -0.017735414 0.15277381 -0.11345805
-0.03514381 0.11890818 -0.007642509 0.005063438 -0.101650275 0.08541446 0.1366662 0.14544968
-0.08705037 0.030601036 -0.13513152 0.1619577 0.025554793 -0.14958833 0.023656035 -0.027277924
0.040202636 -0.118895456 -0.15155734 0.08857533 0.10216824 0.15823431 -0.093236394 -0.08077302
-0.12506394 -0.07903988 -0.07803685 0.09407356 -0.13330948 -0.0136299115 0.13585885 -0.14988182
0.15085727 0.022664826 0.06194756 0.025537977 0.018564675 0.1655209 -0.14428626 -0.17161116
-0.068260066 0.060817774 0.0077009243 0.070152394 0.10508229 0.15972547 0.085339405 0.036206756
-0.06798015 0.12997875 0.043720484 0.15356599 -0.14428 -0.08227994 -0.07508126 -0.17669265
-0.058004264 0.14247365 0.030625755 -0.023991356 -0.13995695 -0.165577 0.14534357 0.052828904
-0.101285346 0.104647085 -0.01964572 0.01709415 -0.02121883 -0.0024575405 0.10739196 0.14267625
-0.027397979 0.0703532 0.036509033 0.15713687 -0.14695312 -0.1285826 -0.06786818 0.12383414
-0.071486406 0.12884112 0.16793981 -0.09120085 -0.063594006 -0.14693475 -0.1123621 0.103096776
-0.07305022 0.16739723 0.018429214 0.11650594 -0.1356215 0.053626534 0.035713762 -0.11667424
-0.16653103 0.00971978 0.12412881 0.08986378 -0.041071493 -0.13516058 0.08296778 0.035191692
-0.14653248 0.029840115 0.10779697 -0.10562556 -0.13279045 0.09764921 -0.0039433646 -0.016699845
0.05592916 0.12287258 -0.15824988 -0.11748073 -0.021326052 0.0053867255 -0.1518518 -0.029358862
00000000: f449 1c3e 25a9 693d 3aa5 05be c2c9 093e
00000010: 436f 9bbd dc49 91bc bd70 1c3e b25c e8bd
00000020: f5f2 0fbd 2286 f33d 036e fabb 32eb a53b
00000030: 052e d0bd c7ed ae3d 39f2 0b3e c3f0 143e
00000040: 7747 b2bd 06af fa3c eb5f 0abe 3dd8 253e
00000050: 4958 d13c af2d 19be 4dca c13c f475 dfbc
00000060: 85ab 243d 767f f3bd d931 1bbe fc66 b53d
00000070: 953d d13d 2d08 223e b9f2 bebd 536c a5bd
00000080: c310 00be a9df a1bd c9d1 9fbd a3a9 c03d
00000090: 4882 08be fe4f 5fbc 951e 0b3e 9f7a 19be
000000a0: 547a 1a3e 96ab b93c babc 7d3d 0535 d13c
000000b0: f214 983c 507e 293e c7bf 13be d6ba 2fbe
000000c0: efcb 8bbd 0f1c 793d 0958 fc3b 0fac 8f3d
000000d0: 6235 d73d 138f 233e 6dc6 ae3d 894d 143d
000000e0: 2d39 8bbd 2619 053e 4014 333d 6740 1d3e
000000f0: 23be 13be 6382 a8bd 34c4 99bd ebee 34be
00000100: e195 6dbd 9de4 113e dde2 fa3c 8589 c4bc
00000110: e050 0fbe 048d 29be f2d4 143e 1f63 583d
00000120: b16e cfbd 3651 d63d 10f0 a0bc 0809 8c3c
00000130: 1dd3 adbc b00e 21bb 51f0 db3d b919 123e
00000140: ba71 e0bc 5715 903d 7f8a 153d 7de8 203e
00000150: e17a 16be 28ab 03be 79fe 8abd c19c fd3d
00000160: 7767 92bd edee 033e 6af8 2b3e 83c7 babd
00000170: 933d 82bd 1076 16be 1a1e e6bd 6724 d33d
00000180: 5b9b 95bd 2e6a 2b3e ddf8 963c ab9a ee3d
00000190: 5de0 0abe 7fa7 5b3d 9848 123d e7f2 eebd
000001a0: 1c87 2abe b63f 1f3c 3f37 fe3d 800a b83d
000001b0: 953a 28bd 8967 0abe 03eb a93d 2a25 103d
000001c0: 9c0c 16be 4273 f43c a8c4 dc3d 3752 d8bd
000001d0: 38fa 07be 4ffc c73d 5737 81bb 1dce 88bc
000001e0: fa15 653d 9fa4 fb3d 420c 22be bd99 f0bd
000001f0: f9b3 aebc 2183 b03b 0a7f 1bbe ff81 f0bc

net.4.bias f4 [4]
-0.063571505 0.15423155 -0.02011631 0.036861338
00000000: c731 82bd e0ee 1d3e f6ca a4bc eafb 163d

extractor.0.weight f4 [32, 2]
0.7539106 -0.3357798 0.35030216 -0.36305383 -0.53967327 -0.2956989 -0.6741205 0.5245863
0.6178217 -0.6782025 -0.23884551 -0.06939824 0.34437665 0.61737216 -0.64275897 -0.6374441
0.09493066 0.4512787 -0.19285032 0.362188 0.4590198 -1.1128227 0.45607665 0.34918192
-0.17945181 0.31336534 0.17680898 0.8161247 0.3581431 -0.45625284 -0.35155815 -0.21780412
-0.017828764 -0.13527246 -0.0075087547 0.53453845 0.29344493 -0.39658394 0.4537287 -0.6078318
-0.5406816 -0.06680014 0.3216521 0.5861379 -0.47606727 -0.1305464 0.2994861 0.32424656
0.014570816 0.7755082 -0.4445754 -0.018903188 -0.1260094 0.2373739 0.18254974 -0.5044442
0.23693784 -0.2618598 -0.009657866 -0.6580588 0.1930193 -0.3056668 -0.6638486 0.074613616
00000000: 4900 413f 54eb abbe ce5a b33e 31e2 b9be
00000010: 0728 0abf d965 97be 2993 2cbf 4a4b 063f
00000020: 9029 1e3f ae9e 2dbf eb93 74be aa20 8ebd
00000030: 2352 b03e 1a0c 1e3f da8b 24bf 892f 23bf
00000040: 026b c23d 000e e73e 8e7a 45be b570 b93e
00000050: a504 eb3e f970 8ebf e182 e93e f9c7 b23e
00000060: 37c2 37be 6c71 a03e 6a0d 353e 8ced 503f
00000070: 885e b73e f999 e9be 6eff b3be 0b08 5fbe
00000080: a10d 92bc dd84 0abe 000c f6bb 83d7 083f
00000090: 6a3e 963e 0d0d cbbe 214f e83e dd9a 1bbf
000000a0: 1c6a 0abf 83ce 88bd 96af a43e 220d 163f
000000b0: 17bf f3be f5ad 05be 3e56 993e a503 a63e
000000c0: 6fba 6e3c b587 463f 639f e3be dcda 9abc
000000d0: 9c08 01be 2512 733e 52ee 3a3e 4123 01bf
000000e0: d59f 723e 7d12 86be 073c 1ebc 8b76 28bf
000000f0: daa6 453e 5c80 9cbe fbf1 29bf 06cf 983d

extractor.0.bias f4 [32]
0.68996996 -0.374428 0.47062594 -0.4463932 -0.37108356 -0.57078964 -0.16795734 0.41275343
-0.09437579 0.7373304 0.37216774 -0.4257828 0.13574949 -0.5365286 -0.5223755 0.9769871
0.61085266 -0.20873457 0.7880196 0.59060943 -0.10745929 -0.07133112 -0.5283372 0.80316633
0.7382164 0.67151517 0.46495518 1.0027487 0.51783514 -0.218422 0.94293267 0.7330465
00000000: dfa1 303f 07b5 bfbe e2f5 f03e a68d e4be
00000010: aafe bdbe 451f 12bf 02fd 2bbe 6b54 d33e
00000020: 1848 c1bd afc1 3c3f c58c be3e 3400 dabe
00000030: ea01 0b3e f059 09bf 67ba 05bf d41b 7a3f
00000040: d760 1c3f 84be 55be a7bb 493f 2e32 173f
00000050: 9e13 dcbd 0d16 92bd 1b41 07bf 4f9c 4d3f
00000060: c0fb 3c3f 6be8 2b3f 9b0e ee3e 125a 803f
00000070: d890 043f 04aa 5fbe 0964 713f efa8 3b3f

extractor.2.weight f4 [32, 32]
0.27271742 -0.063352734 0.47375238 0.25753653 0.31388286 0.086594746 -0.012889927 0.24240345
-0.13336264 0.17898394 0.4325396 -0.2840801 -0.093185276 -0.1294044 0.3291746 0.33893135
0.30941448 -0.06540397 0.25782079 0.47048324 0.0054131937 0.025844894 -0.08533129 0.1077887
0.019353759 0.4677305 -0.043748677 0.4891513 0.3693082 -0.08916842 0.10747644 0.16725296
-0.16377555 0.16545989 0.016574752 0.04940384 -0.009083615 0.07451974 -0.024715206 -0.036595576
-0.059906516 -0.09179657 -0.09371922 -0.09077539 0.0014302322 -0.023860594 -0.045781612 0.12416987
-0.07847234 -0.02351164 -0.03477446 0.09081664 -0.061955024 -0.096306495 0.10247882 -0.0629148
0.061031844 -0.073674925 -0.17681801 -0.012857376 0.06340856 -0.10904405 0.0755269 0.030427285
-0.16428578 0.053890835 -0.159784 -0.022876402 0.04129171 0.13406107 -0.07040766 -0.116338365
-0.072059944 0.03848258 -0.12292092 -0.10159759 -0.025145737 0.0074657453 0.012991745 -0.04987281
-0.07262505 0.15414873 -0.14009553 0.108397074 -0.06980146 0.0067929337 0.10539047 -0.1395986
-0.00070218754 -0.14967823 -0.0003772986 0.034445226 0.004903596 -0.15608878 0.04291371 -0.15241033
0.1301606 0.11252081 0.45809153 0.51740336 0.074424066 0.030625585 0.16766891 0.77051204
0.12855837 0.15564987 -0.1253244 -0.15544173 0.38124722 -0.12483529 -0.15630512 0.6830395
0.2676774 -0.021063216 0.04321469 -0.12523341 0.14534101 0.18597332 -0.12708224 0.22003405
0.001730833 0.64908427 0.32928246 0.16234984 0.038436435 -0.034265094 -0.061834488 0.57666785
0.3385407 -0.070950545 0.25319344 0.17279689 0.14602011 -0.15376447 -0.1246435 0.29399568
0.11048811 0.02959361 0.2817653 -0.2860861 0.050117567 -0.24460801 0.26551828 0.36242437
0.28920144 -0.17319728 0.2652132 0.28581342 -0.07844453 -0.10454903 0.08386346 0.07834832
0.15044181 0.3002093 0.029466199 0.46579334 0.529161 0.15274298 0.2930831 0.2141557
-0.041779917 -0.086199194 0.09959605 0.1562328 -0.03094354 0.16635603 -0.1075985 -0.072620854
-0.13719627 -0.055970278 0.07655556 0.13966243 -0.11876891 0.016883079 -0.012061416 -0.0690157
-0.067157924 0.07439597 0.14772221 0.058795042 0.09113441 -0.13460615 -0.030076453 -0.14952286
0.12702933 -0.038009778 -0.021278573 0.02247369 0.036793567 -0.0008139188 -0.016074197 0.084157944
-0.07236917 0.15875262 0.16305535 -0.16667102 -0.075950876 0.050458837 0.095324054 -0.044813983
-0.08560499 -0.15464117 -0.08963533 -0.06647955 0.03207137 0.16883078 0.07116759 0.1382385
-0.06290674 0.11169277 -0.004990187 -0.1121872 0.1530225 -0.071222484 0.008572079 -0.14074877
-0.04469142 0.061110716 0.015542135 -0.019800337 -0.11294245 0.14567064 -0.12825574 -0.018148601
0.11439612 -0.0319224 -0.16616617 -0.2177937 -0.01170511 0.1694278 0.14281115 -0.007525957
0.089873835 0.13112584 -0.2561596 0.32520807 0.02008346 0.10910041 -0.32991153 -0.15875363
-0.002257821 0.091532715 -0.20230824 -0.41432008 -0.08170809 0.116415165 -0.09463746 0.21312802
0.18433467 -0.19011186 0.18682499 -0.27145407 -0.40706486 -0.16823414 0.08224539 -0.20567587
00000000: 9ea1 8b3e 14bf 81bd ac8f f23e d4db 833e
00000010: 41b5 a03e 9658 b13d 4630 53bc 9c38 783e
00000020: 3790 08be 9147 373e d575 dd3e f272 91be
00000030: ecd7 bebd 9682 04be 9389 a83e 6988 ad3e
00000040: 936b 9e3e 84f2 85bd 1601 843e 2ee3 f03e
00000050: 2961 b13b acb8 d33c 2cc2 aebd 52c0 dc3d
00000060: c68b 9e3c 5f7a ef3e d031 33bd 0a72 fa3e
00000070: f715 bd3e ef9d b6bd 9c1c dc3d 5c44 2b3e
00000080: c7b4 27be 516e 293e c6c7 873c ae5b 4a3d
00000090: 71d3 14bc ce9d 983d 8b77 cabc 3ee5 15bd
000000a0: 8960 75bd d7ff bbbd ddef bfbd 73e8 b9bd
000000b0: a176 bb3a 4b77 c3bc 8085 3bbd c64c fe3d
000000c0: 1bb6 a0bd 7c9b c0bc aa6f 0ebd 13fe b93d
000000d0: 8dc4 7dbd 573c c5bd 6ae0 d13d 7ad9 80bd
000000e0: 87fc 793d e1e2 96bd c80f 35be bea7 52bc
000000f0: 59dc 813d 7d52 dfbd d9ad 9a3d a442 f93c
00000100: 883a 28be a3bc 5c3d 6b9e 23be 4b67 bbbc
00000110: 7f21 293d 4e47 093e e431 90bd cf42 eebd
00000120: 2a94 93bd e99f 1d3d f7bd fbbd 6612 d0bd
00000130: 6ffe cdbc 36a3 f43b 54db 543c 6e47 4cbd
00000140: 71bc 94bd 2ad9 1d3e 3475 0fbe 49ff dd3d
00000150: 11f4 8ebd 4297 de3b f5d6 d73d eff2 0ebe
00000160: 0213 38ba 4045 19be 29d0 c5b9 7016 0d3d
00000170: 58ae a03b bdd5 1fbe 49c6 2f3d 7411 1cbe
00000180: d248 053e 4f71 e63d f98a ea3e 8c74 043f
00000190: a56b 983d 82e2 fa3c 66b1 2b3e 4740 453f
000001a0: cea4 033e ae62 1f3e 0a55 00be 1e2c 1fbe
000001b0: d632 c33e a5a9 ffbd 730e 20be addb 2e3f
000001c0: 030d 893e c48c acbc e301 313d 303d 00be
000001d0: 46d4 143e ca6f 3e3e d921 02be 9b50 613e
000001e0: 1edd e23a 632a 263f b697 a83e 093f 263e
000001f0: 866f 1d3d 8e59 0cbd 2946 7dbd 81a0 133f
00000200: 3555 ad3e 854e 91bd 92a2 813e abf1 303e
00000210: 4c86 153e 6f74 1dbe 1745 ffbd 9a86 963e
00000220: 9747 e23d 4c6e f23c 8b43 903e e179 92be
00000230: 1448 4d3d 867a 7abe 03f2 873e b08f b93e
00000240: 3612 943e a15a 31be 06ca 873e 2356 923e
00000250: 87a7 a0bd cd1d d6bd 9bc0 ab3d 1675 a03d
00000260: 6b0d 1a3e 09b5 993e 1963 f13c 777c ee3e
00000270: 1877 073f a868 1c3e fd0e 963e a24b 5b3e
00000280: 6b21 2bbd 3489 b0bd 04f9 cb3d 7efb 1f3e
00000290: 4f7d fdbc 3c59 2a3e 9a5c dcbd 3eba 94bd
000002a0: 2e7d 0cbe 1741 65bd 29c9 9c3d ab03 0f3e
000002b0: 1d3d f3bd 624e 8a3c 3f9d 45bc 1a58 8dbd
000002c0: 188a 89bd ea5c 983d 7e44 173e 12d3 703d
000002d0: ada4 ba3d 32d6 09be e562 f6bc 851c 19be
000002e0: fa13 023e 24b0 1bbd 6750 aebc be1a b83c
000002f0: dab4 163d 2b5d 55ba 09ae 83bc 005b ac3d
00000300: 4a36 94bd 0c90 223e fbf7 263e cfab 2abe
00000310: 228c 9bbd edad 4e3d 4239 c33d de8e 37bd
00000320: ab51 afbd 415a 1ebe ba92 b7bd 6e26 88bd
00000330: 455d 033d fae1 2c3e 50c0 913d 658e 0d3e
00000340: 40d5 80bd 2ebf e43d b984 a3bb 67c2 e5bd
00000350: eeb1 1c3e 18dd 91bd e871 0c3c 7220 10be
00000360: 5a0e 37bd 3b4f 7a3d 70a4 7e3c 5134 a2bc
00000370: 5f4e e7bd af2a 153e 7955 03be 60ac 94bc
00000380: 8348 ea3d 10c1 02bd 7727 2abe 5005 5fbe
00000390: cac6 3fbc 7b7e 2d3e 163d 123e 4e9c f6bb
000003a0: c60f b83d da45 063e 5a27 83be ac81 a63e
000003b0: 1186 a43c 0970 df3d 2aea a8be 5090 22be
000003c0: f3f7 13bb 8175 bb3d e429 4fbe c321 d4be
000003d0: 9256 a7bd 136b ee3d 49d1 c1bd 3b3e 5a3e
000003e0: 3ac2 3c3e afac 42be 0d4f 3f3e 07fc 8abe
000003f0: ce6a d0be 9245 2cbe 4570 a83d b29c 52be

extractor.2.bias f4 [32]
0.25913304 0.049801614 0.114445336 0.19779126 0.12654883 -0.03591927 0.14570403 0.044873893
0.15855123 0.11015675 0.12988988 0.12368264 -0.14833026 0.105021395 0.22084384 -0.14507377
0.30239385 0.22811984 -0.063087285 -0.06560426 -0.07236459 0.0353517 0.18537231 0.12639073
-0.1724397 0.18923095 0.06662291 0.08761125 -0.05282574 0.17094158 0.07907674 -0.11698566
00000000: 16ad 843e c7fc 4b3d 5162 ea3d cb89 4a3e
00000010: 0496 013e 1620 13bd 7033 153e b0cd 373d
00000020: 415b 223e dd99 e13d da01 053e 534d fd3d
00000030: e3e3 17be 7515 d73d e324 623e 388e 14be
00000040: 5ed3 9a3e 3f98 693e e833 81bd 875b 86bd
00000050: e333 94bd f2cc 103d 3dd2 3d3e 926c 013e
00000060: 0894 30be c2c5 413e 9871 883d 876d b33d
00000070: ce5f 58bd 4f0b 2f3e fcf2 a13d 2d96 efbd

classifier.0.weight f4 [4, 32]
0.037907526 0.035143796 0.00647365 -0.4246142 0.09095471 -0.08784787 -0.058240075 -0.18529402
0.18819714 -0.09617882 0.006249994 0.16832052 -0.09975879 0.14536381 0.13110349 0.12131079
-0.6308305 -0.38336766 -0.02566667 -0.067884706 -0.14647435 0.015096005 0.16078809 0.096813984
-0.17419311 0.030302307 -0.027894601 -0.1451133 -0.01562802 0.046845067 -0.15415822 0.16541615
0.40768385 0.029210238 -0.13688478 -0.13737862 0.36504194 0.01191365 0.007717973 0.050759587
0.3516158 0.1453595 -0.029987028 0.11338071 0.045182332 0.047317963 -0.07937141 -0.077039294
0.15343043 0.5735725 -0.014082375 0.10223623 -0.21096182 0.07344526 -0.30674398 0.037022255
-0.15771349 -0.1331777 -0.24372053 -0.13183258 0.10939661 0.52973044 -0.006394129 0.059473712
-0.017868167 -0.06346721 -0.082720526 0.4756064 -0.036357887 -0.09549114 0.05234569 0.3320828
-0.025376622 0.14253868 0.015038383 -0.061123386 -0.13912953 0.1743172 0.11315249 0.07160497
0.59603626 -0.67398965 -0.14066139 0.04852921 -0.1091637 0.12701991 0.23686814 0.007899289
0.033326544 0.30145195 0.033497512 0.15191704 0.076657765 0.110425286 -0.08285573 -0.05614224
-0.2803502 -0.07784874 -0.013423665 0.023572449 -0.20407149 0.13805963 0.012081963 0.024685374
0.05058625 0.020384902 -0.3476009 -0.15159951 -0.17438345 -0.22190213 -0.12600736 -0.03882915
-0.6765165 -0.088505395 -0.066753455 -0.08601832 0.11344458 0.09975782 0.037188582 -0.07895858
0.07935955 -0.15283442 0.07902899 -0.03568597 0.086763 -0.41338268 -0.16660954 -0.10472441
00000000: ec44 1b3d f1f2 0f3d ea20 d43b 0867 d9be
00000010: 7746 ba3d 96e9 b3bd 258d 6ebd b7bd 3dbe
00000020: c0b6 403e 67f9 c4bd c0cc cc3b 375c 2c3e
00000030: 564e ccbd 40da 143e fe3f 063e cb71 f83d
00000040: 1c7e 21bf c448 c4be e942 d2bc 2307 8bbd
00000050: 5ffd 15be 3c55 773c a2a5 243e 6946 c63d
00000060: ae5f 32be 8b3c f83c 3883 e4bc 9598 14be
00000070: 5506 80bc 9de0 3f3d a7db 1dbe da62 293e
00000080: f0bb d03e 4f4a ef3c 862b 0cbe fbac 0cbe
00000090: c7e6 ba3e 7831 433c 0de7 fc3b 49e9 4f3d
000000a0: fc06 b43e 1fd9 143e 5ba7 f5bc 2534 e83d
000000b0: 1c11 393d 7bd0 413d 7a8d a2bd c7c6 9dbd
000000c0: de1c 1d3e a6d5 123f c3b9 66bc 3b61 d13d
000000d0: 6006 58be 786a 963d 8c0d 9dbe a6a4 173d
000000e0: a57f 21be bc5f 08be e091 79be 1fff 06be
000000f0: 540b e03d 6a9c 073f d785 d1bb b59a 733d
00000100: 4360 92bc 19fb 81bd 6169 a9bd af82 f33e
00000110: 02ec 14bd dc90 c3bd 6f68 563d c206 aa3e
00000120: a2e2 cfbc a9f5 113e 8d63 763c 845c 7abd
00000130: f977 0ebe 3580 323e 7ebc e73d a0a5 923d
00000140: d595 183f 968a 2cbf 8a09 10be 91c6 463d
00000150: 3891 dfbd 8211 023e 908d 723e 056c 013c
00000160: 6a81 083d e957 9a3e b034 093d 2490 1b3e
00000170: bffe 9c3d a726 e23d 44b0 a9bd 68f5 65bd
00000180: 108a 8fbe 296f 9fbd efee 5bbc 021b c13c
00000190: 1ef8 50be 815f 0d3e 6df3 453c fb38 ca3c
000001a0: 8733 4f3d 3dfe a63c bff8 b1be e73c 1bbe
000001b0: 9391 32be 503a 63be 1308 01be 510b 1fbd
000001c0: 2f30 2dbf 5142 b5bd 09b6 88bd 5f2a b0bd
000001d0: a255 e83d d44d cc3d 0e53 183d 09b5 a1bd
000001e0: 4287 a23d a080 1cbe f3d9 a13d 742b 12bd
000001f0: cdb0 b13d e5a6 d3be b19b 2abe c079 d6bd

classifier.0.bias f4 [4]
-0.017116385 0.23715565 0.10634603 -0.24181303
00000000: a937 8cbc eed8 723e f3cb d93d d69d 77be
