Gridworld_OTDD/envs/policy_models/SAC/set_stc/iter_0/model_2857.pth (torch, 14315 bytes, 12 tensors)

net.0.weight f4 [32, 2]
000000 66 55 0f 3f e5 3d 82 bd fb 5c 03 be 10 3b f7 be
       0.5598968 -0.06359462 -0.12828438 -0.4828725
000010 72 47 27 bf 7f 05 e0 3d 0f dd ca 3d c6 8b d7 3e
       -0.6534339 0.10938548 0.09905445 0.42098826
000020 7b a6 e7 bd c6 d8 b7 3e 6e cc 59 bc e5 84 9f be
       -0.113110505 0.35907573 -0.013293369 -0.31156078
000030 cf cd 2c 3f 79 66 08 bf 37 fe 76 be 13 6a ea 3e
       0.6750154 -0.5328136 -0.24120413 0.45784053
000040 98 85 1d bf 79 a1 a0 3e 75 27 97 be b2 26 aa be
       -0.6153197 0.31373194 -0.2952229 -0.33232647
000050 56 35 c7 3d 8a 01 0d 3f 04 ff 1f bf ed b2 49 be
       0.0972697 0.55080473 -0.624985 -0.19697161
000060 2a 70 46 3e 5f 83 9f be 50 7c 5c be f2 5b 25 3f
       0.19378725 -0.31154916 -0.21531796 0.6459342
000070 ad f8 96 be ae 45 ba 3e 7d 66 ac 3e c7 5c d4 3e
       -0.294866 0.36381286 0.33671942 0.41477033
000080 d3 df 6b 3e 55 d5 51 3e 84 0c 2b 3e 1b b8 99 3e
       0.23034601 0.20491536 0.16703993 0.30023274
000090 e6 c5 00 3f ee 9d 01 bf 4f 3f 0f 3e 49 65 19 be
       0.5030197 -0.50631607 0.13988994 -0.14980043
0000a0 cc e9 af be 43 13 eb be 42 56 93 3e 4b 7c 2d bf
       -0.3435806 -0.45913133 0.28776747 -0.6776778
0000b0 77 25 31 3f b6 2b 30 3e ff 5f 04 bf 8d e0 33 bf
       0.6919779 0.17204174 -0.5170898 -0.7026451
0000c0 cb 69 80 be a8 59 c8 3e 2c 70 10 bf 0a 5c de 3d
       -0.25080714 0.39130902 -0.5642116 0.10857399
0000d0 cd 6c 22 bf 01 4a 17 3d 0a 39 e8 be e1 4e 08 bf
       -0.63447267 0.03693581 -0.45356017 -0.5324536
0000e0 ca c2 c5 3e 85 77 94 3e e3 22 e2 be 9d 37 a9 3e
       0.38625175 0.28997436 -0.4416724 0.33050242
0000f0 da ed 83 be d1 ea 14 3f dc 70 d3 be cd 41 ba bd
       -0.25767404 0.581708 -0.41297042 -0.09094582

net.0.bias f4 [32]
000000 a7 f3 24 bf f0 bf 99 3e d8 3f 20 3f b8 35 70 bd
       -0.64434284 0.3002925 0.6259742 -0.05864498
000010 f1 19 34 3f 20 de 5a be cb b6 1f bf 48 bb 40 be
       0.70352083 -0.21373796 -0.62388295 -0.18821442
000020 fb 6f 19 be 1f df 0f 3f bf 29 d8 3e e6 bd 15 3f
       -0.14984123 0.5619983 0.4221935 0.5849289
000030 0a f6 11 3e 15 a8 e5 bd e4 0c 27 bf e7 b8 c7 3e
       0.14254013 -0.112137 -0.65254045 0.39008257
000040 57 3c fe be 2c 4f 20 be 97 1e 10 3f 5a e2 28 3f
       -0.4965541 -0.15655202 0.56296676 0.65970385
000050 cf 9d 43 be f1 76 36 be c0 b1 4e 3e d3 0e 33 bf
       -0.19103168 -0.1781881 0.20184994 -0.69944495
000060 de 81 41 3e 3a 0d e9 be d3 6e bc be b4 9f a9 3e
       0.18897197 -0.45517904 -0.36803302 0.33129656
000070 98 fb ec 3e 8a 87 3e be 8b 27 4c 3e 6c 23 bd 3e
       0.462857 -0.18606392 0.1993696 0.36941087

net.2.weight f4 [32, 32]
000000 1c f7 1c bd b7 c7 e5 3d 3f e4 cd bd bb 1f 30 be
       -0.0383216 0.11219733 -0.100533 -0.17199604
000010 31 12 a7 3d e4 51 83 3c 1d 5e 1b 3e 9d 69 cc bb
       0.081577666 0.01603026 0.1517262 -0.006238176
000020 86 e4 bc 3d a6 f9 ba bc 4f 11 c9 bc 4f dc 67 3d
       0.09223275 -0.02282412 -0.024544386 0.056606587
000030 a3 86 b3 3d ff 26 13 3e fd 5b 53 bc 69 f9 a6 bd
       0.08765914 0.14370345 -0.01290035 -0.0815304
000040 8b 1d 31 bc 27 94 8a bd 8f f9 cf 3d 2b 4b 20 be
       -0.010810266 -0.06766539 0.101550214 -0.15653674
000050 e1 0f 93 bd 3a 3e 19 3e d2 bd 10 3e 5d e2 16 3e
       -0.07180763 0.14965144 0.1413491 0.14734788
000060 97 45 0c be c1 bc 0e be da 3f 7e bd e5 29 d7 bd
       -0.13698421 -0.13939191 -0.062072612 -0.105060376
000070 2a 96 d8 3d 8a 3d af bd de f9 b0 3d 04 85 95 3d
       0.105755165 -0.085566595 0.086414084 0.07300761
000080 65 e6 ff 3d 9a b9 2d be d1 84 9b 3d 2a 8e c3 bd
       0.12495116 -0.16965333 0.07593692 -0.095486
000090 21 f7 bc bd 0f 13 0e be 59 b9 b3 bd b0 3d 95 3d
       -0.092268236 -0.13874458 -0.08775587 0.072871566
0000a0 d6 2f 3a bd a2 4c ee 3d 56 0f 03 3e da da 24 3d
       -0.045455776 0.1163571 0.12798819 0.040247776
0000b0 8a 08 2b bd b8 13 9e 3c 48 72 0e 3e 84 f4 15 3e
       -0.04175619 0.019296512 0.13910782 0.14644057
0000c0 87 ee 26 3c 7d 43 6b 3d 30 2d ec 3d 65 92 06 3d
       0.010188705 0.05743741 0.11532056 0.032854456
0000d0 8b 7a 0a be 52 27 37 3d cc 8b ca bd 26 1e 32 3e
       -0.13523309 0.044715233 -0.098899454 0.17394313
0000e0 36 c7 92 bd 7d 4a db bd dd ed b3 bc 3b e3 01 bd
       -0.07166903 -0.10707567 -0.021964008 -0.031710844
0000f0 a2 68 03 3e 0c 56 18 3e 65 a6 b2 bd 3a 9a 27 be
       0.12832883 0.14876574 -0.087231435 -0.16367427
000100 51 ed dc 3c a9 ee 0d 3d 2e 65 af bd d1 14 63 3d
       0.02696863 0.034651432 -0.0856422 0.055439774
000110 ea 39 5b 3c 5c 8c 39 3d dc 6d 36 3d b0 49 ae 3d
       0.013380507 0.045299873 0.044538364 0.085101485
000120 b9 1a 55 bd d8 3a 46 3d 23 eb fa bd d1 b3 2c be
       -0.052027438 0.04839596 -0.1225188 -0.1686547
000130 1c 2c 0b be de 50 f8 bd 4c e3 4d 3c 23 78 00 3e
       -0.13591045 -0.12124799 0.012566399 0.12545829
000140 5f 6f 14 be 2a a4 5e 3c 54 5c 51 3d 5d fc 20 3e
       -0.1449561 0.013588944 0.05111344 0.15721269
000150 a4 bb e7 bd c4 29 2c be b7 e9 4b bd 29 64 cf bd
       -0.113150865 -0.16812807 -0.049783435 -0.10126526
000160 35 71 52 bd ee c6 69 bd 76 45 b9 bd 7c e2 a0 bd
       -0.051377494 -0.05707448 -0.09046452 -0.078556985
000170 9d 83 0c 3e aa 9a d1 3d 05 5f 1b 3d 5b ed 87 bd
       0.13722081 0.10234578 0.037932415 -0.06637069
000180 c7 2b 28 be 6f 54 21 be 6e a1 87 3d 49 ba c0 bc
       -0.1642295 -0.15754865 0.06622587 -0.023526328
000190 b7 bb 8d bd a2 70 34 3c 49 22 00 3d aa 09 2e 3e
       -0.069205694 0.011013182 0.031282697 0.16995874
0001a0 6b 9f 2b 3e 50 22 e2 3d 79 32 34 bd 14 74 c1 3c
       0.16760032 0.11041701 -0.043993447 0.02361492
0001b0 18 dc 14 3e b8 2f cc bc a3 9f 2b 3c d5 3d ae 3d
       0.14537084 -0.024925098 0.010475072 0.08507887
0001c0 53 40 c4 3d cc c9 ab bb b6 5b 01 be 5d ff 2f bd
       0.09582581 -0.005242562 -0.12632641 -0.042968143
0001d0 32 06 e8 bd 8d 52 d1 3d 5f cb 3f 3c f0 f6 09 3e
       -0.11329307 0.102208234 0.011706202 0.13473105
0001e0 57 6a 5d 3d 0e 55 1b 3d 3b 2b 1c 3e 4f 87 03 be
       0.05405649 0.03792291 0.15250866 -0.12844585
0001f0 8e 8c dc 3d 3c 59 92 3d 08 a2 a5 bd 35 94 b9 bd
       0.10768996 0.07145926 -0.08087546 -0.090614714
000200 f3 56 db 3c 17 61 3a bd 1a a3 e5 bd 81 e0 1c 3e
       0.026774859 -0.04550275 -0.1121275 0.15320016
000210 9f d0 4e bc 99 77 66 bd 58 ac 1e 3e 12 9b bf bc
       -0.012622981 -0.0562664 0.15495431 -0.023389373
000220 6f 09 16 3e 46 32 97 3c 9f 54 09 3e 63 1e de 3c
       0.14652036 0.01845659 0.13411187 0.027114099
000230 6b 8e 2a 3e 6a be f3 3d 77 b8 c0 3d d2 e9 a6 bd
       0.1665589 0.11901553 0.09410184 -0.081500664
000240 6b e5 f7 3b b8 8d 09 3e 80 c8 18 3e 5b 50 0c 3e
       0.0075651905 0.13432968 0.14920235 0.13702528
000250 ab fb 5a bd 4d 6f 16 be cd 4d 29 bd df 83 b6 3d
       -0.053462666 -0.14690895 -0.041333962 0.08911871
000260 33 b0 64 ba 9b 0b 0d be 78 fd 6d bc 3a 70 a5 3d
       -0.00087237655 -0.13773958 -0.014525764 0.08078046
000270 c7 f9 13 be 54 fc 02 bc c2 7f 2a 3e ff b2 ff bc
       -0.14450751 -0.00799473 0.16650298 -0.031213282
000280 ea 9b 27 3e ea f4 65 3d 31 91 84 3d d0 f2 7f bc
       0.1636807 0.05614177 0.064730056 -0.015621856
000290 2f 0a 12 3e 76 62 ff bd 9e 58 09 bd 00 a5 ac ba
       0.14261697 -0.12469952 -0.033531778 -0.0013171732
0002a0 77 6e 2f 3e cd ac 4e 3d 88 c4 93 bc a6 1e b5 3d
       0.17131983 0.050457764 -0.01803805 0.08843736
0002b0 3e 40 14 be 5a f0 63 3d 4d 72 8c 3c 03 b6 07 be
       -0.14477631 0.05564914 0.017144347 -0.13253026
0002c0 a0 88 9c 3d 4e 8f 07 3e 05 2e c5 bd 7c cb d8 bd
       0.07643247 0.1323826 -0.09627918 -0.105856866
0002d0 8e 17 a2 bd 9e ef 17 be 67 0b 7c bc 9e 77 b8 3d
       -0.07914649 -0.148375 -0.015383578 0.0900719
0002e0 4b c4 2e be f3 55 69 bd f6 7d f5 bd be 16 06 bd
       -0.17067067 -0.056966733 -0.11986916 -0.032736532
0002f0 61 cb 15 be 79 c4 ab 3d 17 e4 0a 3e 4e 9a 63 bc
       -0.14628364 0.083870836 0.13563572 -0.01389177
000300 87 62 e0 bd 2d 8f dd 3d 73 b1 02 be a2 12 4d bd
       -0.109562926 0.10818324 -0.12763004 -0.050066598
000310 27 67 c5 bc 70 75 43 bc c6 75 f9 3d 73 55 78 bd
       -0.024097038 -0.011929855 0.121806666 -0.060628366
000320 fd 73 aa 3d 48 b7 07 be 01 74 3a 3c af 3b bb bd
       0.08322904 -0.1325351 0.011380197 -0.09142243
000330 90 5a 85 bd dd 87 22 bd 7b 88 1a 3d 2a e3 66 3d
       -0.06511414 -0.03968035 0.037727814 0.056368984
000340 6f 40 5b bd 9b 96 7e bd 43 70 2e 3e 1b 64 4d bd
       -0.053528246 -0.062155347 0.17035012 -0.050144296
000350 e1 aa 80 3d a3 64 7b 3d df 2e 1f 3e 0d fb ba 3d
       0.062825926 0.06137527 0.15545224 0.091299154
000360 cf f2 00 be 65 a2 27 3e 8a 47 e1 bc 4c 1f 3c bd
       -0.12592624 0.16370542 -0.027499933 -0.045928285
000370 f1 c9 cb 3d 90 24 7a bd 4a 60 0f 3e f5 50 a5 3c
       0.09950627 -0.061070025 0.14001575 0.020180205
000380 df 0e 13 3d 87 3e 1b be d5 87 d0 bd e2 8b ab 3d
       0.035902854 -0.15160571 -0.10182158 0.0837629
000390 e3 64 18 be 1b 5b 24 3e ac aa 2f 3e 6b 70 04 be
       -0.14882235 0.16050379 0.1715495 -0.12933509
0003a0 45 e5 17 be 7d b0 21 3e 79 82 20 be 2d ea e3 3d
       -0.14833553 0.15789981 -0.15674771 0.1112865
0003b0 84 6a d5 3c 12 0a 79 bc 4d 74 d4 3d bd 30 a1 3d
       0.026051767 -0.015200155 0.10373745 0.07870624
0003c0 cb b0 a7 3d 2b eb 33 3c 13 b9 8b 3d 54 09 86 bc
       0.081880175 0.010981361 0.068224095 -0.01636187
0003d0 fd 27 09 be 5d 45 db 3d ac df f7 3d 83 15 ca 3d
       -0.1339416 0.10706589 0.12103209 0.09867384
0003e0 b6 4b ab bd 26 e8 ea 3d e5 96 dc bd 3e 6e dd 3d
       -0.0836405 0.1147006 -0.10770968 0.10812043
0003f0 15 35 cd bb d5 d1 db bd 01 c1 ba 3d ae 2d 9f bd
       -0.0062624314 -0.10733382 0.09118844 -0.077723846

net.2.bias f4 [32]
000000 60 26 58 3c cf 8b 70 3c a7 15 be 3d 51 1a 9e 3d
       0.013192743 0.0146817705 0.092814736 0.07719863
000010 79 fd 00 3e 6a a9 03 be 6a 32 0d bc 94 4f b4 bc
       0.12596692 -0.12857595 -0.008617977 -0.022010602
000020 40 27 01 3c 03 65 34 be 4d 26 a7 3c c0 22 ef 3d
       0.007882893 -0.17616658 0.020404005 0.1167655
000030 cc 1a ac 3d 1c d3 cb bd 78 4e e5 bd 39 b5 1f bd
       0.084035486 -0.09952375 -0.11196607 -0.038991187
000040 11 c8 b1 bd 8c 50 aa 3d 71 e0 56 bd 15 5c d8 3d
       -0.08680738 0.08316144 -0.052460138 0.10564438
000050 90 da 00 3e a3 45 17 be ac 99 33 bd e5 41 8b 3d
       0.12583375 -0.14772658 -0.043847725 0.06799678
000060 23 b0 0d be 3e e9 08 be e8 c7 43 3c c6 bc c8 bd
       -0.13836722 -0.13370225 0.011949517 -0.09801631
000070 26 2e a2 3d 2d bf 9f 3d 6a f2 81 3c 0f 05 c8 bd
       0.07918958 0.07800136 0.015862662 -0.0976659

net.4.weight f4 [4, 32]
000000 f4 49 1c 3e 25 a9 69 3d 3a a5 05 be c2 c9 09 3e
       0.15262586 0.057046074 -0.1305131 0.13455871
000010 43 6f 9b bd dc 49 91 bc bd 70 1c 3e b2 5c e8 bd
       -0.07589581 -0.017735414 0.15277381 -0.11345805
000020 f5 f2 0f bd 22 86 f3 3d 03 6e fa bb 32 eb a5 3b
       -0.03514381 0.11890818 -0.007642509 0.005063438
000030 05 2e d0 bd c7 ed ae 3d 39 f2 0b 3e c3 f0 14 3e
       -0.101650275 0.08541446 0.1366662 0.14544968
000040 77 47 b2 bd 06 af fa 3c eb 5f 0a be 3d d8 25 3e
       -0.08705037 0.030601036 -0.13513152 0.1619577
000050 49 58 d1 3c af 2d 19 be 4d ca c1 3c f4 75 df bc
       0.025554793 -0.14958833 0.023656035 -0.027277924
000060 85 ab 24 3d 76 7f f3 bd d9 31 1b be fc 66 b5 3d
       0.040202636 -0.118895456 -0.15155734 0.08857533
000070 95 3d d1 3d 2d 08 22 3e b9 f2 be bd 53 6c a5 bd
       0.10216824 0.15823431 -0.093236394 -0.08077302
000080 c3 10 00 be a9 df a1 bd c9 d1 9f bd a3 a9 c0 3d
       -0.12506394 -0.07903988 -0.07803685 0.09407356
000090 48 82 08 be fe 4f 5f bc 95 1e 0b 3e 9f 7a 19 be
       -0.13330948 -0.0136299115 0.13585885 -0.14988182
0000a0 54 7a 1a 3e 96 ab b9 3c ba bc 7d 3d 05 35 d1 3c
       0.15085727 0.022664826 0.06194756 0.025537977
0000b0 f2 14 98 3c 50 7e 29 3e c7 bf 13 be d6 ba 2f be
       0.018564675 0.1655209 -0.14428626 -0.17161116
0000c0 ef cb 8b bd 0f 1c 79 3d 09 58 fc 3b 0f ac 8f 3d
       -0.068260066 0.060817774 0.0077009243 0.070152394
0000d0 62 35 d7 3d 13 8f 23 3e 6d c6 ae 3d 89 4d 14 3d
       0.10508229 0.15972547 0.085339405 0.036206756
0000e0 2d 39 8b bd 26 19 05 3e 40 14 33 3d 67 40 1d 3e
       -0.06798015 0.12997875 0.043720484 0.15356599
0000f0 23 be 13 be 63 82 a8 bd 34 c4 99 bd eb ee 34 be
       -0.14428 -0.08227994 -0.07508126 -0.17669265
000100 e1 95 6d bd 9d e4 11 3e dd e2 fa 3c 85 89 c4 bc
       -0.058004264 0.14247365 0.030625755 -0.023991356
000110 e0 50 0f be 04 8d 29 be f2 d4 14 3e 1f 63 58 3d
       -0.13995695 -0.165577 0.14534357 0.052828904
000120 b1 6e cf bd 36 51 d6 3d 10 f0 a0 bc 08 09 8c 3c
       -0.101285346 0.104647085 -0.01964572 0.01709415
000130 1d d3 ad bc b0 0e 21 bb 51 f0 db 3d b9 19 12 3e
       -0.02121883 -0.0024575405 0.10739196 0.14267625
000140 ba 71 e0 bc 57 15 90 3d 7f 8a 15 3d 7d e8 20 3e
       -0.027397979 0.0703532 0.036509033 0.15713687
000150 e1 7a 16 be 28 ab 03 be 79 fe 8a bd c1 9c fd 3d
       -0.14695312 -0.1285826 -0.06786818 0.12383414
000160 77 67 92 bd ed ee 03 3e 6a f8 2b 3e 83 c7 ba bd
       -0.071486406 0.12884112 0.16793981 -0.09120085
000170 93 3d 82 bd 10 76 16 be 1a 1e e6 bd 67 24 d3 3d
       -0.063594006 -0.14693475 -0.1123621 0.103096776
000180 5b 9b 95 bd 2e 6a 2b 3e dd f8 96 3c ab 9a ee 3d
       -0.07305022 0.16739723 0.018429214 0.11650594
000190 5d e0 0a be 7f a7 5b 3d 98 48 12 3d e7 f2 ee bd
       -0.1356215 0.053626534 0.035713762 -0.11667424
0001a0 1c 87 2a be b6 3f 1f 3c 3f 37 fe 3d 80 0a b8 3d
       -0.16653103 0.00971978 0.12412881 0.08986378
0001b0 95 3a 28 bd 89 67 0a be 03 eb a9 3d 2a 25 10 3d
       -0.041071493 -0.13516058 0.08296778 0.035191692
0001c0 9c 0c 16 be 42 73 f4 3c a8 c4 dc 3d 37 52 d8 bd
       -0.14653248 0.029840115 0.10779697 -0.10562556
0001d0 38 fa 07 be 4f fc c7 3d 57 37 81 bb 1d ce 88 bc
       -0.13279045 0.09764921 -0.0039433646 -0.016699845
0001e0 fa 15 65 3d 9f a4 fb 3d 42 0c 22 be bd 99 f0 bd
       0.05592916 0.12287258 -0.15824988 -0.11748073
0001f0 f9 b3 ae bc 21 83 b0 3b 0a 7f 1b be ff 81 f0 bc
       -0.021326052 0.0053867255 -0.1518518 -0.029358862

net.4.bias f4 [4]
000000 c7 31 82 bd e0 ee 1d 3e f6 ca a4 bc ea fb 16 3d
       -0.063571505 0.15423155 -0.02011631 0.036861338

extractor.0.weight f4 [32, 2]
000000 5a a9 3f 3f 3e b5 a9 be ba cf b6 3e d4 87 b5 be
       0.74867785 -0.3314609 0.35705358 -0.3545519
000010 07 28 0a bf 30 0b 92 be 70 94 2c bf d7 c6 05 3f
       -0.53967327 -0.2852416 -0.67414 0.5225653
000020 32 49 1e 3f 2e 6f 2d bf eb 93 74 be aa 20 8e bd
       0.6183044 -0.6774777 -0.23884551 -0.06939824
000030 ca df b2 3e d7 dc 1c 3f da 8b 24 bf 89 2f 23 bf
       0.34936363 0.61274475 -0.64275897 -0.6374441
000040 82 44 ce 3d b5 8a e4 3e dc a7 44 be 36 44 b8 3e
       0.100716606 0.44637075 -0.19204658 0.3598954
000050 56 d7 ea 3e 7b 7a 8e bf c2 c4 ea 3e 45 35 b2 3e
       0.45867413 -1.1131128 0.4585324 0.34806266
000060 8a d1 2e be a0 28 9c 3e 94 0a 3b 3e 52 ba 4f 3f
       -0.1707212 0.30499744 0.18265754 0.8114368
000070 a6 80 b7 3e 71 6b e9 be b6 f1 b3 be 74 f0 5e be
       0.35840338 -0.45589784 -0.35145348 -0.21771413
000080 6b 26 ae bc 64 fd 07 be ac 42 a7 ba 57 97 07 3f
       -0.021258553 -0.13280255 -0.0012760959 0.529653
000090 00 21 93 3e 30 64 c7 be bb 04 e6 3e ea 08 1b bf
       0.28736115 -0.38943624 0.44925484 -0.60560477
0000a0 1c 6a 0a bf 83 ce 88 bd c5 b4 a7 3e 54 be 14 3f
       -0.5406816 -0.06680014 0.32755104 0.5810292
0000b0 17 bf f3 be f5 ad 05 be 61 9d 98 3e e2 81 a5 3e
       -0.47606727 -0.1305464 0.2980757 0.32325655
0000c0 aa 45 86 3c ad c7 45 3f 75 4b e3 be 28 4e 93 bc
       0.01639064 0.77257806 -0.44393507 -0.017981604
0000d0 6c f2 f8 bd 45 9d 6e 3e e1 79 35 3e 4c ef fe be
       -0.12155613 0.23302181 0.17722274 -0.49791944
0000e0 c2 01 6c 3e 94 3c 82 be 07 3c 1e bc 8b 76 28 bf
       0.23047546 -0.25436842 -0.009657866 -0.6580588
0000f0 09 35 40 3e 20 b2 99 be 14 f9 29 bf fd 08 98 3d
       0.18770231 -0.3001871 -0.6639569 0.074235894

extractor.0.bias f4 [32]
000000 6a 8e 31 3f b7 84 bb be 76 f3 f5 3e 91 ea e6 be
       0.6935793 -0.3662469 0.48037308 -0.45100835
000010 bd cd bd be 45 1f 12 bf 9c 21 31 be 67 79 d3 3e
       -0.37071028 -0.57078964 -0.17297977 0.4130356
000020 be 11 ce bd 7c 4e 3c 3f 9a aa be 3e f2 98 da be
       -0.10061978 0.7355726 0.37239534 -0.42694813
000030 52 96 02 3e af 0a 0b bf 60 af 05 bf 3f 24 7a 3f
       0.12752655 -0.54313177 -0.52220726 0.9771156
000040 ce 34 1d 3f a8 e2 5c be 66 97 4b 3f 31 81 17 3f
       0.614087 -0.21570837 0.7952789 0.59181505
000050 9e 13 dc bd 26 ad 9e bd 1b 41 07 bf 6f 85 4d 3f
       -0.10745929 -0.07747869 -0.5283372 0.8028173
000060 1c 7f 3c 3f b0 42 2c 3f 55 64 ec 3e 1c 0d 81 3f
       0.73631454 0.6728926 0.46170297 1.0082126
000070 53 d6 06 3f 04 aa 5f be 1b b0 72 3f ce 4b 3b 3f
       0.5267078 -0.218422 0.94799966 0.73162544

extractor.2.weight f4 [32, 32]
000000 a7 b8 8a 3e 1e 78 80 bd f5 66 f4 3e 7d f5 84 3e
       0.27094004 -0.062729105 0.477348 0.25968543
000010 75 40 a0 3e 96 58 b1 3d e7 be 46 bc 2e 3c 79 3e
       0.31299177 0.086594746 -0.012130476 0.24339363
000020 a6 36 07 be 2b 05 3a 3e 67 7f dd 3e d7 fd 91 be
       -0.1320444 0.18166034 0.43261263 -0.28513977
000030 b6 6d b7 bd 0f 78 03 be 59 7f a8 3e 34 55 af 3e
       -0.089564726 -0.12838767 0.3290966 0.34244692
000040 41 c4 9f 3e cd 55 82 bd 3f db 83 3e 98 78 ef 3e
       0.31204417 -0.063640215 0.2575321 0.46771693
000050 29 61 b1 3b bc 3d da 3c 2c c2 ae bd 9c 75 df 3d
       0.0054131937 0.026640765 -0.08533129 0.10911104
000060 29 20 ae 3c 27 45 f1 3e 40 79 28 bd b6 b3 fa 3e
       0.02125557 0.47123072 -0.041131258 0.48965234
000070 a9 9f bc 3e ef 9d b6 bd da 28 de 3d 40 dc 2e 3e
       0.3684056 -0.08916842 0.108476356 0.17076206
000080 c7 b4 27 be 51 6e 29 3e c6 c7 87 3c ae 5b 4a 3d
       -0.16377555 0.16545989 0.016574752 0.04940384
000090 71 d3 14 bc ce 9d 98 3d 8b 77 ca bc 3e e5 15 bd
       -0.009083615 0.07451974 -0.024715206 -0.036595576
0000a0 89 60 75 bd d7 ff bb bd dd ef bf bd 73 e8 b9 bd
       -0.059906516 -0.09179657 -0.09371922 -0.09077539
0000b0 a1 76 bb 3a 4b 77 c3 bc 80 85 3b bd c6 4c fe 3d
       0.0014302322 -0.023860594 -0.045781612 0.12416987
0000c0 1b b6 a0 bd 7c 9b c0 bc aa 6f 0e bd 13 fe b9 3d
       -0.07847234 -0.02351164 -0.03477446 0.09081664
0000d0 8d c4 7d bd 57 3c c5 bd 6a e0 d1 3d 7a d9 80 bd
       -0.061955024 -0.096306495 0.10247882 -0.0629148
0000e0 87 fc 79 3d e1 e2 96 bd c8 0f 35 be be a7 52 bc
       0.061031844 -0.073674925 -0.17681801 -0.012857376
0000f0 59 dc 81 3d 7d 52 df bd d9 ad 9a 3d a4 42 f9 3c
       0.06340856 -0.10904405 0.0755269 0.030427285
000100 88 3a 28 be a3 bc 5c 3d 6b 9e 23 be 4b 67 bb bc
       -0.16428578 0.053890835 -0.159784 -0.022876402
000110 7f 21 29 3d 4e 47 09 3e e4 31 90 bd cf 42 ee bd
       0.04129171 0.13406107 -0.07040766 -0.116338365
000120 2a 94 93 bd e9 9f 1d 3d f7 bd fb bd 66 12 d0 bd
       -0.072059944 0.03848258 -0.12292092 -0.10159759
000130 6f fe cd bc 36 a3 f4 3b 54 db 54 3c 6e 47 4c bd
       -0.025145737 0.0074657453 0.012991745 -0.04987281
000140 71 bc 94 bd 2a d9 1d 3e 34 75 0f be 49 ff dd 3d
       -0.07262505 0.15414873 -0.14009553 0.108397074
000150 11 f4 8e bd 42 97 de 3b f5 d6 d7 3d ef f2 0e be
       -0.06980146 0.0067929337 0.10539047 -0.1395986
000160 02 13 38 ba 40 45 19 be 29 d0 c5 b9 70 16 0d 3d
       -0.00070218754 -0.14967823 -0.0003772986 0.034445226
000170 58 ae a0 3b bd d5 1f be 49 c6 2f 3d 74 11 1c be
       0.004903596 -0.15608878 0.04291371 -0.15241033
000180 d0 46 11 3e bb a1 cf 3d d8 ab cc 3e 21 b5 dd 3e
       0.14187169 0.101382695 0.39974856 0.43302253
000190 4b 8f af 3d 82 e2 fa 3c 49 b8 25 3e bc 1f 1e 3f
       0.08572253 0.030625585 0.1618358 0.6176717
0001a0 5d de e7 3d bf 40 ce 3d c5 40 09 be 47 58 14 be
       0.11321709 0.10070943 -0.13403614 -0.144868
0001b0 43 7e 9e 3e b4 57 0a be a8 0b 07 be 16 8d 1b 3f
       0.30955705 -0.13510019 -0.1318804 0.60762155
0001c0 8d 73 5c 3e a5 dd 3b bd 56 f0 36 3d 8b 55 d0 bd
       0.21528454 -0.045865674 0.044662796 -0.10172566
0001d0 46 d4 14 3e da f3 36 3e d9 21 02 be 00 80 4f 3e
       0.14534101 0.1786646 -0.12708224 0.20263672
0001e0 4e c7 f2 bc 82 0f 13 3f 63 21 8d 3e 31 5b 18 3e
       -0.029636052 0.5744554 0.27564535 0.14878537
0001f0 5f 85 2b 3d 8e 59 0c bd 83 22 a2 bd ee 7d 00 3f
       0.04187524 -0.034265094 -0.07916739 0.50192153
000200 2c 62 ac 3e ac 1d 90 bd bb c3 83 3e c1 3d 33 3e
       0.3366865 -0.070369095 0.25735268 0.17504026
000210 a5 9f 14 3e 6f 74 1d be ef a0 fd bd e6 1e 97 3e
       0.14514025 -0.15376447 -0.12384211 0.2951576
000220 cf 02 e5 3d e1 e5 04 3d 39 4e 90 3e 66 0b 93 be
       0.11182176 0.032445792 0.2818468 -0.28719634
000230 b9 27 5c 3d 46 65 79 be b9 e7 87 3e 62 a7 bb 3e
       0.05374882 -0.24355039 0.26543978 0.3665114
000240 c4 99 95 3e 3a 75 2f be 9d a6 87 3e e5 d1 90 3e
       0.29218876 -0.17134562 0.26494303 0.28285137
000250 87 a7 a0 bd 76 73 d4 bd 9b c0 ab 3d cd 4d a3 3d
       -0.07844453 -0.10373585 0.08386346 0.07973824
000260 69 11 1c 3e 57 b6 9b 3e 8d bf 03 3d 04 cc ee 3e
       0.15241016 0.30412552 0.0321651 0.46640027
000270 3b 3b 07 3f a8 68 1c 3e ae 9f 96 3e 22 3c 5f 3e
       0.52824754 0.15274298 0.294187 0.21800283
000280 6b 21 2b bd 34 89 b0 bd 04 f9 cb 3d 7e fb 1f 3e
       -0.041779917 -0.086199194 0.09959605 0.1562328
000290 4f 7d fd bc 3c 59 2a 3e 9a 5c dc bd 3e ba 94 bd
       -0.03094354 0.16635603 -0.1075985 -0.072620854
0002a0 2e 7d 0c be 17 41 65 bd 29 c9 9c 3d ab 03 0f 3e
       -0.13719627 -0.055970278 0.07655556 0.13966243
0002b0 1d 3d f3 bd 62 4e 8a 3c 3f 9d 45 bc 1a 58 8d bd
       -0.11876891 0.016883079 -0.012061416 -0.0690157
0002c0 18 8a 89 bd ea 5c 98 3d 7e 44 17 3e 12 d3 70 3d
       -0.067157924 0.07439597 0.14772221 0.058795042
0002d0 ad a4 ba 3d 32 d6 09 be e5 62 f6 bc 85 1c 19 be
       0.09113441 -0.13460615 -0.030076453 -0.14952286
0002e0 fa 13 02 3e 24 b0 1b bd 67 50 ae bc be 1a b8 3c
       0.12702933 -0.038009778 -0.021278573 0.02247369
0002f0 da b4 16 3d 2b 5d 55 ba 09 ae 83 bc 00 5b ac 3d
       0.036793567 -0.0008139188 -0.016074197 0.084157944
000300 4a 36 94 bd 0c 90 22 3e fb f7 26 3e cf ab 2a be
       -0.07236917 0.15875262 0.16305535 -0.16667102
000310 22 8c 9b bd ed ad 4e 3d 42 39 c3 3d de 8e 37 bd
       -0.075950876 0.050458837 0.095324054 -0.044813983
000320 ab 51 af bd 41 5a 1e be ba 92 b7 bd 6e 26 88 bd
       -0.08560499 -0.15464117 -0.08963533 -0.06647955
000330 45 5d 03 3d fa e1 2c 3e 50 c0 91 3d 65 8e 0d 3e
       0.03207137 0.16883078 0.07116759 0.1382385
000340 40 d5 80 bd 2e bf e4 3d b9 84 a3 bb 67 c2 e5 bd
       -0.06290674 0.11169277 -0.004990187 -0.1121872
000350 ee b1 1c 3e 18 dd 91 bd e8 71 0c 3c 72 20 10 be
       0.1530225 -0.071222484 0.008572079 -0.14074877
000360 5a 0e 37 bd 3b 4f 7a 3d 70 a4 7e 3c 51 34 a2 bc
       -0.04469142 0.061110716 0.015542135 -0.019800337
000370 5f 4e e7 bd af 2a 15 3e 79 55 03 be 60 ac 94 bc
       -0.11294245 0.14567064 -0.12825574 -0.018148601
000380 7d 14 ee 3d f0 7b 04 bd 65 7d 45 be 6d 1d 61 be
       0.116250016 -0.03234476 -0.19286115 -0.21983881
000390 b7 19 35 bc 7b 7e 2d 3e 89 7a 11 3e 4e 9c f6 bb
       -0.011053494 0.1694278 0.142069 -0.007525957
0003a0 db db b5 3d 49 51 03 3e 61 1b 83 be 27 f8 a6 3e
       0.08879825 0.12823977 -0.25606826 0.326112
0003b0 59 50 8b 3c d7 9c dd 3d b1 e3 a8 be 31 dd 28 be
       0.017006086 0.108209305 -0.32986215 -0.16490628
0003c0 f2 13 d0 bb 4c 2d b8 3d d6 97 4e be 95 46 d2 be
       -0.006350034 0.08993015 -0.20175108 -0.41069475
0003d0 92 56 a7 bd f2 01 ed 3d 49 d1 c1 bd e4 e9 58 3e
       -0.08170809 0.11572637 -0.09463746 0.21182972
0003e0 23 f6 3a 3e e2 75 47 be 0a bc 3c 3e 66 61 8b be
       0.18257956 -0.19478562 0.18431106 -0.27222747
0003f0 63 8c cf be 92 45 2c be 78 f7 a5 3d f4 e9 56 be
       -0.40536794 -0.16823414 0.081038415 -0.20987684

extractor.2.bias f4 [32]
000000 95 ae 85 3e c7 fc 4b 3d 51 62 ea 3d f9 de 22 3e
       0.26109758 0.049801614 0.114445336 0.1590537
000010 f9 c0 03 3e 16 20 13 bd 70 33 15 3e 7c ca 2e 3d
       0.12866582 -0.03591927 0.14570403 0.042673573
000020 9b 68 25 3e dd 99 e1 3d d7 89 04 3e 53 4d fd 3d
       0.16153185 0.11015675 0.12943207 0.12368264
000030 e3 e3 17 be 54 13 d5 3d e3 24 62 3e 38 8e 14 be
       -0.14833026 0.10404077 0.22084384 -0.14507377
000040 e4 82 99 3e b6 cf 70 3e e8 33 81 bd 87 5b 86 bd
       0.29982674 0.23516735 -0.063087285 -0.06560426
000050 e3 33 94 bd fa cf 10 3d c0 31 38 3e 92 6c 01 3e
       -0.07236459 0.035354592 0.17987728 0.12639073
000060 08 94 30 be a6 34 3f 3e 98 71 88 3d 87 6d b3 3d
       -0.1724397 0.18672428 0.06662291 0.08761125
000070 ce 5f 58 bd 26 d4 30 3e fc f2 a1 3d 5e a2 ee bd
       -0.05282574 0.17268428 0.07907674 -0.11652063

classifier.0.weight f4 [4, 32]
000000 55 df 1b 3d f1 f2 0f 3d ea 20 d4 3b f0 b7 96 be
       0.038054783 0.035143796 0.00647365 -0.29437208
000010 5d 8c ba 3d 96 e9 b3 bd 25 8d 6e bd 39 a1 3d be
       0.091088034 -0.08784787 -0.058240075 -0.18518533
000020 86 c8 40 3e 67 f9 c4 bd 0a f1 ce 3b 37 5c 2c 3e
       0.18826494 -0.09617882 0.006315355 0.16832052
000030 56 4e cc bd 9e eb 14 3e fe 3f 06 3e cb 71 f8 3d
       -0.09975879 0.14543006 0.13110349 0.12131079
000040 45 24 21 bf e4 10 c0 be e9 42 d2 bc 23 07 8b bd
       -0.6294597 -0.37512887 -0.02566667 -0.067884706
000050 5f fd 15 be 3c 55 77 3c 43 b2 24 3e 69 46 c6 3d
       -0.14647435 0.015096005 0.16083626 0.096813984
000060 ae 5f 32 be 64 39 f9 3c 38 83 e4 bc 95 98 14 be
       -0.17419311 0.030422874 -0.027894601 -0.1451133
000070 55 06 80 bc 75 94 40 3d a7 db 1d be 4c 67 29 3e
       -0.01562802 0.04701658 -0.15415822 0.16543311
000080 14 4c d1 3e 4f 4a ef 3c 86 2b 0c be ff 2e c1 bd
       0.40878356 0.029210238 -0.13688478 -0.09432792
000090 8c 71 bb 3e 78 31 43 3c 0d e7 fc 3b 5b 54 57 3d
       0.36610067 0.01191365 0.007717973 0.052570682
0000a0 ef 6b b4 3e 1f d9 14 3e 4f 1b eb bc 25 34 e8 3d
       0.35238597 0.1453595 -0.028699545 0.11338071
0000b0 1c 11 39 3d d6 4b 46 3d 7a 8d a2 bd c7 c6 9d bd
       0.045182332 0.048412167 -0.07937141 -0.077039294
0000c0 44 54 1f 3e 86 61 13 3f c3 b9 66 bc 3b 61 d1 3d
       0.15559489 0.57570684 -0.014082375 0.10223623
0000d0 60 06 58 be 77 6a 96 3d fc 3e 97 be a6 a4 17 3d
       -0.21096182 0.07344525 -0.2954024 0.037022255
0000e0 a5 7f 21 be 5e fa 05 be e0 91 79 be 1f ff 06 be
       -0.15771349 -0.13083789 -0.24372053 -0.13183258
0000f0 54 0b e0 3d 76 d9 07 3f d7 85 d1 bb 1f 64 74 3d
       0.10939661 0.53066194 -0.006394129 0.059665795
000100 d7 da a0 bc 19 fb 81 bd 61 69 a9 bd d6 c3 db 3e
       -0.019635601 -0.06346721 -0.082720526 0.42922848
000110 5f 60 1c bd dc 90 c3 bd 6f 68 56 3d 25 3f a9 3e
       -0.038177844 -0.09549114 0.05234569 0.33055988
000120 6f cd d9 bc a9 f5 11 3e a4 ef 5e 3c 84 5c 7a bd
       -0.026587216 0.14253868 0.013606939 -0.061123386
000130 f9 77 0e be 1c 54 31 3e 7e bc e7 3d a0 a5 92 3d
       -0.13912953 0.17317241 0.11315249 0.07160497
000140 21 fc 17 3f b0 7b 2d bf 8a 09 10 be 91 c6 46 3d
       0.59369093 -0.6776686 -0.14066139 0.04852921
000150 38 91 df bd 82 11 02 3e d0 98 70 3e 05 6c 01 3c
       -0.1091637 0.12701991 0.23495793 0.007899289
000160 6a 81 08 3d 14 5e 99 3e b0 34 09 3d 24 90 1b 3e
       0.033326544 0.29954588 0.033497512 0.15191704
000170 bf fe 9c 3d c4 4d df 3d 44 b0 a9 bd 16 15 67 bd
       0.076657765 0.109035045 -0.08285573 -0.056416593
000180 d3 71 8f be 29 6f 9f bd ef ee 5b bc fa 65 a8 3d
       -0.28016528 -0.07784874 -0.013423665 0.082225755
000190 d4 d5 50 be 81 5f 0d 3e 6d f3 45 3c fa fa ca 3c
       -0.20394069 0.13805963 0.012081963 0.024777878
0001a0 80 80 4f 3d 3d fe a6 3c 99 f1 b1 be e7 3c 1b be
       0.050659657 0.020384902 -0.34754637 -0.15159951
0001b0 93 91 32 be 37 2c 63 be 13 08 01 be 51 0b 1f bd
       -0.17438345 -0.22184835 -0.12600736 -0.03882915
0001c0 76 cc 2b bf ab 8e a8 bd 09 b6 88 bd 5f 2a b0 bd
       -0.6710886 -0.08230337 -0.066753455 -0.08601832
0001d0 a2 55 e8 3d d4 4d cc 3d 04 75 18 3d 09 b5 a1 bd
       0.11344458 0.09975782 0.03722097 -0.07895858
0001e0 42 87 a2 3d da 66 1c be f3 d9 a1 3d 74 2b 12 bd
       0.07935955 -0.1527361 0.07902899 -0.03568597
0001f0 cd b0 b1 3d d0 40 d3 be b1 9b 2a be 82 74 d6 bd
       0.086763 -0.41260386 -0.16660954 -0.10471441

classifier.0.bias f4 [4]
000000 e2 48 8b bc 77 4d 74 3e 3f 07 d6 3d 22 86 77 be
       -0.017002527 0.23857675 0.10450601 -0.24172261
