Gridworld_OTDD/envs/policy_models/SAC/set_stc/iter_0/model_644.pth (torch, 14301 bytes, 12 tensors)

net.0.weight f4 [32, 2]
00000000: 6655 0f3f e53d 82bd fb5c 03be 103b f7be
00000010: 7247 27bf 7f05 e03d 0fdd ca3d c68b d73e
00000020: 7ba6 e7bd c6d8 b73e 6ecc 59bc e584 9fbe
00000030: cfcd 2c3f 7966 08bf 37fe 76be 136a ea3e
00000040: 9885 1dbf 79a1 a03e 7527 97be b226 aabe
00000050: 5635 c73d 8a01 0d3f 04ff 1fbf edb2 49be
00000060: 2a70 463e 5f83 9fbe 507c 5cbe f25b 253f
00000070: adf8 96be ae45 ba3e 7d66 ac3e c75c d43e
00000080: d3df 6b3e 55d5 513e 840c 2b3e 1bb8 993e
00000090: e6c5 003f ee9d 01bf 4f3f 0f3e 4965 19be
000000a0: cce9 afbe 4313 ebbe 4256 933e 4b7c 2dbf
000000b0: 7725 313f b62b 303e ff5f 04bf 8de0 33bf
000000c0: cb69 80be a859 c83e 2c70 10bf 0a5c de3d
000000d0: cd6c 22bf 014a 173d 0a39 e8be e14e 08bf
000000e0: cac2 c53e 8577 943e e322 e2be 9d37 a93e
000000f0: daed 83be d1ea 143f dc70 d3be cd41 babd
0.5598968 -0.06359462 -0.12828438 -0.4828725 -0.6534339 0.10938548 0.09905445 0.42098826
-0.113110505 0.35907573 -0.013293369 -0.31156078 0.6750154 -0.5328136 -0.24120413 0.45784053
-0.6153197 0.31373194 -0.2952229 -0.33232647 0.0972697 0.55080473 -0.624985 -0.19697161
0.19378725 -0.31154916 -0.21531796 0.6459342 -0.294866 0.36381286 0.33671942 0.41477033
0.23034601 0.20491536 0.16703993 0.30023274 0.5030197 -0.50631607 0.13988994 -0.14980043
-0.3435806 -0.45913133 0.28776747 -0.6776778 0.6919779 0.17204174 -0.5170898 -0.7026451
-0.25080714 0.39130902 -0.5642116 0.10857399 -0.63447267 0.03693581 -0.45356017 -0.5324536
0.38625175 0.28997436 -0.4416724 0.33050242 -0.25767404 0.581708 -0.41297042 -0.09094582

net.0.bias f4 [32]
00000000: a7f3 24bf f0bf 993e d83f 203f b835 70bd
00000010: f119 343f 20de 5abe cbb6 1fbf 48bb 40be
00000020: fb6f 19be 1fdf 0f3f bf29 d83e e6bd 153f
00000030: 0af6 113e 15a8 e5bd e40c 27bf e7b8 c73e
00000040: 573c febe 2c4f 20be 971e 103f 5ae2 283f
00000050: cf9d 43be f176 36be c0b1 4e3e d30e 33bf
00000060: de81 413e 3a0d e9be d36e bcbe b49f a93e
00000070: 98fb ec3e 8a87 3ebe 8b27 4c3e 6c23 bd3e
-0.64434284 0.3002925 0.6259742 -0.05864498 0.70352083 -0.21373796 -0.62388295 -0.18821442
-0.14984123 0.5619983 0.4221935 0.5849289 0.14254013 -0.112137 -0.65254045 0.39008257
-0.4965541 -0.15655202 0.56296676 0.65970385 -0.19103168 -0.1781881 0.20184994 -0.69944495
0.18897197 -0.45517904 -0.36803302 0.33129656 0.462857 -0.18606392 0.1993696 0.36941087

net.2.weight f4 [32, 32]
00000000: 1cf7 1cbd b7c7 e53d 3fe4 cdbd bb1f 30be
00000010: 3112 a73d e451 833c 1d5e 1b3e 9d69 ccbb
00000020: 86e4 bc3d a6f9 babc 4f11 c9bc 4fdc 673d
00000030: a386 b33d ff26 133e fd5b 53bc 69f9 a6bd
00000040: 8b1d 31bc 2794 8abd 8ff9 cf3d 2b4b 20be
00000050: e10f 93bd 3a3e 193e d2bd 103e 5de2 163e
00000060: 9745 0cbe c1bc 0ebe da3f 7ebd e529 d7bd
00000070: 2a96 d83d 8a3d afbd def9 b03d 0485 953d
00000080: 65e6 ff3d 9ab9 2dbe d184 9b3d 2a8e c3bd
00000090: 21f7 bcbd 0f13 0ebe 59b9 b3bd b03d 953d
000000a0: d62f 3abd a24c ee3d 560f 033e dada 243d
000000b0: 8a08 2bbd b813 9e3c 4872 0e3e 84f4 153e
000000c0: 87ee 263c 7d43 6b3d 302d ec3d 6592 063d
000000d0: 8b7a 0abe 5227 373d cc8b cabd 261e 323e
000000e0: 36c7 92bd 7d4a dbbd dded b3bc 3be3 01bd
000000f0: a268 033e 0c56 183e 65a6 b2bd 3a9a 27be
00000100: 51ed dc3c a9ee 0d3d 2e65 afbd d114 633d
00000110: ea39 5b3c 5c8c 393d dc6d 363d b049 ae3d
00000120: b91a 55bd d83a 463d 23eb fabd d1b3 2cbe
00000130: 1c2c 0bbe de50 f8bd 4ce3 4d3c 2378 003e
00000140: 5f6f 14be 2aa4 5e3c 545c 513d 5dfc 203e
00000150: a4bb e7bd c429 2cbe b7e9 4bbd 2964 cfbd
00000160: 3571 52bd eec6 69bd 7645 b9bd 7ce2 a0bd
00000170: 9d83 0c3e aa9a d13d 055f 1b3d 5bed 87bd
00000180: c72b 28be 6f54 21be 6ea1 873d 49ba c0bc
00000190: b7bb 8dbd a270 343c 4922 003d aa09 2e3e
000001a0: 6b9f 2b3e 5022 e23d 7932 34bd 1474 c13c
000001b0: 18dc 143e b82f ccbc a39f 2b3c d53d ae3d
000001c0: 5340 c43d ccc9 abbb b65b 01be 5dff 2fbd
000001d0: 3206 e8bd 8d52 d13d 5fcb 3f3c f0f6 093e
000001e0: 576a 5d3d 0e55 1b3d 3b2b 1c3e 4f87 03be
000001f0: 8e8c dc3d 3c59 923d 08a2 a5bd 3594 b9bd
00000200: f356 db3c 1761 3abd 1aa3 e5bd 81e0 1c3e
00000210: 9fd0 4ebc 9977 66bd 58ac 1e3e 129b bfbc
00000220: 6f09 163e 4632 973c 9f54 093e 631e de3c
00000230: 6b8e 2a3e 6abe f33d 77b8 c03d d2e9 a6bd
00000240: 6be5 f73b b88d 093e 80c8 183e 5b50 0c3e
00000250: abfb 5abd 4d6f 16be cd4d 29bd df83 b63d
00000260: 33b0 64ba 9b0b 0dbe 78fd 6dbc 3a70 a53d
00000270: c7f9 13be 54fc 02bc c27f 2a3e ffb2 ffbc
00000280: ea9b 273e eaf4 653d 3191 843d d0f2 7fbc
00000290: 2f0a 123e 7662 ffbd 9e58 09bd 00a5 acba
000002a0: 776e 2f3e cdac 4e3d 88c4 93bc a61e b53d
000002b0: 3e40 14be 5af0 633d 4d72 8c3c 03b6 07be
000002c0: a088 9c3d 4e8f 073e 052e c5bd 7ccb d8bd
000002d0: 8e17 a2bd 9eef 17be 670b 7cbc 9e77 b83d
000002e0: 4bc4 2ebe f355 69bd f67d f5bd be16 06bd
000002f0: 61cb 15be 79c4 ab3d 17e4 0a3e 4e9a 63bc
00000300: 8762 e0bd 2d8f dd3d 73b1 02be a212 4dbd
00000310: 2767 c5bc 7075 43bc c675 f93d 7355 78bd
00000320: fd73 aa3d 48b7 07be 0174 3a3c af3b bbbd
00000330: 905a 85bd dd87 22bd 7b88 1a3d 2ae3 663d
00000340: 6f40 5bbd 9b96 7ebd 4370 2e3e 1b64 4dbd
00000350: e1aa 803d a364 7b3d df2e 1f3e 0dfb ba3d
00000360: cff2 00be 65a2 273e 8a47 e1bc 4c1f 3cbd
00000370: f1c9 cb3d 9024 7abd 4a60 0f3e f550 a53c
00000380: df0e 133d 873e 1bbe d587 d0bd e28b ab3d
00000390: e364 18be 1b5b 243e acaa 2f3e 6b70 04be
000003a0: 45e5 17be 7db0 213e 7982 20be 2dea e33d
000003b0: 846a d53c 120a 79bc 4d74 d43d bd30 a13d
000003c0: cbb0 a73d 2beb 333c 13b9 8b3d 5409 86bc
000003d0: fd27 09be 5d45 db3d acdf f73d 8315 ca3d
000003e0: b64b abbd 26e8 ea3d e596 dcbd 3e6e dd3d
000003f0: 1535 cdbb d5d1 dbbd 01c1 ba3d ae2d 9fbd
-0.0383216 0.11219733 -0.100533 -0.17199604 0.081577666 0.01603026 0.1517262 -0.006238176
0.09223275 -0.02282412 -0.024544386 0.056606587 0.08765914 0.14370345 -0.01290035 -0.0815304
-0.010810266 -0.06766539 0.101550214 -0.15653674 -0.07180763 0.14965144 0.1413491 0.14734788
-0.13698421 -0.13939191 -0.062072612 -0.105060376 0.105755165 -0.085566595 0.086414084 0.07300761
0.12495116 -0.16965333 0.07593692 -0.095486 -0.092268236 -0.13874458 -0.08775587 0.072871566
-0.045455776 0.1163571 0.12798819 0.040247776 -0.04175619 0.019296512 0.13910782 0.14644057
0.010188705 0.05743741 0.11532056 0.032854456 -0.13523309 0.044715233 -0.098899454 0.17394313
-0.07166903 -0.10707567 -0.021964008 -0.031710844 0.12832883 0.14876574 -0.087231435 -0.16367427
0.02696863 0.034651432 -0.0856422 0.055439774 0.013380507 0.045299873 0.044538364 0.085101485
-0.052027438 0.04839596 -0.1225188 -0.1686547 -0.13591045 -0.12124799 0.012566399 0.12545829
-0.1449561 0.013588944 0.05111344 0.15721269 -0.113150865 -0.16812807 -0.049783435 -0.10126526
-0.051377494 -0.05707448 -0.09046452 -0.078556985 0.13722081 0.10234578 0.037932415 -0.06637069
-0.1642295 -0.15754865 0.06622587 -0.023526328 -0.069205694 0.011013182 0.031282697 0.16995874
0.16760032 0.11041701 -0.043993447 0.02361492 0.14537084 -0.024925098 0.010475072 0.08507887
0.09582581 -0.005242562 -0.12632641 -0.042968143 -0.11329307 0.102208234 0.011706202 0.13473105
0.05405649 0.03792291 0.15250866 -0.12844585 0.10768996 0.07145926 -0.08087546 -0.090614714
0.026774859 -0.04550275 -0.1121275 0.15320016 -0.012622981 -0.0562664 0.15495431 -0.023389373
0.14652036 0.01845659 0.13411187 0.027114099 0.1665589 0.11901553 0.09410184 -0.081500664
0.0075651905 0.13432968 0.14920235 0.13702528 -0.053462666 -0.14690895 -0.041333962 0.08911871
-0.00087237655 -0.13773958 -0.014525764 0.08078046 -0.14450751 -0.00799473 0.16650298 -0.031213282
0.1636807 0.05614177 0.064730056 -0.015621856 0.14261697 -0.12469952 -0.033531778 -0.0013171732
0.17131983 0.050457764 -0.01803805 0.08843736 -0.14477631 0.05564914 0.017144347 -0.13253026
0.07643247 0.1323826 -0.09627918 -0.105856866 -0.07914649 -0.148375 -0.015383578 0.0900719
-0.17067067 -0.056966733 -0.11986916 -0.032736532 -0.14628364 0.083870836 0.13563572 -0.01389177
-0.109562926 0.10818324 -0.12763004 -0.050066598 -0.024097038 -0.011929855 0.121806666 -0.060628366
0.08322904 -0.1325351 0.011380197 -0.09142243 -0.06511414 -0.03968035 0.037727814 0.056368984
-0.053528246 -0.062155347 0.17035012 -0.050144296 0.062825926 0.06137527 0.15545224 0.091299154
-0.12592624 0.16370542 -0.027499933 -0.045928285 0.09950627 -0.061070025 0.14001575 0.020180205
0.035902854 -0.15160571 -0.10182158 0.0837629 -0.14882235 0.16050379 0.1715495 -0.12933509
-0.14833553 0.15789981 -0.15674771 0.1112865 0.026051767 -0.015200155 0.10373745 0.07870624
0.081880175 0.010981361 0.068224095 -0.01636187 -0.1339416 0.10706589 0.12103209 0.09867384
-0.0836405 0.1147006 -0.10770968 0.10812043 -0.0062624314 -0.10733382 0.09118844 -0.077723846

net.2.bias f4 [32]
00000000: 6026 583c cf8b 703c a715 be3d 511a 9e3d
00000010: 79fd 003e 6aa9 03be 6a32 0dbc 944f b4bc
00000020: 4027 013c 0365 34be 4d26 a73c c022 ef3d
00000030: cc1a ac3d 1cd3 cbbd 784e e5bd 39b5 1fbd
00000040: 11c8 b1bd 8c50 aa3d 71e0 56bd 155c d83d
00000050: 90da 003e a345 17be ac99 33bd e541 8b3d
00000060: 23b0 0dbe 3ee9 08be e8c7 433c c6bc c8bd
00000070: 262e a23d 2dbf 9f3d 6af2 813c 0f05 c8bd
0.013192743 0.0146817705 0.092814736 0.07719863 0.12596692 -0.12857595 -0.008617977 -0.022010602
0.007882893 -0.17616658 0.020404005 0.1167655 0.084035486 -0.09952375 -0.11196607 -0.038991187
-0.08680738 0.08316144 -0.052460138 0.10564438 0.12583375 -0.14772658 -0.043847725 0.06799678
-0.13836722 -0.13370225 0.011949517 -0.09801631 0.07918958 0.07800136 0.015862662 -0.0976659

net.4.weight f4 [4, 32]
00000000: f449 1c3e 25a9 693d 3aa5 05be c2c9 093e
00000010: 436f 9bbd dc49 91bc bd70 1c3e b25c e8bd
00000020: f5f2 0fbd 2286 f33d 036e fabb 32eb a53b
00000030: 052e d0bd c7ed ae3d 39f2 0b3e c3f0 143e
00000040: 7747 b2bd 06af fa3c eb5f 0abe 3dd8 253e
00000050: 4958 d13c af2d 19be 4dca c13c f475 dfbc
00000060: 85ab 243d 767f f3bd d931 1bbe fc66 b53d
00000070: 953d d13d 2d08 223e b9f2 bebd 536c a5bd
00000080: c310 00be a9df a1bd c9d1 9fbd a3a9 c03d
00000090: 4882 08be fe4f 5fbc 951e 0b3e 9f7a 19be
000000a0: 547a 1a3e 96ab b93c babc 7d3d 0535 d13c
000000b0: f214 983c 507e 293e c7bf 13be d6ba 2fbe
000000c0: efcb 8bbd 0f1c 793d 0958 fc3b 0fac 8f3d
000000d0: 6235 d73d 138f 233e 6dc6 ae3d 894d 143d
000000e0: 2d39 8bbd 2619 053e 4014 333d 6740 1d3e
000000f0: 23be 13be 6382 a8bd 34c4 99bd ebee 34be
00000100: e195 6dbd 9de4 113e dde2 fa3c 8589 c4bc
00000110: e050 0fbe 048d 29be f2d4 143e 1f63 583d
00000120: b16e cfbd 3651 d63d 10f0 a0bc 0809 8c3c
00000130: 1dd3 adbc b00e 21bb 51f0 db3d b919 123e
00000140: ba71 e0bc 5715 903d 7f8a 153d 7de8 203e
00000150: e17a 16be 28ab 03be 79fe 8abd c19c fd3d
00000160: 7767 92bd edee 033e 6af8 2b3e 83c7 babd
00000170: 933d 82bd 1076 16be 1a1e e6bd 6724 d33d
00000180: 5b9b 95bd 2e6a 2b3e ddf8 963c ab9a ee3d
00000190: 5de0 0abe 7fa7 5b3d 9848 123d e7f2 eebd
000001a0: 1c87 2abe b63f 1f3c 3f37 fe3d 800a b83d
000001b0: 953a 28bd 8967 0abe 03eb a93d 2a25 103d
000001c0: 9c0c 16be 4273 f43c a8c4 dc3d 3752 d8bd
000001d0: 38fa 07be 4ffc c73d 5737 81bb 1dce 88bc
000001e0: fa15 653d 9fa4 fb3d 420c 22be bd99 f0bd
000001f0: f9b3 aebc 2183 b03b 0a7f 1bbe ff81 f0bc
0.15262586 0.057046074 -0.1305131 0.13455871 -0.07589581 -0.017735414 0.15277381 -0.11345805
-0.03514381 0.11890818 -0.007642509 0.005063438 -0.101650275 0.08541446 0.1366662 0.14544968
-0.08705037 0.030601036 -0.13513152 0.1619577 0.025554793 -0.14958833 0.023656035 -0.027277924
0.040202636 -0.118895456 -0.15155734 0.08857533 0.10216824 0.15823431 -0.093236394 -0.08077302
-0.12506394 -0.07903988 -0.07803685 0.09407356 -0.13330948 -0.0136299115 0.13585885 -0.14988182
0.15085727 0.022664826 0.06194756 0.025537977 0.018564675 0.1655209 -0.14428626 -0.17161116
-0.068260066 0.060817774 0.0077009243 0.070152394 0.10508229 0.15972547 0.085339405 0.036206756
-0.06798015 0.12997875 0.043720484 0.15356599 -0.14428 -0.08227994 -0.07508126 -0.17669265
-0.058004264 0.14247365 0.030625755 -0.023991356 -0.13995695 -0.165577 0.14534357 0.052828904
-0.101285346 0.104647085 -0.01964572 0.01709415 -0.02121883 -0.0024575405 0.10739196 0.14267625
-0.027397979 0.0703532 0.036509033 0.15713687 -0.14695312 -0.1285826 -0.06786818 0.12383414
-0.071486406 0.12884112 0.16793981 -0.09120085 -0.063594006 -0.14693475 -0.1123621 0.103096776
-0.07305022 0.16739723 0.018429214 0.11650594 -0.1356215 0.053626534 0.035713762 -0.11667424
-0.16653103 0.00971978 0.12412881 0.08986378 -0.041071493 -0.13516058 0.08296778 0.035191692
-0.14653248 0.029840115 0.10779697 -0.10562556 -0.13279045 0.09764921 -0.0039433646 -0.016699845
0.05592916 0.12287258 -0.15824988 -0.11748073 -0.021326052 0.0053867255 -0.1518518 -0.029358862

net.4.bias f4 [4]
00000000: c731 82bd e0ee 1d3e f6ca a4bc eafb 163d
-0.063571505 0.15423155 -0.02011631 0.036861338

extractor.0.weight f4 [32, 2]
00000000: 468b 1f3f 381c f4be be84 ff3e 1155 edbd
00000010: 0728 0abf ae39 b6be 27bb 93be f876 c63e
00000020: aca1 203f 0c0c 96be eb93 74be aa20 8ebd
00000030: fd1b c23e 44a5 c83e da8b 24bf 892f 23bf
00000040: 41e6 843e db58 a83e ab84 59bc 954a ed3e
00000050: 500c f93e 3a1a 2cbf ae3d b83e a0c0 143e
00000060: b0cc aa3d cc0c 703e ca05 a63e a48c 1c3f
00000070: 44b1 a83e 86a8 6bbe 3ac9 29bf c1ed 19bf
00000080: 0a45 1dbd 2ae6 1cbe 8ab0 c33c d8d1 ee3e
00000090: e76e 3a3e 21df bdbe d83d 763e 10ac 21bf
000000a0: 1c6a 0abf 83ce 88bd c8bf eb3e 8368 e13e
000000b0: 17bf f3be f5ad 05be 94f6 b63e 5e0b a13e
000000c0: 0215 3d3e acda 373f 7ed6 e8be dc8f c2be
000000d0: 5891 913d edae 123e d4af 6fbd 6c29 13bf
000000e0: 532e 09be b1d3 10bf 073c 1ebc 8b76 28bf
000000f0: d628 3a3e 8c32 82be 7eec 1dbf 23ff ef3c
0.6232189 -0.4767778 0.49905962 -0.11588491 -0.53967327 -0.3559088 -0.28853723 0.3876264
0.6274669 -0.29306066 -0.23884551 -0.06939824 0.37911978 0.39188588 -0.64275897 -0.6374441
0.2595692 0.3288029 -0.013276259 0.46345964 0.48642206 -0.6722752 0.35984558 0.14526606
0.08339822 0.23442382 0.32426292 0.611521 0.32947743 -0.23013505 -0.6632267 -0.6012841
-0.03839592 -0.15322176 0.023887891 0.46644473 0.18206368 -0.37084296 0.24047029 -0.6315317
-0.5406816 -0.06680014 0.46044755 0.4402505 -0.47606727 -0.1305464 0.35735 0.31453985
0.18465045 0.7181804 -0.45476145 -0.3800038 0.071078 0.14324541 -0.058517292 -0.5748508
-0.13396578 -0.56573015 -0.009657866 -0.6580588 0.1817964 -0.2542919 -0.61688983 0.029296463

extractor.0.bias f4 [32]
00000000: 204c 973e 34b3 4bbe ec00 d33d 35d4 24bf
00000010: 77e2 e2be 451f 12bf a442 c6be 8c9c 0b3e
00000020: e07b 2cbe adc1 1d3f 3d35 463e 5791 02bf
00000030: 7f34 483c 49b7 27bf 012c 19bf f790 2f3f
00000040: 4289 c13e eaac 67be 3402 f93e 6a09 703e
00000050: 9e13 dcbd 0622 49be 1b41 07bf 29ef 123f
00000060: 0e62 283f d684 b63e 70c9 ad3e 58f3 213f
00000070: 2296 033d 04aa 5fbe 6856 323f 21db 0e3f
0.29550266 -0.1989258 0.1030291 -0.643863 -0.44313404 -0.57078964 -0.38722718 0.13633937
-0.1684413 0.6162365 0.19356246 -0.5100302 0.012219547 -0.65514046 -0.5983277 0.68580574
0.37800032 -0.22624555 0.48634493 0.23441091 -0.10745929 -0.19641885 -0.5283372 0.5739618
0.6577462 0.3564822 0.33942747 0.6326194 0.0321256 -0.218422 0.69663095 0.55803114

extractor.2.weight f4 [32, 32]
00000000: 2917 1e3d 2e45 b9bd 2739 f13d 3e51 d43d
00000010: b953 393e 9658 b13d a0fc a63d e2ad b1bd
00000020: 495d abbd e0ae ae3d 8062 073e 4ed3 11be
00000030: 7d63 c3bd e008 0ebc d0bc 1e3e a2ab e6bc
00000040: 8ae5 b83c f3b9 5f3b 2e4c d6bd 0311 cb3d
00000050: 2961 b13b 4bea 9a3d 2cc2 aebd 87c8 683d
00000060: e77a cabc 125d de3d cfdb 10be 1c04 7f3d
00000070: 3a66 c1bd ef9d b6bd 55dc e9bd a5cd 22be
00000080: c7b4 27be 516e 293e c6c7 873c ae5b 4a3d
00000090: 71d3 14bc ce9d 983d 8b77 cabc 3ee5 15bd
000000a0: 8960 75bd d7ff bbbd ddef bfbd 73e8 b9bd
000000b0: a176 bb3a 4b77 c3bc 8085 3bbd c64c fe3d
000000c0: 1bb6 a0bd 7c9b c0bc aa6f 0ebd 13fe b93d
000000d0: 8dc4 7dbd 573c c5bd 6ae0 d13d 7ad9 80bd
000000e0: 87fc 793d e1e2 96bd c80f 35be bda7 52bc
000000f0: 59dc 813d 7d52 dfbd d9ad 9a3d a442 f93c
00000100: 883a 28be a3bc 5c3d 6b9e 23be 4b67 bbbc
00000110: 7f21 293d 4e47 093e e431 90bd cf42 eebd
00000120: 2a94 93bd e99f 1d3d f7bd fbbd 6612 d0bd
00000130: 6ffe cdbc 36a3 f43b 54db 543c 6e47 4cbd
00000140: 71bc 94bd 2ad9 1d3e 3475 0fbe 49ff dd3d
00000150: 11f4 8ebd 4297 de3b f5d6 d73d eff2 0ebe
00000160: 0213 38ba 4045 19be 29d0 c5b9 7016 0d3d
00000170: 58ae a03b bdd5 1fbe 49c6 2f3d 7411 1cbe
00000180: 38e1 243e 9eae e9ba 4398 43bd 0099 1cbd
00000190: 771e b4bc 82e2 fa3c 0dd9 f93d 9bc8 be3d
000001a0: fc3a 3b3d fc9c bcbd 9726 12be 0da2 f1bd
000001b0: 0ddd bd3d 7a2c 3abe cce8 f1bd 815f a63d
000001c0: ad61 3bbd ea4b 10be 2844 803b a39d f9bd
000001d0: 46d4 143e 27f7 093e d921 02be e442 f03d
000001e0: 0ffb 20be a346 5c3d 87cd b33d d51e a03c
000001f0: 100f 08bd 8e59 0cbd a98f 3cbe fb8b 94bc
00000200: 916a 113e 35ed bcbd 2415 01bd 77de adbb
00000210: 6ec2 de3c 6f74 1dbe 901c 51bd 0151 163d
00000220: 4c75 0a3e d674 40bd c670 bb3c 23c0 21be
00000230: cf4b d23c 8be9 2cbe aa05 d23d 9a6c 653d
00000240: 924c 9e3d 7a0c f9bd 64c7 13bd 233c 0abd
00000250: 87a7 a0bd 2e85 8dbd 9bc0 ab3d a0ed 413d
00000260: 738c dd3d fa68 5cbc 5e17 46bd 5a94 e83d
00000270: f73d ee3d a868 1c3e c4ad 093e a847 43bd
00000280: 6b21 2bbd 3489 b0bd 04f9 cb3d 7efb 1f3e
00000290: 4f7d fdbc 3c59 2a3e 9a5c dcbd 3eba 94bd
000002a0: 2e7d 0cbe 1741 65bd 29c9 9c3d ab03 0f3e
000002b0: 1d3d f3bd 624e 8a3c 3f9d 45bc 1a58 8dbd
000002c0: 188a 89bd ea5c 983d 7e44 173e 12d3 703d
000002d0: ada4 ba3d 32d6 09be e562 f6bc 851c 19be
000002e0: fa13 023e 24b0 1bbd 6750 aebc be1a b83c
000002f0: dab4 163d 2b5d 55ba 09ae 83bc 005b ac3d
00000300: 4a36 94bd 0c90 223e fbf7 263e cfab 2abe
00000310: 228c 9bbd edad 4e3d 4239 c33d de8e 37bd
00000320: ab51 afbd 415a 1ebe ba92 b7bd 6e26 88bd
00000330: 455d 033d fae1 2c3e 50c0 913d 658e 0d3e
00000340: 40d5 80bd 2ebf e43d b984 a3bb 67c2 e5bd
00000350: eeb1 1c3e 18dd 91bd e871 0c3c 7220 10be
00000360: 5a0e 37bd 3b4f 7a3d 70a4 7e3c 5134 a2bc
00000370: 5f4e e7bd af2a 153e 7955 03be 60ac 94bc
00000380: fa57 033e 0008 d7bd a885 4a3d a3a6 36bd
00000390: 95c8 dd3c 7b7e 2d3e 83e9 c63c e46b 6bbc
000003a0: e5c0 763c 5911 ea3d fbf4 f8bd f464 183e
000003b0: cd32 12bc 6235 873c 1e15 52be 6364 633a
000003c0: 92c6 09ba c5a8 2c3d b297 95bd 1e8e 67be
000003d0: 9256 a7bd fc94 c13c 49d1 c1bd ef57 093e
000003e0: 99d9 113e 4502 f9b9 12b7 283e 4dc7 b6bd
000003f0: a873 1abe 9245 2cbe fa37 6c3c 57d1 bcbc
0.038596306 -0.09046398 0.11778479 0.10367058 0.18098344 0.086594746 0.08153653 -0.08675744
-0.08367402 0.085294485 0.13221169 -0.14240763 -0.0954046 -0.008669108 0.15501714 -0.028158013
0.02257039 0.0034137934 -0.10463749 0.09915354 0.0054131937 0.07564219 -0.08533129 0.056831863
-0.024716808 0.108575955 -0.1414635 0.06225978 -0.09443326 -0.08916842 -0.11418978 -0.1589876
-0.16377555 0.16545989 0.016574752 0.04940384 -0.009083615 0.07451974 -0.024715206 -0.036595576
-0.059906516 -0.09179657 -0.09371922 -0.09077539 0.0014302322 -0.023860594 -0.045781612 0.12416987
-0.07847234 -0.02351164 -0.03477446 0.09081664 -0.061955024 -0.096306495 0.10247882 -0.0629148
0.061031844 -0.073674925 -0.17681801 -0.012857375 0.06340856 -0.10904405 0.0755269 0.030427285
-0.16428578 0.053890835 -0.159784 -0.022876402 0.04129171 0.13406107 -0.07040766 -0.116338365
-0.072059944 0.03848258 -0.12292092 -0.10159759 -0.025145737 0.0074657453 0.012991745 -0.04987281
-0.07262505 0.15414873 -0.14009553 0.108397074 -0.06980146 0.0067929337 0.10539047 -0.1395986
-0.00070218754 -0.14967823 -0.0003772986 0.034445226 0.004903596 -0.15608878 0.04291371 -0.15241033
0.16101539 -0.0017828529 -0.04775263 -0.03823185 -0.021987183 0.030625585 0.12199602 0.09315606
0.04571055 -0.0920963 -0.14272533 -0.11798487 0.09270678 -0.18181029 -0.118119806 0.08123685
-0.045747448 -0.14091459 0.003914375 -0.1218827 0.14534101 0.13473187 -0.12708224 0.117315084
-0.15720771 0.053778302 0.087794356 0.019545952 -0.03321749 -0.034265094 -0.18414177 -0.018133154
0.14200808 -0.09224931 -0.031514302 -0.005306061 0.02719232 -0.15376447 -0.05105263 0.036698345
0.13521308 -0.046986423 0.022880923 -0.1579595 0.025670914 -0.16885965 0.102549866 0.056011774
0.077294484 -0.12160583 -0.036078826 -0.033748757 -0.07844453 -0.06910168 0.08386346 0.047345757
0.10817804 -0.013452763 -0.04836213 0.11356421 0.116329126 0.15274298 0.13445193 -0.04767576
-0.041779917 -0.086199194 0.09959605 0.1562328 -0.03094354 0.16635603 -0.1075985 -0.072620854
-0.13719627 -0.055970278 0.07655556 0.13966243 -0.11876891 0.016883079 -0.012061416 -0.0690157
-0.067157924 0.07439597 0.14772221 0.058795042 0.09113441 -0.13460615 -0.030076453 -0.14952286
0.12702933 -0.038009778 -0.021278573 0.02247369 0.036793567 -0.0008139188 -0.016074197 0.084157944
-0.07236917 0.15875262 0.16305535 -0.16667102 -0.075950876 0.050458837 0.095324054 -0.044813983
-0.08560499 -0.15464117 -0.08963533 -0.06647955 0.03207137 0.16883078 0.07116759 0.1382385
-0.06290674 0.11169277 -0.004990187 -0.1121872 0.1530225 -0.071222484 0.008572079 -0.14074877
-0.04469142 0.061110716 0.015542135 -0.019800337 -0.11294245 0.14567064 -0.12825574 -0.018148601
0.12826529 -0.10499573 0.04944387 -0.04459251 0.027073184 0.1694278 0.024281269 -0.014368985
0.015060638 0.1142909 -0.12156101 0.1488226 -0.008923245 0.016504947 -0.20515868 0.00086743216
-0.00052557245 0.04215314 -0.07304324 -0.22612807 -0.08170809 0.023630612 -0.09463746 0.1341245
0.14243163 -0.00047494672 0.16476086 -0.08924732 -0.15083182 -0.16823414 0.014417643 -0.02304904

extractor.2.bias f4 [32]
00000000: 2123 893d c7fc 4b3d 5162 ea3d 2ac8 e9b9
00000010: f8e9 92bc 1620 13bd 7033 153e db39 043d
00000020: ddcd ce3d 7c7e e83d 8de0 893d 0a50 fd3d
00000030: 2e4d 05be 681b 983d 465e 513e dbf4 0ebe
00000040: 5361 d63b bff5 cbbd f6da 76bd c1d3 85bd
00000050: 5ade 91bd 9dcc 243d 5a76 363e 926c 013e
00000060: 0894 30be ad44 003e 8bbc 083e 876d b33d
00000070: 4148 56bc 2bbd 3abe fcf2 a13d 7a14 02be
0.066961534 0.049801614 0.114445336 -0.00044590357 -0.01793383 -0.03591927 0.14570403 0.032281738
0.10097859 0.1135225 0.06732283 0.12368782 -0.13017723 0.07427102 0.20446119 -0.13960592
0.0065423637 -0.09958982 -0.06026741 -0.065345295 -0.07122488 0.040234197 0.17818585 0.12639073
-0.1724397 0.12526198 0.13353173 0.08761125 -0.01307875 -0.18236224 0.07907674 -0.12703124

classifier.0.weight f4 [4, 32]
00000000: 29d8 a23d f1f2 0f3d ea20 d43b f349 cbbc
00000010: c141 bf3d 96e9 b3bd 258d 6ebd 0790 b4bd
00000020: 1cb8 823d 3af1 c8bd 7f26 05bd 525c 2c3e
00000030: 6e09 2bbe fffd da3d c355 223d aab9 f83d
00000040: 2af5 e0bd af18 4e3d 72d9 d5bc dc08 8bbd
00000050: 573b 58be 172f 673c b8aa 183d 6946 c63d
00000060: ae5f 32be 9198 e33c 0f0f e4bd 9598 14be
00000070: 2230 16bc d92f ac3d a7db 1dbe 6bba 073e
00000080: 06e0 193e 4f4a ef3c 862b 0cbe 212e 1a3e
00000090: 091f 073e 7831 433c 0de7 fc3b eaba 9b3d
000000a0: d424 103d aaed 143e 528e 1cbe 7834 e83d
000000b0: b4a8 773d b815 a9bd 3033 f8bd b01e 9ebd
000000c0: 2536 dc3d 9bc1 743d d636 63bc f370 d13d
000000d0: 850e b0bd f5db 953d 71e8 34be a6a4 173d
000000e0: a57f 21be a6db 1cbe 2ef3 16be 1fff 06be
000000f0: 0be8 f33d 892b 9b3d c885 d1bb c0ca 29be
00000100: 45ae 9ebc 19fb 81bd 6169 a9bd 813b 1e3e
00000110: cb67 643c dc90 c3bd 6f68 563d c154 e13d
00000120: 447e 1f3e 3170 123e da00 013d 3f5e 7abd
00000130: 71f8 25bd 9f3b 3f3e 753b 053e 8a76 923d
00000140: 0d16 5b3d afc8 1ebe 0f49 10be 91c2 463d
00000150: ea17 0fbe 7c93 023e bdee 6d3e 056c 013c
00000160: 6a81 083d a22d 443e 3944 2f3d 2490 1b3e
00000170: 19a1 303d 0887 a23d 44b0 a9bd 8a4a b53b
00000180: f1ec 1fbd 296f 9fbd efee 5bbc 06ac fb3d
00000190: f4bd 1b3d 815f 0d3e 6df3 453c 3b49 243e
000001a0: 7eb5 3c3e 26a1 b43c 031a f0bd 2a3d 1bbe
000001b0: 79fc ebbd bcd8 cc3b e074 30bd c8fd 1ebd
000001c0: 1141 1dbe 3bdc a6bc 2064 88bd 2f48 b0bd
000001d0: 0696 a33d 9fdf cd3d c68d 043e 09b5 a1bd
000001e0: 4287 a23d 84bc 15bd 4499 b13d 762b 12bd
000001f0: 16d9 f03d 8a69 1ebd b19b 2abe 24df b53d
0.079513855 0.035143796 0.00647365 -0.024815535 0.093387134 -0.08784787 -0.058240075 -0.088165335
0.06382772 -0.09811635 -0.032507416 0.16832092 -0.16702816 0.10692977 0.03963257 0.121447876
-0.10984261 0.05031651 -0.026104663 -0.06788799 -0.21116386 0.014110348 0.037272185 0.096813984
-0.17419311 0.02778271 -0.11135685 -0.1451133 -0.009166749 0.08407564 -0.15415822 0.13254707
0.15026864 0.029210238 -0.13688478 0.1505666 0.13195433 0.01191365 0.007717973 0.076040104
0.035191372 0.14543787 -0.15288666 0.113381326 0.060463622 -0.08256096 -0.12119138 -0.07720697
0.10752515 0.05975495 -0.013868054 0.102266215 -0.085965194 0.07317344 -0.17666794 0.037022255
-0.15771349 -0.15318164 -0.14741203 -0.13183258 0.11909493 0.07576663 -0.006394122 -0.16581249
-0.019370208 -0.06346721 -0.082720526 0.15452386 0.013940762 -0.09549114 0.05234569 0.11002494
0.1557551 0.1430061 0.031494953 -0.061125036 -0.040520135 0.18675087 0.13010962 0.07151516
0.053487826 -0.15506242 -0.1409037 0.048525397 -0.13973966 0.12751573 0.23235603 0.007899289
0.033326544 0.19158033 0.04278967 0.15191704 0.043122385 0.079359114 -0.08285573 0.0055325674
-0.039044324 -0.07784874 -0.013423665 0.1228867 0.03802295 0.13805963 0.012081963 0.1604356
0.18428609 0.022049498 -0.11723711 -0.15160051 -0.11522765 0.0062514227 -0.04308021 -0.038816243
-0.15356852 -0.020368686 -0.06659722 -0.08607518 0.07987599 0.10052418 0.12944707 -0.07895858
0.07935955 -0.036556736 0.08671811 -0.03568598 0.11760156 -0.03867487 -0.16660954 0.08880451

classifier.0.bias f4 [4]
00000000: 339b 8ebb 0a70 df3c b95a b83d 6b83 f4bc
-0.0043519973 0.027275104 0.09001679 -0.029847821
