Gridworld_OTDD/envs/policy_models/SAC/set_stc/iter_0/model_2035.pth (torch, 14315 bytes, 12 tensors)

net.0.weight f4 [32, 2]
0	0x3f0f5566	0.5598968
1	0xbd823de5	-0.06359462
2	0xbe035cfb	-0.12828438
3	0xbef73b10	-0.4828725
4	0xbf274772	-0.6534339
5	0x3de0057f	0.10938548
6	0x3dcadd0f	0.09905445
7	0x3ed78bc6	0.42098826
8	0xbde7a67b	-0.113110505
9	0x3eb7d8c6	0.35907573
10	0xbc59cc6e	-0.013293369
11	0xbe9f84e5	-0.31156078
12	0x3f2ccdcf	0.6750154
13	0xbf086679	-0.5328136
14	0xbe76fe37	-0.24120413
15	0x3eea6a13	0.45784053
16	0xbf1d8598	-0.6153197
17	0x3ea0a179	0.31373194
18	0xbe972775	-0.2952229
19	0xbeaa26b2	-0.33232647
20	0x3dc73556	0.0972697
21	0x3f0d018a	0.55080473
22	0xbf1fff04	-0.624985
23	0xbe49b2ed	-0.19697161
24	0x3e46702a	0.19378725
25	0xbe9f835f	-0.31154916
26	0xbe5c7c50	-0.21531796
27	0x3f255bf2	0.6459342
28	0xbe96f8ad	-0.294866
29	0x3eba45ae	0.36381286
30	0x3eac667d	0.33671942
31	0x3ed45cc7	0.41477033
32	0x3e6bdfd3	0.23034601
33	0x3e51d555	0.20491536
34	0x3e2b0c84	0.16703993
35	0x3e99b81b	0.30023274
36	0x3f00c5e6	0.5030197
37	0xbf019dee	-0.50631607
38	0x3e0f3f4f	0.13988994
39	0xbe196549	-0.14980043
40	0xbeafe9cc	-0.3435806
41	0xbeeb1343	-0.45913133
42	0x3e935642	0.28776747
43	0xbf2d7c4b	-0.6776778
44	0x3f312577	0.6919779
45	0x3e302bb6	0.17204174
46	0xbf045fff	-0.5170898
47	0xbf33e08d	-0.7026451
48	0xbe8069cb	-0.25080714
49	0x3ec859a8	0.39130902
50	0xbf10702c	-0.5642116
51	0x3dde5c0a	0.10857399
52	0xbf226ccd	-0.63447267
53	0x3d174a01	0.03693581
54	0xbee8390a	-0.45356017
55	0xbf084ee1	-0.5324536
56	0x3ec5c2ca	0.38625175
57	0x3e947785	0.28997436
58	0xbee222e3	-0.4416724
59	0x3ea9379d	0.33050242
60	0xbe83edda	-0.25767404
61	0x3f14ead1	0.581708
62	0xbed370dc	-0.41297042
63	0xbdba41cd	-0.09094582

net.0.bias f4 [32]
0	0xbf24f3a7	-0.64434284
1	0x3e99bff0	0.3002925
2	0x3f203fd8	0.6259742
3	0xbd7035b8	-0.05864498
4	0x3f3419f1	0.70352083
5	0xbe5ade20	-0.21373796
6	0xbf1fb6cb	-0.62388295
7	0xbe40bb48	-0.18821442
8	0xbe196ffb	-0.14984123
9	0x3f0fdf1f	0.5619983
10	0x3ed829bf	0.4221935
11	0x3f15bde6	0.5849289
12	0x3e11f60a	0.14254013
13	0xbde5a815	-0.112137
14	0xbf270ce4	-0.65254045
15	0x3ec7b8e7	0.39008257
16	0xbefe3c57	-0.4965541
17	0xbe204f2c	-0.15655202
18	0x3f101e97	0.56296676
19	0x3f28e25a	0.65970385
20	0xbe439dcf	-0.19103168
21	0xbe3676f1	-0.1781881
22	0x3e4eb1c0	0.20184994
23	0xbf330ed3	-0.69944495
24	0x3e4181de	0.18897197
25	0xbee90d3a	-0.45517904
26	0xbebc6ed3	-0.36803302
27	0x3ea99fb4	0.33129656
28	0x3eecfb98	0.462857
29	0xbe3e878a	-0.18606392
30	0x3e4c278b	0.1993696
31	0x3ebd236c	0.36941087

net.2.weight f4 [32, 32]
0	0xbd1cf71c	-0.0383216
1	0x3de5c7b7	0.11219733
2	0xbdcde43f	-0.100533
3	0xbe301fbb	-0.17199604
4	0x3da71231	0.081577666
5	0x3c8351e4	0.01603026
6	0x3e1b5e1d	0.1517262
7	0xbbcc699d	-0.006238176
8	0x3dbce486	0.09223275
9	0xbcbaf9a6	-0.02282412
10	0xbcc9114f	-0.024544386
11	0x3d67dc4f	0.056606587
12	0x3db386a3	0.08765914
13	0x3e1326ff	0.14370345
14	0xbc535bfd	-0.01290035
15	0xbda6f969	-0.0815304
16	0xbc311d8b	-0.010810266
17	0xbd8a9427	-0.06766539
18	0x3dcff98f	0.101550214
19	0xbe204b2b	-0.15653674
20	0xbd930fe1	-0.07180763
21	0x3e193e3a	0.14965144
22	0x3e10bdd2	0.1413491
23	0x3e16e25d	0.14734788
24	0xbe0c4597	-0.13698421
25	0xbe0ebcc1	-0.13939191
26	0xbd7e3fda	-0.062072612
27	0xbdd729e5	-0.105060376
28	0x3dd8962a	0.105755165
29	0xbdaf3d8a	-0.085566595
30	0x3db0f9de	0.086414084
31	0x3d958504	0.07300761
32	0x3dffe665	0.12495116
33	0xbe2db99a	-0.16965333
34	0x3d9b84d1	0.07593692
35	0xbdc38e2a	-0.095486
36	0xbdbcf721	-0.092268236
37	0xbe0e130f	-0.13874458
38	0xbdb3b959	-0.08775587
39	0x3d953db0	0.072871566
40	0xbd3a2fd6	-0.045455776
41	0x3dee4ca2	0.1163571
42	0x3e030f56	0.12798819
43	0x3d24dada	0.040247776
44	0xbd2b088a	-0.04175619
45	0x3c9e13b8	0.019296512
46	0x3e0e7248	0.13910782
47	0x3e15f484	0.14644057
48	0x3c26ee87	0.010188705
49	0x3d6b437d	0.05743741
50	0x3dec2d30	0.11532056
51	0x3d069265	0.032854456
52	0xbe0a7a8b	-0.13523309
53	0x3d372752	0.044715233
54	0xbdca8bcc	-0.098899454
55	0x3e321e26	0.17394313
56	0xbd92c736	-0.07166903
57	0xbddb4a7d	-0.10707567
58	0xbcb3eddd	-0.021964008
59	0xbd01e33b	-0.031710844
60	0x3e0368a2	0.12832883
61	0x3e18560c	0.14876574
62	0xbdb2a665	-0.087231435
63	0xbe279a3a	-0.16367427
64	0x3cdced51	0.02696863
65	0x3d0deea9	0.034651432
66	0xbdaf652e	-0.0856422
67	0x3d6314d1	0.055439774
68	0x3c5b39ea	0.013380507
69	0x3d398c5c	0.045299873
70	0x3d366ddc	0.044538364
71	0x3dae49b0	0.085101485
72	0xbd551ab9	-0.052027438
73	0x3d463ad8	0.04839596
74	0xbdfaeb23	-0.1225188
75	0xbe2cb3d1	-0.1686547
76	0xbe0b2c1c	-0.13591045
77	0xbdf850de	-0.12124799
78	0x3c4de34c	0.012566399
79	0x3e007823	0.12545829
80	0xbe146f5f	-0.1449561
81	0x3c5ea42a	0.013588944
82	0x3d515c54	0.05111344
83	0x3e20fc5d	0.15721269
84	0xbde7bba4	-0.113150865
85	0xbe2c29c4	-0.16812807
86	0xbd4be9b7	-0.049783435
87	0xbdcf6429	-0.10126526
88	0xbd527135	-0.051377494
89	0xbd69c6ee	-0.05707448
90	0xbdb94576	-0.09046452
91	0xbda0e27c	-0.078556985
92	0x3e0c839d	0.13722081
93	0x3dd19aaa	0.10234578
94	0x3d1b5f05	0.037932415
95	0xbd87ed5b	-0.06637069
96	0xbe282bc7	-0.1642295
97	0xbe21546f	-0.15754865
98	0x3d87a16e	0.06622587
99	0xbcc0ba49	-0.023526328
100	0xbd8dbbb7	-0.069205694
101	0x3c3470a2	0.011013182
102	0x3d002249	0.031282697
103	0x3e2e09aa	0.16995874
104	0x3e2b9f6b	0.16760032
105	0x3de22250	0.11041701
106	0xbd343279	-0.043993447
107	0x3cc17414	0.02361492
108	0x3e14dc18	0.14537084
109	0xbccc2fb8	-0.024925098
110	0x3c2b9fa3	0.010475072
111	0x3dae3dd5	0.08507887
112	0x3dc44053	0.09582581
113	0xbbabc9cc	-0.005242562
114	0xbe015bb6	-0.12632641
115	0xbd2fff5d	-0.042968143
116	0xbde80632	-0.11329307
117	0x3dd1528d	0.102208234
118	0x3c3fcb5f	0.011706202
119	0x3e09f6f0	0.13473105
120	0x3d5d6a57	0.05405649
121	0x3d1b550e	0.03792291
122	0x3e1c2b3b	0.15250866
123	0xbe03874f	-0.12844585
124	0x3ddc8c8e	0.10768996
125	0x3d92593c	0.07145926
126	0xbda5a208	-0.08087546
127	0xbdb99435	-0.090614714
128	0x3cdb56f3	0.026774859
129	0xbd3a6117	-0.04550275
130	0xbde5a31a	-0.1121275
131	0x3e1ce081	0.15320016
132	0xbc4ed09f	-0.012622981
133	0xbd667799	-0.0562664
134	0x3e1eac58	0.15495431
135	0xbcbf9b12	-0.023389373
136	0x3e16096f	0.14652036
137	0x3c973246	0.01845659
138	0x3e09549f	0.13411187
139	0x3cde1e63	0.027114099
140	0x3e2a8e6b	0.1665589
141	0x3df3be6a	0.11901553
142	0x3dc0b877	0.09410184
143	0xbda6e9d2	-0.081500664
144	0x3bf7e56b	0.0075651905
145	0x3e098db8	0.13432968
146	0x3e18c880	0.14920235
147	0x3e0c505b	0.13702528
148	0xbd5afbab	-0.053462666
149	0xbe166f4d	-0.14690895
150	0xbd294dcd	-0.041333962
151	0x3db683df	0.08911871
152	0xba64b033	-0.00087237655
153	0xbe0d0b9b	-0.13773958
154	0xbc6dfd78	-0.014525764
155	0x3da5703a	0.08078046
156	0xbe13f9c7	-0.14450751
157	0xbc02fc54	-0.00799473
158	0x3e2a7fc2	0.16650298
159	0xbcffb2ff	-0.031213282
160	0x3e279bea	0.1636807
161	0x3d65f4ea	0.05614177
162	0x3d849131	0.064730056
163	0xbc7ff2d0	-0.015621856
164	0x3e120a2f	0.14261697
165	0xbdff6276	-0.12469952
166	0xbd09589e	-0.033531778
167	0xbaaca500	-0.0013171732
168	0x3e2f6e77	0.17131983
169	0x3d4eaccd	0.050457764
170	0xbc93c488	-0.01803805
171	0x3db51ea6	0.08843736
172	0xbe14403e	-0.14477631
173	0x3d63f05a	0.05564914
174	0x3c8c724d	0.017144347
175	0xbe07b603	-0.13253026
176	0x3d9c88a0	0.07643247
177	0x3e078f4e	0.1323826
178	0xbdc52e05	-0.09627918
179	0xbdd8cb7c	-0.105856866
180	0xbda2178e	-0.07914649
181	0xbe17ef9e	-0.148375
182	0xbc7c0b67	-0.015383578
183	0x3db8779e	0.0900719
184	0xbe2ec44b	-0.17067067
185	0xbd6955f3	-0.056966733
186	0xbdf57df6	-0.11986916
187	0xbd0616be	-0.032736532
188	0xbe15cb61	-0.14628364
189	0x3dabc479	0.083870836
190	0x3e0ae417	0.13563572
191	0xbc639a4e	-0.01389177
192	0xbde06287	-0.109562926
193	0x3ddd8f2d	0.10818324
194	0xbe02b173	-0.12763004
195	0xbd4d12a2	-0.050066598
196	0xbcc56727	-0.024097038
197	0xbc437570	-0.011929855
198	0x3df975c6	0.121806666
199	0xbd785573	-0.060628366
200	0x3daa73fd	0.08322904
201	0xbe07b748	-0.1325351
202	0x3c3a7401	0.011380197
203	0xbdbb3baf	-0.09142243
204	0xbd855a90	-0.06511414
205	0xbd2287dd	-0.03968035
206	0x3d1a887b	0.037727814
207	0x3d66e32a	0.056368984
208	0xbd5b406f	-0.053528246
209	0xbd7e969b	-0.062155347
210	0x3e2e7043	0.17035012
211	0xbd4d641b	-0.050144296
212	0x3d80aae1	0.062825926
213	0x3d7b64a3	0.06137527
214	0x3e1f2edf	0.15545224
215	0x3dbafb0d	0.091299154
216	0xbe00f2cf	-0.12592624
217	0x3e27a265	0.16370542
218	0xbce1478a	-0.027499933
219	0xbd3c1f4c	-0.045928285
220	0x3dcbc9f1	0.09950627
221	0xbd7a2490	-0.061070025
222	0x3e0f604a	0.14001575
223	0x3ca550f5	0.020180205
224	0x3d130edf	0.035902854
225	0xbe1b3e87	-0.15160571
226	0xbdd087d5	-0.10182158
227	0x3dab8be2	0.0837629
228	0xbe1864e3	-0.14882235
229	0x3e245b1b	0.16050379
230	0x3e2faaac	0.1715495
231	0xbe04706b	-0.12933509
232	0xbe17e545	-0.14833553
233	0x3e21b07d	0.15789981
234	0xbe208279	-0.15674771
235	0x3de3ea2d	0.1112865
236	0x3cd56a84	0.026051767
237	0xbc790a12	-0.015200155
238	0x3dd4744d	0.10373745
239	0x3da130bd	0.07870624
240	0x3da7b0cb	0.081880175
241	0x3c33eb2b	0.010981361
242	0x3d8bb913	0.068224095
243	0xbc860954	-0.01636187
244	0xbe0927fd	-0.1339416
245	0x3ddb455d	0.10706589
246	0x3df7dfac	0.12103209
247	0x3dca1583	0.09867384
248	0xbdab4bb6	-0.0836405
249	0x3deae826	0.1147006
250	0xbddc96e5	-0.10770968
251	0x3ddd6e3e	0.10812043
252	0xbbcd3515	-0.0062624314
253	0xbddbd1d5	-0.10733382
254	0x3dbac101	0.09118844
255	0xbd9f2dae	-0.077723846

net.2.bias f4 [32]
0	0x3c582660	0.013192743
1	0x3c708bcf	0.0146817705
2	0x3dbe15a7	0.092814736
3	0x3d9e1a51	0.07719863
4	0x3e00fd79	0.12596692
5	0xbe03a96a	-0.12857595
6	0xbc0d326a	-0.008617977
7	0xbcb44f94	-0.022010602
8	0x3c012740	0.007882893
9	0xbe346503	-0.17616658
10	0x3ca7264d	0.020404005
11	0x3def22c0	0.1167655
12	0x3dac1acc	0.084035486
13	0xbdcbd31c	-0.09952375
14	0xbde54e78	-0.11196607
15	0xbd1fb539	-0.038991187
16	0xbdb1c811	-0.08680738
17	0x3daa508c	0.08316144
18	0xbd56e071	-0.052460138
19	0x3dd85c15	0.10564438
20	0x3e00da90	0.12583375
21	0xbe1745a3	-0.14772658
22	0xbd3399ac	-0.043847725
23	0x3d8b41e5	0.06799678
24	0xbe0db023	-0.13836722
25	0xbe08e93e	-0.13370225
26	0x3c43c7e8	0.011949517
27	0xbdc8bcc6	-0.09801631
28	0x3da22e26	0.07918958
29	0x3d9fbf2d	0.07800136
30	0x3c81f26a	0.015862662
31	0xbdc8050f	-0.0976659

net.4.weight f4 [4, 32]
0	0x3e1c49f4	0.15262586
1	0x3d69a925	0.057046074
2	0xbe05a53a	-0.1305131
3	0x3e09c9c2	0.13455871
4	0xbd9b6f43	-0.07589581
5	0xbc9149dc	-0.017735414
6	0x3e1c70bd	0.15277381
7	0xbde85cb2	-0.11345805
8	0xbd0ff2f5	-0.03514381
9	0x3df38622	0.11890818
10	0xbbfa6e03	-0.007642509
11	0x3ba5eb32	0.005063438
12	0xbdd02e05	-0.101650275
13	0x3daeedc7	0.08541446
14	0x3e0bf239	0.1366662
15	0x3e14f0c3	0.14544968
16	0xbdb24777	-0.08705037
17	0x3cfaaf06	0.030601036
18	0xbe0a5feb	-0.13513152
19	0x3e25d83d	0.1619577
20	0x3cd15849	0.025554793
21	0xbe192daf	-0.14958833
22	0x3cc1ca4d	0.023656035
23	0xbcdf75f4	-0.027277924
24	0x3d24ab85	0.040202636
25	0xbdf37f76	-0.118895456
26	0xbe1b31d9	-0.15155734
27	0x3db566fc	0.08857533
28	0x3dd13d95	0.10216824
29	0x3e22082d	0.15823431
30	0xbdbef2b9	-0.093236394
31	0xbda56c53	-0.08077302
32	0xbe0010c3	-0.12506394
33	0xbda1dfa9	-0.07903988
34	0xbd9fd1c9	-0.07803685
35	0x3dc0a9a3	0.09407356
36	0xbe088248	-0.13330948
37	0xbc5f4ffe	-0.0136299115
38	0x3e0b1e95	0.13585885
39	0xbe197a9f	-0.14988182
40	0x3e1a7a54	0.15085727
41	0x3cb9ab96	0.022664826
42	0x3d7dbcba	0.06194756
43	0x3cd13505	0.025537977
44	0x3c9814f2	0.018564675
45	0x3e297e50	0.1655209
46	0xbe13bfc7	-0.14428626
47	0xbe2fbad6	-0.17161116
48	0xbd8bcbef	-0.068260066
49	0x3d791c0f	0.060817774
50	0x3bfc5809	0.0077009243
51	0x3d8fac0f	0.070152394
52	0x3dd73562	0.10508229
53	0x3e238f13	0.15972547
54	0x3daec66d	0.085339405
55	0x3d144d89	0.036206756
56	0xbd8b392d	-0.06798015
57	0x3e051926	0.12997875
58	0x3d331440	0.043720484
59	0x3e1d4067	0.15356599
60	0xbe13be23	-0.14428
61	0xbda88263	-0.08227994
62	0xbd99c434	-0.07508126
63	0xbe34eeeb	-0.17669265
64	0xbd6d95e1	-0.058004264
65	0x3e11e49d	0.14247365
66	0x3cfae2dd	0.030625755
67	0xbcc48985	-0.023991356
68	0xbe0f50e0	-0.13995695
69	0xbe298d04	-0.165577
70	0x3e14d4f2	0.14534357
71	0x3d58631f	0.052828904
72	0xbdcf6eb1	-0.101285346
73	0x3dd65136	0.104647085
74	0xbca0f010	-0.01964572
75	0x3c8c0908	0.01709415
76	0xbcadd31d	-0.02121883
77	0xbb210eb0	-0.0024575405
78	0x3ddbf051	0.10739196
79	0x3e1219b9	0.14267625
80	0xbce071ba	-0.027397979
81	0x3d901557	0.0703532
82	0x3d158a7f	0.036509033
83	0x3e20e87d	0.15713687
84	0xbe167ae1	-0.14695312
85	0xbe03ab28	-0.1285826
86	0xbd8afe79	-0.06786818
87	0x3dfd9cc1	0.12383414
88	0xbd926777	-0.071486406
89	0x3e03eeed	0.12884112
90	0x3e2bf86a	0.16793981
91	0xbdbac783	-0.09120085
92	0xbd823d93	-0.063594006
93	0xbe167610	-0.14693475
94	0xbde61e1a	-0.1123621
95	0x3dd32467	0.103096776
96	0xbd959b5b	-0.07305022
97	0x3e2b6a2e	0.16739723
98	0x3c96f8dd	0.018429214
99	0x3dee9aab	0.11650594
100	0xbe0ae05d	-0.1356215
101	0x3d5ba77f	0.053626534
102	0x3d124898	0.035713762
103	0xbdeef2e7	-0.11667424
104	0xbe2a871c	-0.16653103
105	0x3c1f3fb6	0.00971978
106	0x3dfe373f	0.12412881
107	0x3db80a80	0.08986378
108	0xbd283a95	-0.041071493
109	0xbe0a6789	-0.13516058
110	0x3da9eb03	0.08296778
111	0x3d10252a	0.035191692
112	0xbe160c9c	-0.14653248
113	0x3cf47342	0.029840115
114	0x3ddcc4a8	0.10779697
115	0xbdd85237	-0.10562556
116	0xbe07fa38	-0.13279045
117	0x3dc7fc4f	0.09764921
118	0xbb813757	-0.0039433646
119	0xbc88ce1d	-0.016699845
120	0x3d6515fa	0.05592916
121	0x3dfba49f	0.12287258
122	0xbe220c42	-0.15824988
123	0xbdf099bd	-0.11748073
124	0xbcaeb3f9	-0.021326052
125	0x3bb08321	0.0053867255
126	0xbe1b7f0a	-0.1518518
127	0xbcf081ff	-0.029358862

net.4.bias f4 [4]
0	0xbd8231c7	-0.063571505
1	0x3e1deee0	0.15423155
2	0xbca4caf6	-0.02011631
3	0x3d16fbea	0.036861338

extractor.0.weight f4 [32, 2]
0	0x3f2b28af	0.66858953
1	0xbee92af1	-0.45540574
2	0x3ebabc9b	0.3647202
3	0xbe9f7599	-0.31144407
4	0xbf0a2807	-0.53967327
5	0xbe4860d6	-0.1956819
6	0xbf2c41c7	-0.6728787
7	0x3f013d1d	0.50483876
8	0x3f21a5cd	0.63143617
9	0xbf2c54d9	-0.6731697
10	0xbe7493eb	-0.23884551
11	0xbd8e20aa	-0.06939824
12	0x3ec7c485	0.3901712
13	0x3f11d8e8	0.569716
14	0xbf248bda	-0.64275897
15	0xbf232f89	-0.6374441
16	0x3e25a528	0.16176283
17	0x3ecb5336	0.39711922
18	0xbe68efd6	-0.2274774
19	0x3eb53f3e	0.35399812
20	0x3f0c2113	0.5473797
21	0xbf7cacd5	-0.9870122
22	0x3f00809e	0.50196254
23	0x3e9e9b0a	0.3097766
24	0xbdcd97fa	-0.10038753
25	0x3e801ee8	0.2502358
26	0x3e8a34e4	0.26993477
27	0x3f40983c	0.7523229
28	0x3ecef477	0.40420887
29	0xbece6c16	-0.40316838
30	0xbef84c8e	-0.48495907
31	0xbe396466	-0.18104705
32	0xbe143050	-0.14471555
33	0xbdedb0ab	-0.11605962
34	0x3db33ef1	0.087522395
35	0x3ef3ffc8	0.47656083
36	0x3e3d1b4e	0.18467447
37	0xbee68be9	-0.45028618
38	0x3ecb719e	0.3973512
39	0xbf4461dc	-0.7671182
40	0xbf0a6a1c	-0.5406816
41	0xbd88ce83	-0.06680014
42	0x3ec41ffa	0.38305646
43	0x3f07faa4	0.5311682
44	0xbef3bf17	-0.47606727
45	0xbe05adf5	-0.1305464
46	0x3e7af22d	0.24506445
47	0x3ea306e8	0.31841207
48	0x3c3b4c92	0.01143183
49	0x3f3d232b	0.7388179
50	0xbf06ab5d	-0.5260523
51	0x3c56dcde	0.013114182
52	0xbdf15060	-0.117829084
53	0x3e5a3685	0.2130986
54	0x3d9d846c	0.07691273
55	0xbef3736b	-0.47548994
56	0x3e23b0c2	0.15985397
57	0xbeed89a0	-0.46394062
58	0xbc1e3c07	-0.009657866
59	0xbf28768b	-0.6580588
60	0x3dd7cf10	0.10537541
61	0xbe86a513	-0.26297817
62	0xbf34cb94	-0.70623136
63	0x3dba22db	0.090886794

extractor.0.bias f4 [32]
0	0x3f1d1d56	0.6137289
1	0xbea00aa9	-0.31258133
2	0x3eef8261	0.4677916
3	0xbef43065	-0.47693172
4	0xbecb1471	-0.39664033
5	0xbf121f45	-0.57078964
6	0xbe3f1500	-0.18660355
7	0x3ecf2e57	0.40465042
8	0xbde7616a	-0.11297877
9	0x3f359b68	0.70940256
10	0x3ec1e78e	0.37871975
11	0xbee3146a	-0.44351512
12	0x3ddebde5	0.10876063
13	0xbf0b9358	-0.54521704
14	0xbefb000a	-0.49023467
15	0x3f7c2b2e	0.98503387
16	0x3f18abed	0.5963734
17	0xbe5a31ce	-0.21308061
18	0x3f367f63	0.71288127
19	0x3efb308d	0.4906048
20	0xbddc139e	-0.10745929
21	0xbdb8cd00	-0.09023476
22	0xbf07411b	-0.5283372
23	0x3f45e9b5	0.77309734
24	0x3f37a53a	0.7173649
25	0x3f2f63a2	0.685114
26	0x3ee44c7e	0.4458961
27	0x3f7710ad	0.9650982
28	0x3ebe6f6d	0.37194386
29	0xbe5faa04	-0.218422
30	0x3f6de504	0.92927575
31	0x3f3c2937	0.7350039

extractor.2.weight f4 [32, 32]
0	0x3e6be438	0.23036277
1	0xbca6d7aa	-0.020366509
2	0x3ee7a638	0.45244002
3	0x3e9be7fd	0.3045043
4	0x3eb86f3d	0.36022368
5	0x3db15896	0.086594746
6	0xbb7dd39c	-0.0038730865
7	0x3e732e51	0.23748137
8	0xbdf47e09	-0.11938102
9	0x3e46538b	0.19367807
10	0x3edcf66e	0.4315676
11	0xbe93547f	-0.28775403
12	0xbd841f07	-0.064512305
13	0xbde46d8f	-0.11153709
14	0x3eb272d6	0.34853238
15	0x3eb92817	0.361634
16	0x3e9c3e65	0.30516353
17	0xbd33459f	-0.043767568
18	0x3e57ac66	0.21061859
19	0x3ee60f17	0.44933388
20	0x3bb16129	0.0054131937
21	0x3d093fa6	0.033507966
22	0xbdaec22c	-0.08533129
23	0x3de21395	0.11038891
24	0x3cfefc8f	0.031126289
25	0x3f00c979	0.5030742
26	0xbcf53976	-0.029934626
27	0x3ee6510d	0.44983712
28	0x3ea2d0b5	0.31799856
29	0xbdb69def	-0.08916842
30	0x3db77fb3	0.089599036
31	0x3e5504ca	0.20802608
32	0xbe27b4c7	-0.16377555
33	0x3e296e51	0.16545989
34	0x3c87c7c6	0.016574752
35	0x3d4a5bae	0.04940384
36	0xbc14d371	-0.009083615
37	0x3d989dce	0.07451974
38	0xbcca778b	-0.024715206
39	0xbd15e53e	-0.036595576
40	0xbd756089	-0.059906516
41	0xbdbbffd7	-0.09179657
42	0xbdbfefdd	-0.09371922
43	0xbdb9e873	-0.09077539
44	0x3abb76a1	0.0014302322
45	0xbcc3774b	-0.023860594
46	0xbd3b8580	-0.045781612
47	0x3dfe4cc6	0.12416987
48	0xbda0b61b	-0.07847234
49	0xbcc09b7c	-0.02351164
50	0xbd0e6faa	-0.03477446
51	0x3db9fe13	0.09081664
52	0xbd7dc48d	-0.061955024
53	0xbdc53c57	-0.096306495
54	0x3dd1e06a	0.10247882
55	0xbd80d97a	-0.0629148
56	0x3d79fc87	0.061031844
57	0xbd96e2e1	-0.073674925
58	0xbe350fc8	-0.17681801
59	0xbc52a7be	-0.012857376
60	0x3d81dc59	0.06340856
61	0xbddf527d	-0.10904405
62	0x3d9aadd9	0.0755269
63	0x3cf942a4	0.030427285
64	0xbe283a88	-0.16428578
65	0x3d5cbca3	0.053890835
66	0xbe239e6b	-0.159784
67	0xbcbb674b	-0.022876402
68	0x3d29217f	0.04129171
69	0x3e09474e	0.13406107
70	0xbd9031e4	-0.07040766
71	0xbdee42cf	-0.116338365
72	0xbd93942a	-0.072059944
73	0x3d1d9fe9	0.03848258
74	0xbdfbbdf7	-0.12292092
75	0xbdd01266	-0.10159759
76	0xbccdfe6f	-0.025145737
77	0x3bf4a336	0.0074657453
78	0x3c54db54	0.012991745
79	0xbd4c476e	-0.04987281
80	0xbd94bc71	-0.07262505
81	0x3e1dd92a	0.15414873
82	0xbe0f7534	-0.14009553
83	0x3dddff49	0.108397074
84	0xbd8ef411	-0.06980146
85	0x3bde9742	0.0067929337
86	0x3dd7d6f5	0.10539047
87	0xbe0ef2ef	-0.1395986
88	0xba381302	-0.00070218754
89	0xbe194540	-0.14967823
90	0xb9c5d029	-0.0003772986
91	0x3d0d1670	0.034445226
92	0x3ba0ae58	0.004903596
93	0xbe1fd5bd	-0.15608878
94	0x3d2fc649	0.04291371
95	0xbe1c1174	-0.15241033
96	0x3e24e138	0.16101539
97	0xbae9aeae	-0.0017828548
98	0xbd439843	-0.04775263
99	0xbd1c9900	-0.03823185
100	0xbcb41e77	-0.021987183
101	0x3cfae282	0.030625585
102	0x3df9d90d	0.12199602
103	0x3dbec89b	0.09315606
104	0x3d3b3afc	0.04571055
105	0xbdbc9cfc	-0.0920963
106	0xbe122697	-0.14272533
107	0xbdf1a20d	-0.11798487
108	0x3dbddd0d	0.09270678
109	0xbe3a2c7a	-0.18181029
110	0xbdf1e8cc	-0.118119806
111	0x3da65f81	0.08123685
112	0xbd3b61ad	-0.045747448
113	0xbe104bea	-0.14091459
114	0x3b804420	0.003914371
115	0xbdf99da3	-0.1218827
116	0x3e14d446	0.14534101
117	0x3e09f727	0.13473187
118	0xbe0221d9	-0.12708224
119	0x3df042e4	0.117315084
120	0xbe20fb0f	-0.15720771
121	0x3d5c46a3	0.053778302
122	0x3db3cd87	0.087794356
123	0x3ca01ed5	0.019545952
124	0xbd080f10	-0.03321749
125	0xbd0c598e	-0.034265094
126	0xbe3c8fa9	-0.18414177
127	0xbc948bfb	-0.018133154
128	0x3e950780	0.29107285
129	0xbd030ef1	-0.03199667
130	0x3e6d1ca8	0.23155463
131	0x3e602982	0.21890834
132	0x3e440956	0.19144186
133	0xbe1d746f	-0.15376447
134	0xbdf951ea	-0.12173827
135	0x3e93fef6	0.28905457
136	0x3df3617a	0.118838266
137	0x3d2d4739	0.04230425
138	0x3e8fddd1	0.2809892
139	0xbe9872e3	-0.29775152
140	0x3d97df5c	0.07415649
141	0xbe6e74a7	-0.23286687
142	0x3e91cdc4	0.284773
143	0x3ec78974	0.38972056
144	0x3e922dd4	0.2855059
145	0xbe20c8e6	-0.15701637
146	0x3e5b8a08	0.21439373
147	0x3e86e896	0.26349324
148	0xbda0a787	-0.07844453
149	0xbdd1b1a7	-0.102389626
150	0x3dabc09b	0.08386346
151	0x3d9eb4dc	0.0774934
152	0x3e22811c	0.15869564
153	0x3eade37e	0.33962625
154	0x3d26e8d9	0.040749405
155	0x3ed88c83	0.42294702
156	0x3ef24b8b	0.4732326
157	0x3e1c68a8	0.15274298
158	0x3e8c4ed8	0.27403903
159	0x3e843f5e	0.25829595
160	0xbd2b216b	-0.041779917
161	0xbdb08934	-0.086199194
162	0x3dcbf904	0.09959605
163	0x3e1ffb7e	0.1562328
164	0xbcfd7d4f	-0.03094354
165	0x3e2a593c	0.16635603
166	0xbddc5c9a	-0.1075985
167	0xbd94ba3e	-0.072620854
168	0xbe0c7d2e	-0.13719627
169	0xbd654117	-0.055970278
170	0x3d9cc929	0.07655556
171	0x3e0f03ab	0.13966243
172	0xbdf33d1d	-0.11876891
173	0x3c8a4e62	0.016883079
174	0xbc459d3f	-0.012061416
175	0xbd8d581a	-0.0690157
176	0xbd898a18	-0.067157924
177	0x3d985cea	0.07439597
178	0x3e17447e	0.14772221
179	0x3d70d312	0.058795042
180	0x3dbaa4ad	0.09113441
181	0xbe09d632	-0.13460615
182	0xbcf662e5	-0.030076453
183	0xbe191c85	-0.14952286
184	0x3e0213fa	0.12702933
185	0xbd1bb024	-0.038009778
186	0xbcae5067	-0.021278573
187	0x3cb81abe	0.02247369
188	0x3d16b4da	0.036793567
189	0xba555d2b	-0.0008139188
190	0xbc83ae09	-0.016074197
191	0x3dac5b00	0.084157944
192	0xbd94364a	-0.07236917
193	0x3e22900c	0.15875262
194	0x3e26f7fb	0.16305535
195	0xbe2aabcf	-0.16667102
196	0xbd9b8c22	-0.075950876
197	0x3d4eaded	0.050458837
198	0x3dc33942	0.095324054
199	0xbd378ede	-0.044813983
200	0xbdaf51ab	-0.08560499
201	0xbe1e5a41	-0.15464117
202	0xbdb792ba	-0.08963533
203	0xbd88266e	-0.06647955
204	0x3d035d45	0.03207137
205	0x3e2ce1fa	0.16883078
206	0x3d91c050	0.07116759
207	0x3e0d8e65	0.1382385
208	0xbd80d540	-0.06290674
209	0x3de4bf2e	0.11169277
210	0xbba384b9	-0.004990187
211	0xbde5c267	-0.1121872
212	0x3e1cb1ee	0.1530225
213	0xbd91dd18	-0.071222484
214	0x3c0c71e8	0.008572079
215	0xbe102072	-0.14074877
216	0xbd370e5a	-0.04469142
217	0x3d7a4f3b	0.061110716
218	0x3c7ea470	0.015542135
219	0xbca23451	-0.019800337
220	0xbde74e5f	-0.11294245
221	0x3e152aaf	0.14567064
222	0xbe035579	-0.12825574
223	0xbc94ac60	-0.018148601
224	0x3e184b62	0.14872506
225	0xbd7ac77b	-0.061225396
226	0xbdc19856	-0.09452884
227	0xbe8659f3	-0.262405
228	0xbd3d36a8	-0.046194702
229	0x3e2d7e7b	0.1694278
230	0x3e04d633	0.12972336
231	0xbbf69c4e	-0.007525957
232	0x3d9a14c1	0.0752349
233	0x3dde1794	0.10844341
234	0xbe847ee8	-0.25878072
235	0x3ea6590c	0.32489812
236	0xbc121ad2	-0.008917527
237	0x3db8e2ab	0.090276085
238	0xbeb045c3	-0.34428224
239	0xbe5c2a54	-0.21500522
240	0xbc3a1021	-0.0113563845
241	0x3d8c1803	0.06840517
242	0xbe177633	-0.14791183
243	0xbeca67ba	-0.39532262
244	0xbda75692	-0.08170809
245	0x3dd96bf8	0.106162965
246	0xbdc1d149	-0.09463746
247	0x3e512ff5	0.2042845
248	0x3e2c7159	0.16840114
249	0xbe7d1481	-0.24714853
250	0x3e2b7189	0.16742529
251	0xbe5de261	-0.21668388
252	0xbeacd969	-0.3375962
253	0xbe2c4592	-0.16823414
254	0x3dbf4d50	0.09340918
255	0xbe86038e	-0.26174587

extractor.2.bias f4 [32]
0	0x3e84fe16	0.25975102
1	0x3d4bfcc7	0.049801614
2	0x3dea6251	0.114445336
3	0xb9e9c8d2	-0.00044590846
4	0x3e007930	0.1254623
5	0xbd132016	-0.03591927
6	0x3e153370	0.14570403
7	0x3d118a4f	0.035532292
8	0x3e37964c	0.17928427
9	0x3de199dd	0.11015675
10	0x3e041c53	0.1290143
11	0x3dfd4d53	0.12368264
12	0xbe17e3e3	-0.14833026
13	0x3dd4693c	0.10371634
14	0x3e6224e3	0.22084384
15	0xbe148e38	-0.14507377
16	0x3e944376	0.2895772
17	0x3e0b2775	0.1358927
18	0xbd8133e8	-0.063087285
19	0xbd865b87	-0.06560426
20	0xbd9433e3	-0.07236459
21	0x3d119288	0.035540134
22	0x3e229f51	0.15881087
23	0x3e016c92	0.12639073
24	0xbe309408	-0.1724397
25	0x3e3b1a67	0.1827179
26	0x3d887198	0.06662291
27	0x3db36d87	0.08761125
28	0xbd585fce	-0.05282574
29	0x3e2f78e9	0.17135967
30	0x3da1f2fc	0.07907674
31	0xbdf07d86	-0.11742692

classifier.0.weight f4 [4, 32]
0	0x3d29e5ae	0.041478805
1	0x3d0ff2f1	0.035143796
2	0x3bd420ea	0.00647365
3	0xbccb49f3	-0.024815535
4	0x3dc0ad0d	0.09408007
5	0xbdb3e996	-0.08784787
6	0xbd6e8d25	-0.058240075
7	0xbe3aecaa	-0.18254343
8	0x3e42defc	0.19030374
9	0xbdc4f967	-0.09617882
10	0x3bffb0c3	0.007803054
11	0x3e2c5c37	0.16832052
12	0xbdcc4e56	-0.09975879
13	0x3e166f06	0.1469079
14	0x3e063ffe	0.13110349
15	0x3df871cb	0.12131079
16	0xbf1936e7	-0.598494
17	0xbe3b8b35	-0.18314822
18	0xbcd242e9	-0.02566667
19	0xbd8b0723	-0.067884706
20	0xbe15fd5f	-0.14647435
21	0x3c7756aa	0.015096346
22	0x3e2546f0	0.16140342
23	0x3dc64669	0.096813984
24	0xbe325fae	-0.17419311
25	0x3d07e401	0.033176426
26	0xbce48338	-0.027894601
27	0xbe149895	-0.1451133
28	0xbc800655	-0.01562802
29	0x3d50f65a	0.05101619
30	0xbe1ddba7	-0.15415822
31	0x3e29c243	0.16578011
32	0x3ed05d3c	0.40696132
33	0x3cef4a4f	0.029210238
34	0xbe0c2b86	-0.13688478
35	0x3e1a2e21	0.1505666
36	0x3eb909e6	0.36140364
37	0x3c433178	0.01191365
38	0x3bfce70d	0.007717973
39	0x3d7a9cb2	0.061184593
40	0x3eb6dff7	0.35717747
41	0x3e14d91f	0.1453595
42	0xbca867ad	-0.020557249
43	0x3de83425	0.11338071
44	0x3d39111c	0.045182332
45	0x3d5fba40	0.05462098
46	0xbda28d7a	-0.07937141
47	0xbd9dc6c7	-0.077039294
48	0x3e2a1bb5	0.16612132
49	0x3eaee21f	0.34156892
50	0xbc66b9c3	-0.014082375
51	0x3dd1613b	0.10223623
52	0xbe580660	-0.21096182
53	0x3d9673ab	0.07346281
54	0xbe385da2	-0.18004468
55	0x3d17a4a6	0.037022255
56	0xbe217fa5	-0.15771349
57	0xbde67fb4	-0.11254826
58	0xbe7991e0	-0.24372053
59	0xbe06ff1f	-0.13183258
60	0x3de00b54	0.10939661
61	0x3f0775f2	0.52914345
62	0xbbd185d7	-0.006394129
63	0x3d6fd90b	0.058556598
64	0xbcb01457	-0.021494074
65	0xbd81fb19	-0.06346721
66	0xbda96961	-0.082720526
67	0x3e1e3b81	0.15452386
68	0xbd1246d2	-0.03571207
69	0xbdc390dc	-0.09549114
70	0x3d56686f	0.05234569
71	0x3ea4e86b	0.3220857
72	0xbd166262	-0.03671492
73	0x3e11f5a9	0.14253868
74	0x3b50e2c9	0.0031873456
75	0xbd7a5c84	-0.061123386
76	0xbe0e77f9	-0.13912953
77	0x3e294d99	0.16533507
78	0x3de7bc7e	0.11315249
79	0x3d92a5a0	0.07160497
80	0x3f1446c8	0.57920504
81	0xbee1ae67	-0.4407837
82	0xbe10098a	-0.14066139
83	0x3d46c691	0.04852921
84	0xbddf9138	-0.1091637
85	0x3e020783	0.12698178
86	0x3e5fc7aa	0.2185351
87	0x3c016c05	0.007899289
88	0x3d08816a	0.033326544
89	0x3e911d97	0.28342888
90	0x3d0934b0	0.033497512
91	0x3e1b9024	0.15191704
92	0x3d9cfebf	0.076657765
93	0x3ddb723c	0.10715148
94	0xbda9b044	-0.08285573
95	0xbd63c143	-0.05560423
96	0xbe8ecda4	-0.27891266
97	0xbd9f6f29	-0.07784874
98	0xbc5beeef	-0.013423665
99	0x3dfbac06	0.1228867
100	0xbe4ff704	-0.20309073
101	0x3e0d5f81	0.13805963
102	0x3c45f36d	0.012081963
103	0x3cd20d66	0.025641154
104	0x3d52097f	0.051278587
105	0x3ca6fe3d	0.020384902
106	0xbeb1be47	-0.34715483
107	0xbe1b3ce7	-0.15159951
108	0xbe329193	-0.17438345
109	0xbe62c56b	-0.22145621
110	0xbe010813	-0.12600736
111	0xbd1f0b51	-0.03882915
112	0xbf21a69a	-0.6314484
113	0xbd2baa8f	-0.041910704
114	0xbd88b609	-0.066753455
115	0xbdb02a5f	-0.08601832
116	0x3de855a2	0.11344458
117	0x3dcc4dd4	0.09975782
118	0x3d191b87	0.037379768
119	0xbda1b509	-0.07895858
120	0x3da28742	0.07935955
121	0xbe1b961c	-0.15193981
122	0x3da1d9f3	0.07902899
123	0xbd122b74	-0.03568597
124	0x3db1b0cd	0.086763
125	0xbed063aa	-0.40701038
126	0xbe2a9bb1	-0.16660954
127	0xbdd65c57	-0.10466831

classifier.0.bias f4 [4]
0	0xbc6a9e5b	-0.014319981
1	0x3e73b78d	0.23800488
2	0x3dd0b868	0.10191423
3	0xbe76d790	-0.24105668
